…
I0522 17:14:11.833899 27530 net.cpp:294] The NetState phase (0) differed from the phase (1) specified by a rule in layer probt
I0522 17:14:11.834638 27530 net.cpp:51] Initializing net from parameters: 
name: "ResNet-50"
state {
  phase: TRAIN
  level: 0
  stage: ""
}
layer {
  name: "resnet_50"
  type: "Data"
  top: "data"
  top: "label"
  include {
    phase: TRAIN
  }
  transform_param {
    mirror: true
    crop_size: 224
    mean_file: "/home/kapitan/Desktop/caffe/data/mammo/mammogram_mean.binaryproto"
  }
  data_param {
    source: "/home/kapitan/Desktop/caffe/data/mammo/train_lmdb"
    batch_size: 16
    backend: LMDB
  }
}
layer {
  name: "conv1"
  type: "Convolution"
  bottom: "data"
  top: "conv1"
  convolution_param {
    num_output: 64
    pad: 3
    kernel_size: 7
    stride: 2
    weight_filler {
      type: "xavier"
    }
    bias_filler {
      type: "constant"
      value: 0.2
    }
  }
}
layer {
  name: "bn_conv1"
  type: "BatchNorm"
  bottom: "conv1"
  top: "conv1"
  batch_norm_param {
  }
}
layer {
  name: "scale_conv1"
  type: "Scale"
  bottom: "conv1"
  top: "conv1"
  scale_param {
    bias_term: true
  }
}
layer {
  name: "conv1_relu"
  type: "ReLU"
  bottom: "conv1"
  top: "conv1"
}
layer {
  name: "pool1"
  type: "Pooling"
  bottom: "conv1"
  top: "pool1"
  pooling_param {
    pool: MAX
    kernel_size: 3
    stride: 2
  }
}
layer {
  name: "res2a_branch1"
  type: "Convolution"
  bottom: "pool1"
  top: "res2a_branch1"
  convolution_param {
    num_output: 256
    bias_term: false
    pad: 0
    kernel_size: 1
    stride: 1
    weight_filler {
      type: "xavier"
    }
    bias_filler {
      type: "constant"
      value: 0.2
    }
  }
}
layer {
  name: "bn2a_branch1"
  type: "BatchNorm"
  bottom: "res2a_branch1"
  top: "res2a_branch1"
  batch_norm_param {
  }
}
layer {
  name: "scale2a_branch1"
  type: "Scale"
  bottom: "res2a_branch1"
  top: "res2a_branch1"
  scale_param {
    bias_term: true
  }
}
layer {
  name: "res2a_branch2a"
  type: "Convolution"
  bottom: "pool1"
  top: "res2a_branch2a"
  convolution_param {
    num_output: 64
    bias_term: false
    pad: 0
    kernel_size: 1
    stride: 1
    weight_filler {
      type: "xavier"
    }
    bias_filler {
      type: "constant"
      value: 0.2
    }
  }
}
layer {
  name: "bn2a_branch2a"
  type: "BatchNorm"
  bottom: "res2a_branch2a"
  top: "res2a_branch2a"
  batch_norm_param {
  }
}
layer {
  name: "scale2a_branch2a"
  type: "Scale"
  bottom: "res2a_branch2a"
  top: "res2a_branch2a"
  scale_param {
    bias_term: true
  }
}
layer {
  name: "res2a_branch2a_relu"
  type: "ReLU"
  bottom: "res2a_branch2a"
  top: "res2a_branch2a"
}
layer {
  name: "res2a_branch2b"
  type: "Convolution"
  bottom: "res2a_branch2a"
  top: "res2a_branch2b"
  convolution_param {
    num_output: 64
    bias_term: false
    pad: 1
    kernel_size: 3
    stride: 1
    weight_filler {
      type: "xavier"
    }
    bias_filler {
      type: "constant"
      value: 0.2
    }
  }
}
layer {
  name: "bn2a_branch2b"
  type: "BatchNorm"
  bottom: "res2a_branch2b"
  top: "res2a_branch2b"
  batch_norm_param {
  }
}
layer {
  name: "scale2a_branch2b"
  type: "Scale"
  bottom: "res2a_branch2b"
  top: "res2a_branch2b"
  scale_param {
    bias_term: true
  }
}
layer {
  name: "res2a_branch2b_relu"
  type: "ReLU"
  bottom: "res2a_branch2b"
  top: "res2a_branch2b"
}
layer {
  name: "res2a_branch2c"
  type: "Convolution"
  bottom: "res2a_branch2b"
  top: "res2a_branch2c"
  convolution_param {
    num_output: 256
    bias_term: false
    pad: 0
    kernel_size: 1
    stride: 1
    weight_filler {
      type: "xavier"
    }
    bias_filler {
      type: "constant"
      value: 0.2
    }
  }
}
layer {
  name: "bn2a_branch2c"
  type: "BatchNorm"
  bottom: "res2a_branch2c"
  top: "res2a_branch2c"
  batch_norm_param {
  }
}
layer {
  name: "scale2a_branch2c"
  type: "Scale"
  bottom: "res2a_branch2c"
  top: "res2a_branch2c"
  scale_param {
    bias_term: true
  }
}
layer {
  name: "res2a"
  type: "Eltwise"
  bottom: "res2a_branch1"
  bottom: "res2a_branch2c"
  top: "res2a"
}
layer {
  name: "res2a_relu"
  type: "ReLU"
  bottom: "res2a"
  top: "res2a"
}
layer {
  name: "res2b_branch2a"
  type: "Convolution"
  bottom: "res2a"
  top: "res2b_branch2a"
  convolution_param {
    num_output: 64
    bias_term: false
    pad: 0
    kernel_size: 1
    stride: 1
    weight_filler {
      type: "xavier"
    }
    bias_filler {
      type: "constant"
      value: 0.2
    }
  }
}
layer {
  name: "bn2b_branch2a"
  type: "BatchNorm"
  bottom: "res2b_branch2a"
  top: "res2b_branch2a"
  batch_norm_param {
  }
}
layer {
  name: "scale2b_branch2a"
  type: "Scale"
  bottom: "res2b_branch2a"
  top: "res2b_branch2a"
  scale_param {
    bias_term: true
  }
}
layer {
  name: "res2b_branch2a_relu"
  type: "ReLU"
  bottom: "res2b_branch2a"
  top: "res2b_branch2a"
}
layer {
  name: "res2b_branch2b"
  type: "Convolution"
  bottom: "res2b_branch2a"
  top: "res2b_branch2b"
  convolution_param {
    num_output: 64
    bias_term: false
    pad: 1
    kernel_size: 3
    stride: 1
    weight_filler {
      type: "xavier"
    }
    bias_filler {
      type: "constant"
      value: 0.2
    }
  }
}
layer {
  name: "bn2b_branch2b"
  type: "BatchNorm"
  bottom: "res2b_branch2b"
  top: "res2b_branch2b"
  batch_norm_param {
  }
}
layer {
  name: "scale2b_branch2b"
  type: "Scale"
  bottom: "res2b_branch2b"
  top: "res2b_branch2b"
  scale_param {
    bias_term: true
  }
}
layer {
  name: "res2b_branch2b_relu"
  type: "ReLU"
  bottom: "res2b_branch2b"
  top: "res2b_branch2b"
}
layer {
  name: "res2b_branch2c"
  type: "Convolution"
  bottom: "res2b_branch2b"
  top: "res2b_branch2c"
  convolution_param {
    num_output: 256
    bias_term: false
    pad: 0
    kernel_size: 1
    stride: 1
    weight_filler {
      type: "xavier"
    }
    bias_filler {
      type: "constant"
      value: 0.2
    }
  }
}
layer {
  name: "bn2b_branch2c"
  type: "BatchNorm"
  bottom: "res2b_branch2c"
  top: "res2b_branch2c"
  batch_norm_param {
  }
}
layer {
  name: "scale2b_branch2c"
  type: "Scale"
  bottom: "res2b_branch2c"
  top: "res2b_branch2c"
  scale_param {
    bias_term: true
  }
}
layer {
  name: "res2b"
  type: "Eltwise"
  bottom: "res2a"
  bottom: "res2b_branch2c"
  top: "res2b"
}
layer {
  name: "res2b_relu"
  type: "ReLU"
  bottom: "res2b"
  top: "res2b"
}
layer {
  name: "res2c_branch2a"
  type: "Convolution"
  bottom: "res2b"
  top: "res2c_branch2a"
  convolution_param {
    num_output: 64
    bias_term: false
    pad: 0
    kernel_size: 1
    stride: 1
    weight_filler {
      type: "xavier"
    }
    bias_filler {
      type: "constant"
      value: 0.2
    }
  }
}
layer {
  name: "bn2c_branch2a"
  type: "BatchNorm"
  bottom: "res2c_branch2a"
  top: "res2c_branch2a"
  batch_norm_param {
  }
}
layer {
  name: "scale2c_branch2a"
  type: "Scale"
  bottom: "res2c_branch2a"
  top: "res2c_branch2a"
  scale_param {
    bias_term: true
  }
}
layer {
  name: "res2c_branch2a_relu"
  type: "ReLU"
  bottom: "res2c_branch2a"
  top: "res2c_branch2a"
}
layer {
  name: "res2c_branch2b"
  type: "Convolution"
  bottom: "res2c_branch2a"
  top: "res2c_branch2b"
  convolution_param {
    num_output: 64
    bias_term: false
    pad: 1
    kernel_size: 3
    stride: 1
    weight_filler {
      type: "xavier"
    }
    bias_filler {
      type: "constant"
      value: 0.2
    }
  }
}
layer {
  name: "bn2c_branch2b"
  type: "BatchNorm"
  bottom: "res2c_branch2b"
  top: "res2c_branch2b"
  batch_norm_param {
  }
}
layer {
  name: "scale2c_branch2b"
  type: "Scale"
  bottom: "res2c_branch2b"
  top: "res2c_branch2b"
  scale_param {
    bias_term: true
  }
}
layer {
  name: "res2c_branch2b_relu"
  type: "ReLU"
  bottom: "res2c_branch2b"
  top: "res2c_branch2b"
}
layer {
  name: "res2c_branch2c"
  type: "Convolution"
  bottom: "res2c_branch2b"
  top: "res2c_branch2c"
  convolution_param {
    num_output: 256
    bias_term: false
    pad: 0
    kernel_size: 1
    stride: 1
    weight_filler {
      type: "xavier"
    }
    bias_filler {
      type: "constant"
      value: 0.2
    }
  }
}
layer {
  name: "bn2c_branch2c"
  type: "BatchNorm"
  bottom: "res2c_branch2c"
  top: "res2c_branch2c"
  batch_norm_param {
  }
}
layer {
  name: "scale2c_branch2c"
  type: "Scale"
  bottom: "res2c_branch2c"
  top: "res2c_branch2c"
  scale_param {
    bias_term: true
  }
}
layer {
  name: "res2c"
  type: "Eltwise"
  bottom: "res2b"
  bottom: "res2c_branch2c"
  top: "res2c"
}
layer {
  name: "res2c_relu"
  type: "ReLU"
  bottom: "res2c"
  top: "res2c"
}
layer {
  name: "res3a_branch1"
  type: "Convolution"
  bottom: "res2c"
  top: "res3a_branch1"
  convolution_param {
    num_output: 512
    bias_term: false
    pad: 0
    kernel_size: 1
    stride: 2
    weight_filler {
      type: "xavier"
    }
    bias_filler {
      type: "constant"
      value: 0.2
    }
  }
}
layer {
  name: "bn3a_branch1"
  type: "BatchNorm"
  bottom: "res3a_branch1"
  top: "res3a_branch1"
  batch_norm_param {
  }
}
layer {
  name: "scale3a_branch1"
  type: "Scale"
  bottom: "res3a_branch1"
  top: "res3a_branch1"
  scale_param {
    bias_term: true
  }
}
layer {
  name: "res3a_branch2a"
  type: "Convolution"
  bottom: "res2c"
  top: "res3a_branch2a"
  convolution_param {
    num_output: 128
    bias_term: false
    pad: 0
    kernel_size: 1
    stride: 2
    weight_filler {
      type: "xavier"
    }
    bias_filler {
      type: "constant"
      value: 0.2
    }
  }
}
layer {
  name: "bn3a_branch2a"
  type: "BatchNorm"
  bottom: "res3a_branch2a"
  top: "res3a_branch2a"
  batch_norm_param {
  }
}
layer {
  name: "scale3a_branch2a"
  type: "Scale"
  bottom: "res3a_branch2a"
  top: "res3a_branch2a"
  scale_param {
    bias_term: true
  }
}
layer {
  name: "res3a_branch2a_relu"
  type: "ReLU"
  bottom: "res3a_branch2a"
  top: "res3a_branch2a"
}
layer {
  name: "res3a_branch2b"
  type: "Convolution"
  bottom: "res3a_branch2a"
  top: "res3a_branch2b"
  convolution_param {
    num_output: 128
    bias_term: false
    pad: 1
    kernel_size: 3
    stride: 1
    weight_filler {
      type: "xavier"
    }
    bias_filler {
      type: "constant"
      value: 0.2
    }
  }
}
layer {
  name: "bn3a_branch2b"
  type: "BatchNorm"
  bottom: "res3a_branch2b"
  top: "res3a_branch2b"
  batch_norm_param {
  }
}
layer {
  name: "scale3a_branch2b"
  type: "Scale"
  bottom: "res3a_branch2b"
  top: "res3a_branch2b"
  scale_param {
    bias_term: true
  }
}
layer {
  name: "res3a_branch2b_relu"
  type: "ReLU"
  bottom: "res3a_branch2b"
  top: "res3a_branch2b"
}
layer {
  name: "res3a_branch2c"
  type: "Convolution"
  bottom: "res3a_branch2b"
  top: "res3a_branch2c"
  convolution_param {
    num_output: 512
    bias_term: false
    pad: 0
    kernel_size: 1
    stride: 1
    weight_filler {
      type: "xavier"
    }
    bias_filler {
      type: "constant"
      value: 0.2
    }
  }
}
layer {
  name: "bn3a_branch2c"
  type: "BatchNorm"
  bottom: "res3a_branch2c"
  top: "res3a_branch2c"
  batch_norm_param {
  }
}
layer {
  name: "scale3a_branch2c"
  type: "Scale"
  bottom: "res3a_branch2c"
  top: "res3a_branch2c"
  scale_param {
    bias_term: true
  }
}
layer {
  name: "res3a"
  type: "Eltwise"
  bottom: "res3a_branch1"
  bottom: "res3a_branch2c"
  top: "res3a"
}
layer {
  name: "res3a_relu"
  type: "ReLU"
  bottom: "res3a"
  top: "res3a"
}
layer {
  name: "res3b_branch2a"
  type: "Convolution"
  bottom: "res3a"
  top: "res3b_branch2a"
  convolution_param {
    num_output: 128
    bias_term: false
    pad: 0
    kernel_size: 1
    stride: 1
    weight_filler {
      type: "xavier"
    }
    bias_filler {
      type: "constant"
      value: 0.2
    }
  }
}
layer {
  name: "bn3b_branch2a"
  type: "BatchNorm"
  bottom: "res3b_branch2a"
  top: "res3b_branch2a"
  batch_norm_param {
  }
}
layer {
  name: "scale3b_branch2a"
  type: "Scale"
  bottom: "res3b_branch2a"
  top: "res3b_branch2a"
  scale_param {
    bias_term: true
  }
}
layer {
  name: "res3b_branch2a_relu"
  type: "ReLU"
  bottom: "res3b_branch2a"
  top: "res3b_branch2a"
}
layer {
  name: "res3b_branch2b"
  type: "Convolution"
  bottom: "res3b_branch2a"
  top: "res3b_branch2b"
  convolution_param {
    num_output: 128
    bias_term: false
    pad: 1
    kernel_size: 3
    stride: 1
    weight_filler {
      type: "xavier"
    }
    bias_filler {
      type: "constant"
      value: 0.2
    }
  }
}
layer {
  name: "bn3b_branch2b"
  type: "BatchNorm"
  bottom: "res3b_branch2b"
  top: "res3b_branch2b"
  batch_norm_param {
  }
}
layer {
  name: "scale3b_branch2b"
  type: "Scale"
  bottom: "res3b_branch2b"
  top: "res3b_branch2b"
  scale_param {
    bias_term: true
  }
}
layer {
  name: "res3b_branch2b_relu"
  type: "ReLU"
  bottom: "res3b_branch2b"
  top: "res3b_branch2b"
}
layer {
  name: "res3b_branch2c"
  type: "Convolution"
  bottom: "res3b_branch2b"
  top: "res3b_branch2c"
  convolution_param {
    num_output: 512
    bias_term: false
    pad: 0
    kernel_size: 1
    stride: 1
    weight_filler {
      type: "xavier"
    }
    bias_filler {
      type: "constant"
      value: 0.2
    }
  }
}
layer {
  name: "bn3b_branch2c"
  type: "BatchNorm"
  bottom: "res3b_branch2c"
  top: "res3b_branch2c"
  batch_norm_param {
  }
}
layer {
  name: "scale3b_branch2c"
  type: "Scale"
  bottom: "res3b_branch2c"
  top: "res3b_branch2c"
  scale_param {
    bias_term: true
  }
}
layer {
  name: "res3b"
  type: "Eltwise"
  bottom: "res3a"
  bottom: "res3b_branch2c"
  top: "res3b"
}
layer {
  name: "res3b_relu"
  type: "ReLU"
  bottom: "res3b"
  top: "res3b"
}
layer {
  name: "res3c_branch2a"
  type: "Convolution"
  bottom: "res3b"
  top: "res3c_branch2a"
  convolution_param {
    num_output: 128
    bias_term: false
    pad: 0
    kernel_size: 1
    stride: 1
    weight_filler {
      type: "xavier"
    }
    bias_filler {
      type: "constant"
      value: 0.2
    }
  }
}
layer {
  name: "bn3c_branch2a"
  type: "BatchNorm"
  bottom: "res3c_branch2a"
  top: "res3c_branch2a"
  batch_norm_param {
  }
}
layer {
  name: "scale3c_branch2a"
  type: "Scale"
  bottom: "res3c_branch2a"
  top: "res3c_branch2a"
  scale_param {
    bias_term: true
  }
}
layer {
  name: "res3c_branch2a_relu"
  type: "ReLU"
  bottom: "res3c_branch2a"
  top: "res3c_branch2a"
}
layer {
  name: "res3c_branch2b"
  type: "Convolution"
  bottom: "res3c_branch2a"
  top: "res3c_branch2b"
  convolution_param {
    num_output: 128
    bias_term: false
    pad: 1
    kernel_size: 3
    stride: 1
    weight_filler {
      type: "xavier"
    }
    bias_filler {
      type: "constant"
      value: 0.2
    }
  }
}
layer {
  name: "bn3c_branch2b"
  type: "BatchNorm"
  bottom: "res3c_branch2b"
  top: "res3c_branch2b"
  batch_norm_param {
  }
}
layer {
  name: "scale3c_branch2b"
  type: "Scale"
  bottom: "res3c_branch2b"
  top: "res3c_branch2b"
  scale_param {
    bias_term: true
  }
}
layer {
  name: "res3c_branch2b_relu"
  type: "ReLU"
  bottom: "res3c_branch2b"
  top: "res3c_branch2b"
}
layer {
  name: "res3c_branch2c"
  type: "Convolution"
  bottom: "res3c_branch2b"
  top: "res3c_branch2c"
  convolution_param {
    num_output: 512
    bias_term: false
    pad: 0
    kernel_size: 1
    stride: 1
    weight_filler {
      type: "xavier"
    }
    bias_filler {
      type: "constant"
      value: 0.2
    }
  }
}
layer {
  name: "bn3c_branch2c"
  type: "BatchNorm"
  bottom: "res3c_branch2c"
  top: "res3c_branch2c"
  batch_norm_param {
  }
}
layer {
  name: "scale3c_branch2c"
  type: "Scale"
  bottom: "res3c_branch2c"
  top: "res3c_branch2c"
  scale_param {
    bias_term: true
  }
}
layer {
  name: "res3c"
  type: "Eltwise"
  bottom: "res3b"
  bottom: "res3c_branch2c"
  top: "res3c"
}
layer {
  name: "res3c_relu"
  type: "ReLU"
  bottom: "res3c"
  top: "res3c"
}
layer {
  name: "res3d_branch2a"
  type: "Convolution"
  bottom: "res3c"
  top: "res3d_branch2a"
  convolution_param {
    num_output: 128
    bias_term: false
    pad: 0
    kernel_size: 1
    stride: 1
    weight_filler {
      type: "xavier"
    }
    bias_filler {
      type: "constant"
      value: 0.2
    }
  }
}
layer {
  name: "bn3d_branch2a"
  type: "BatchNorm"
  bottom: "res3d_branch2a"
  top: "res3d_branch2a"
  batch_norm_param {
  }
}
layer {
  name: "scale3d_branch2a"
  type: "Scale"
  bottom: "res3d_branch2a"
  top: "res3d_branch2a"
  scale_param {
    bias_term: true
  }
}
layer {
  name: "res3d_branch2a_relu"
  type: "ReLU"
  bottom: "res3d_branch2a"
  top: "res3d_branch2a"
}
layer {
  name: "res3d_branch2b"
  type: "Convolution"
  bottom: "res3d_branch2a"
  top: "res3d_branch2b"
  convolution_param {
    num_output: 128
    bias_term: false
    pad: 1
    kernel_size: 3
    stride: 1
    weight_filler {
      type: "xavier"
    }
    bias_filler {
      type: "constant"
      value: 0.2
    }
  }
}
layer {
  name: "bn3d_branch2b"
  type: "BatchNorm"
  bottom: "res3d_branch2b"
  top: "res3d_branch2b"
  batch_norm_param {
  }
}
layer {
  name: "scale3d_branch2b"
  type: "Scale"
  bottom: "res3d_branch2b"
  top: "res3d_branch2b"
  scale_param {
    bias_term: true
  }
}
layer {
  name: "res3d_branch2b_relu"
  type: "ReLU"
  bottom: "res3d_branch2b"
  top: "res3d_branch2b"
}
layer {
  name: "res3d_branch2c"
  type: "Convolution"
  bottom: "res3d_branch2b"
  top: "res3d_branch2c"
  convolution_param {
    num_output: 512
    bias_term: false
    pad: 0
    kernel_size: 1
    stride: 1
    weight_filler {
      type: "xavier"
    }
    bias_filler {
      type: "constant"
      value: 0.2
    }
  }
}
layer {
  name: "bn3d_branch2c"
  type: "BatchNorm"
  bottom: "res3d_branch2c"
  top: "res3d_branch2c"
  batch_norm_param {
  }
}
layer {
  name: "scale3d_branch2c"
  type: "Scale"
  bottom: "res3d_branch2c"
  top: "res3d_branch2c"
  scale_param {
    bias_term: true
  }
}
layer {
  name: "res3d"
  type: "Eltwise"
  bottom: "res3c"
  bottom: "res3d_branch2c"
  top: "res3d"
}
layer {
  name: "res3d_relu"
  type: "ReLU"
  bottom: "res3d"
  top: "res3d"
}
layer {
  name: "res4a_branch1"
  type: "Convolution"
  bottom: "res3d"
  top: "res4a_branch1"
  convolution_param {
    num_output: 1024
    bias_term: false
    pad: 0
    kernel_size: 1
    stride: 2
    weight_filler {
      type: "xavier"
    }
    bias_filler {
      type: "constant"
      value: 0.2
    }
  }
}
layer {
  name: "bn4a_branch1"
  type: "BatchNorm"
  bottom: "res4a_branch1"
  top: "res4a_branch1"
  batch_norm_param {
  }
}
layer {
  name: "scale4a_branch1"
  type: "Scale"
  bottom: "res4a_branch1"
  top: "res4a_branch1"
  scale_param {
    bias_term: true
  }
}
layer {
  name: "res4a_branch2a"
  type: "Convolution"
  bottom: "res3d"
  top: "res4a_branch2a"
  convolution_param {
    num_output: 256
    bias_term: false
    pad: 0
    kernel_size: 1
    stride: 2
    weight_filler {
      type: "xavier"
    }
    bias_filler {
      type: "constant"
      value: 0.2
    }
  }
}
layer {
  name: "bn4a_branch2a"
  type: "BatchNorm"
  bottom: "res4a_branch2a"
  top: "res4a_branch2a"
  batch_norm_param {
  }
}
layer {
  name: "scale4a_branch2a"
  type: "Scale"
  bottom: "res4a_branch2a"
  top: "res4a_branch2a"
  scale_param {
    bias_term: true
  }
}
layer {
  name: "res4a_branch2a_relu"
  type: "ReLU"
  bottom: "res4a_branch2a"
  top: "res4a_branch2a"
}
layer {
  name: "res4a_branch2b"
  type: "Convolution"
  bottom: "res4a_branch2a"
  top: "res4a_branch2b"
  convolution_param {
    num_output: 256
    bias_term: false
    pad: 1
    kernel_size: 3
    stride: 1
    weight_filler {
      type: "xavier"
    }
    bias_filler {
      type: "constant"
      value: 0.2
    }
  }
}
layer {
  name: "bn4a_branch2b"
  type: "BatchNorm"
  bottom: "res4a_branch2b"
  top: "res4a_branch2b"
  batch_norm_param {
  }
}
layer {
  name: "scale4a_branch2b"
  type: "Scale"
  bottom: "res4a_branch2b"
  top: "res4a_branch2b"
  scale_param {
    bias_term: true
  }
}
layer {
  name: "res4a_branch2b_relu"
  type: "ReLU"
  bottom: "res4a_branch2b"
  top: "res4a_branch2b"
}
layer {
  name: "res4a_branch2c"
  type: "Convolution"
  bottom: "res4a_branch2b"
  top: "res4a_branch2c"
  convolution_param {
    num_output: 1024
    bias_term: false
    pad: 0
    kernel_size: 1
    stride: 1
    weight_filler {
      type: "xavier"
    }
    bias_filler {
      type: "constant"
      value: 0.2
    }
  }
}
layer {
  name: "bn4a_branch2c"
  type: "BatchNorm"
  bottom: "res4a_branch2c"
  top: "res4a_branch2c"
  batch_norm_param {
  }
}
layer {
  name: "scale4a_branch2c"
  type: "Scale"
  bottom: "res4a_branch2c"
  top: "res4a_branch2c"
  scale_param {
    bias_term: true
  }
}
layer {
  name: "res4a"
  type: "Eltwise"
  bottom: "res4a_branch1"
  bottom: "res4a_branch2c"
  top: "res4a"
}
layer {
  name: "res4a_relu"
  type: "ReLU"
  bottom: "res4a"
  top: "res4a"
}
layer {
  name: "res4b_branch2a"
  type: "Convolution"
  bottom: "res4a"
  top: "res4b_branch2a"
  convolution_param {
    num_output: 256
    bias_term: false
    pad: 0
    kernel_size: 1
    stride: 1
    weight_filler {
      type: "xavier"
    }
    bias_filler {
      type: "constant"
      value: 0.2
    }
  }
}
layer {
  name: "bn4b_branch2a"
  type: "BatchNorm"
  bottom: "res4b_branch2a"
  top: "res4b_branch2a"
  batch_norm_param {
  }
}
layer {
  name: "scale4b_branch2a"
  type: "Scale"
  bottom: "res4b_branch2a"
  top: "res4b_branch2a"
  scale_param {
    bias_term: true
  }
}
layer {
  name: "res4b_branch2a_relu"
  type: "ReLU"
  bottom: "res4b_branch2a"
  top: "res4b_branch2a"
}
layer {
  name: "res4b_branch2b"
  type: "Convolution"
  bottom: "res4b_branch2a"
  top: "res4b_branch2b"
  convolution_param {
    num_output: 256
    bias_term: false
    pad: 1
    kernel_size: 3
    stride: 1
    weight_filler {
      type: "xavier"
    }
    bias_filler {
      type: "constant"
      value: 0.2
    }
  }
}
layer {
  name: "bn4b_branch2b"
  type: "BatchNorm"
  bottom: "res4b_branch2b"
  top: "res4b_branch2b"
  batch_norm_param {
  }
}
layer {
  name: "scale4b_branch2b"
  type: "Scale"
  bottom: "res4b_branch2b"
  top: "res4b_branch2b"
  scale_param {
    bias_term: true
  }
}
layer {
  name: "res4b_branch2b_relu"
  type: "ReLU"
  bottom: "res4b_branch2b"
  top: "res4b_branch2b"
}
layer {
  name: "res4b_branch2c"
  type: "Convolution"
  bottom: "res4b_branch2b"
  top: "res4b_branch2c"
  convolution_param {
    num_output: 1024
    bias_term: false
    pad: 0
    kernel_size: 1
    stride: 1
    weight_filler {
      type: "xavier"
    }
    bias_filler {
      type: "constant"
      value: 0.2
    }
  }
}
layer {
  name: "bn4b_branch2c"
  type: "BatchNorm"
  bottom: "res4b_branch2c"
  top: "res4b_branch2c"
  batch_norm_param {
  }
}
layer {
  name: "scale4b_branch2c"
  type: "Scale"
  bottom: "res4b_branch2c"
  top: "res4b_branch2c"
  scale_param {
    bias_term: true
  }
}
layer {
  name: "res4b"
  type: "Eltwise"
  bottom: "res4a"
  bottom: "res4b_branch2c"
  top: "res4b"
}
layer {
  name: "res4b_relu"
  type: "ReLU"
  bottom: "res4b"
  top: "res4b"
}
layer {
  name: "res4c_branch2a"
  type: "Convolution"
  bottom: "res4b"
  top: "res4c_branch2a"
  convolution_param {
    num_output: 256
    bias_term: false
    pad: 0
    kernel_size: 1
    stride: 1
    weight_filler {
      type: "xavier"
    }
    bias_filler {
      type: "constant"
      value: 0.2
    }
  }
}
layer {
  name: "bn4c_branch2a"
  type: "BatchNorm"
  bottom: "res4c_branch2a"
  top: "res4c_branch2a"
  batch_norm_param {
  }
}
layer {
  name: "scale4c_branch2a"
  type: "Scale"
  bottom: "res4c_branch2a"
  top: "res4c_branch2a"
  scale_param {
    bias_term: true
  }
}
layer {
  name: "res4c_branch2a_relu"
  type: "ReLU"
  bottom: "res4c_branch2a"
  top: "res4c_branch2a"
}
layer {
  name: "res4c_branch2b"
  type: "Convolution"
  bottom: "res4c_branch2a"
  top: "res4c_branch2b"
  convolution_param {
    num_output: 256
    bias_term: false
    pad: 1
    kernel_size: 3
    stride: 1
    weight_filler {
      type: "xavier"
    }
    bias_filler {
      type: "constant"
      value: 0.2
    }
  }
}
layer {
  name: "bn4c_branch2b"
  type: "BatchNorm"
  bottom: "res4c_branch2b"
  top: "res4c_branch2b"
  batch_norm_param {
  }
}
layer {
  name: "scale4c_branch2b"
  type: "Scale"
  bottom: "res4c_branch2b"
  top: "res4c_branch2b"
  scale_param {
    bias_term: true
  }
}
layer {
  name: "res4c_branch2b_relu"
  type: "ReLU"
  bottom: "res4c_branch2b"
  top: "res4c_branch2b"
}
layer {
  name: "res4c_branch2c"
  type: "Convolution"
  bottom: "res4c_branch2b"
  top: "res4c_branch2c"
  convolution_param {
    num_output: 1024
    bias_term: false
    pad: 0
    kernel_size: 1
    stride: 1
    weight_filler {
      type: "xavier"
    }
    bias_filler {
      type: "constant"
      value: 0.2
    }
  }
}
layer {
  name: "bn4c_branch2c"
  type: "BatchNorm"
  bottom: "res4c_branch2c"
  top: "res4c_branch2c"
  batch_norm_param {
  }
}
layer {
  name: "scale4c_branch2c"
  type: "Scale"
  bottom: "res4c_branch2c"
  top: "res4c_branch2c"
  scale_param {
    bias_term: true
  }
}
layer {
  name: "res4c"
  type: "Eltwise"
  bottom: "res4b"
  bottom: "res4c_branch2c"
  top: "res4c"
}
layer {
  name: "res4c_relu"
  type: "ReLU"
  bottom: "res4c"
  top: "res4c"
}
layer {
  name: "res4d_branch2a"
  type: "Convolution"
  bottom: "res4c"
  top: "res4d_branch2a"
  convolution_param {
    num_output: 256
    bias_term: false
    pad: 0
    kernel_size: 1
    stride: 1
    weight_filler {
      type: "xavier"
    }
    bias_filler {
      type: "constant"
      value: 0.2
    }
  }
}
layer {
  name: "bn4d_branch2a"
  type: "BatchNorm"
  bottom: "res4d_branch2a"
  top: "res4d_branch2a"
  batch_norm_param {
  }
}
layer {
  name: "scale4d_branch2a"
  type: "Scale"
  bottom: "res4d_branch2a"
  top: "res4d_branch2a"
  scale_param {
    bias_term: true
  }
}
layer {
  name: "res4d_branch2a_relu"
  type: "ReLU"
  bottom: "res4d_branch2a"
  top: "res4d_branch2a"
}
layer {
  name: "res4d_branch2b"
  type: "Convolution"
  bottom: "res4d_branch2a"
  top: "res4d_branch2b"
  convolution_param {
    num_output: 256
    bias_term: false
    pad: 1
    kernel_size: 3
    stride: 1
    weight_filler {
      type: "xavier"
    }
    bias_filler {
      type: "constant"
      value: 0.2
    }
  }
}
layer {
  name: "bn4d_branch2b"
  type: "BatchNorm"
  bottom: "res4d_branch2b"
  top: "res4d_branch2b"
  batch_norm_param {
  }
}
layer {
  name: "scale4d_branch2b"
  type: "Scale"
  bottom: "res4d_branch2b"
  top: "res4d_branch2b"
  scale_param {
    bias_term: true
  }
}
layer {
  name: "res4d_branch2b_relu"
  type: "ReLU"
  bottom: "res4d_branch2b"
  top: "res4d_branch2b"
}
layer {
  name: "res4d_branch2c"
  type: "Convolution"
  bottom: "res4d_branch2b"
  top: "res4d_branch2c"
  convolution_param {
    num_output: 1024
    bias_term: false
    pad: 0
    kernel_size: 1
    stride: 1
    weight_filler {
      type: "xavier"
    }
    bias_filler {
      type: "constant"
      value: 0.2
    }
  }
}
layer {
  name: "bn4d_branch2c"
  type: "BatchNorm"
  bottom: "res4d_branch2c"
  top: "res4d_branch2c"
  batch_norm_param {
  }
}
layer {
  name: "scale4d_branch2c"
  type: "Scale"
  bottom: "res4d_branch2c"
  top: "res4d_branch2c"
  scale_param {
    bias_term: true
  }
}
layer {
  name: "res4d"
  type: "Eltwise"
  bottom: "res4c"
  bottom: "res4d_branch2c"
  top: "res4d"
}
layer {
  name: "res4d_relu"
  type: "ReLU"
  bottom: "res4d"
  top: "res4d"
}
layer {
  name: "res4e_branch2a"
  type: "Convolution"
  bottom: "res4d"
  top: "res4e_branch2a"
  convolution_param {
    num_output: 256
    bias_term: false
    pad: 0
    kernel_size: 1
    stride: 1
    weight_filler {
      type: "xavier"
    }
    bias_filler {
      type: "constant"
      value: 0.2
    }
  }
}
layer {
  name: "bn4e_branch2a"
  type: "BatchNorm"
  bottom: "res4e_branch2a"
  top: "res4e_branch2a"
  batch_norm_param {
  }
}
layer {
  name: "scale4e_branch2a"
  type: "Scale"
  bottom: "res4e_branch2a"
  top: "res4e_branch2a"
  scale_param {
    bias_term: true
  }
}
layer {
  name: "res4e_branch2a_relu"
  type: "ReLU"
  bottom: "res4e_branch2a"
  top: "res4e_branch2a"
}
layer {
  name: "res4e_branch2b"
  type: "Convolution"
  bottom: "res4e_branch2a"
  top: "res4e_branch2b"
  convolution_param {
    num_output: 256
    bias_term: false
    pad: 1
    kernel_size: 3
    stride: 1
    weight_filler {
      type: "xavier"
    }
    bias_filler {
      type: "constant"
      value: 0.2
    }
  }
}
layer {
  name: "bn4e_branch2b"
  type: "BatchNorm"
  bottom: "res4e_branch2b"
  top: "res4e_branch2b"
  batch_norm_param {
  }
}
layer {
  name: "scale4e_branch2b"
  type: "Scale"
  bottom: "res4e_branch2b"
  top: "res4e_branch2b"
  scale_param {
    bias_term: true
  }
}
layer {
  name: "res4e_branch2b_relu"
  type: "ReLU"
  bottom: "res4e_branch2b"
  top: "res4e_branch2b"
}
layer {
  name: "res4e_branch2c"
  type: "Convolution"
  bottom: "res4e_branch2b"
  top: "res4e_branch2c"
  convolution_param {
    num_output: 1024
    bias_term: false
    pad: 0
    kernel_size: 1
    stride: 1
    weight_filler {
      type: "xavier"
    }
    bias_filler {
      type: "constant"
      value: 0.2
    }
  }
}
layer {
  name: "bn4e_branch2c"
  type: "BatchNorm"
  bottom: "res4e_branch2c"
  top: "res4e_branch2c"
  batch_norm_param {
  }
}
layer {
  name: "scale4e_branch2c"
  type: "Scale"
  bottom: "res4e_branch2c"
  top: "res4e_branch2c"
  scale_param {
    bias_term: true
  }
}
layer {
  name: "res4e"
  type: "Eltwise"
  bottom: "res4d"
  bottom: "res4e_branch2c"
  top: "res4e"
}
layer {
  name: "res4e_relu"
  type: "ReLU"
  bottom: "res4e"
  top: "res4e"
}
layer {
  name: "res4f_branch2a"
  type: "Convolution"
  bottom: "res4e"
  top: "res4f_branch2a"
  convolution_param {
    num_output: 256
    bias_term: false
    pad: 0
    kernel_size: 1
    stride: 1
    weight_filler {
      type: "xavier"
    }
    bias_filler {
      type: "constant"
      value: 0.2
    }
  }
}
layer {
  name: "bn4f_branch2a"
  type: "BatchNorm"
  bottom: "res4f_branch2a"
  top: "res4f_branch2a"
  batch_norm_param {
  }
}
layer {
  name: "scale4f_branch2a"
  type: "Scale"
  bottom: "res4f_branch2a"
  top: "res4f_branch2a"
  scale_param {
    bias_term: true
  }
I0522 17:14:11.835320 27530 layer_factory.hpp:77] Creating layer resnet_50
I0522 17:14:11.835413 27530 db_lmdb.cpp:35] Opened lmdb /home/kapitan/Desktop/caffe/data/mammo/train_lmdb
I0522 17:14:11.835438 27530 net.cpp:84] Creating Layer resnet_50
I0522 17:14:11.835445 27530 net.cpp:380] resnet_50 -> data
I0522 17:14:11.835461 27530 net.cpp:380] resnet_50 -> label
I0522 17:14:11.835477 27530 data_transformer.cpp:25] Loading mean file from: /home/kapitan/Desktop/caffe/data/mammo/mammogram_mean.binaryproto
I0522 17:14:11.838223 27530 data_layer.cpp:45] output data size: 16,3,224,224
I0522 17:14:11.855911 27530 net.cpp:122] Setting up resnet_50
I0522 17:14:11.855981 27530 net.cpp:129] Top shape: 16 3 224 224 (2408448)
I0522 17:14:11.856000 27530 net.cpp:129] Top shape: 16 (16)
I0522 17:14:11.856012 27530 net.cpp:137] Memory required for data: 9633856
I0522 17:14:11.856032 27530 layer_factory.hpp:77] Creating layer conv1
I0522 17:14:11.856060 27530 net.cpp:84] Creating Layer conv1
I0522 17:14:11.856066 27530 net.cpp:406] conv1 <- data
I0522 17:14:11.856079 27530 net.cpp:380] conv1 -> conv1
I0522 17:14:12.297691 27530 net.cpp:122] Setting up conv1
I0522 17:14:12.297730 27530 net.cpp:129] Top shape: 16 64 112 112 (12845056)
I0522 17:14:12.297734 27530 net.cpp:137] Memory required for data: 61014080
I0522 17:14:12.297767 27530 layer_factory.hpp:77] Creating layer bn_conv1
I0522 17:14:12.297792 27530 net.cpp:84] Creating Layer bn_conv1
I0522 17:14:12.297796 27530 net.cpp:406] bn_conv1 <- conv1
I0522 17:14:12.297801 27530 net.cpp:367] bn_conv1 -> conv1 (in-place)
I0522 17:14:12.298008 27530 net.cpp:122] Setting up bn_conv1
I0522 17:14:12.298025 27530 net.cpp:129] Top shape: 16 64 112 112 (12845056)
I0522 17:14:12.298043 27530 net.cpp:137] Memory required for data: 112394304
I0522 17:14:12.298053 27530 layer_factory.hpp:77] Creating layer scale_conv1
I0522 17:14:12.298074 27530 net.cpp:84] Creating Layer scale_conv1
I0522 17:14:12.298090 27530 net.cpp:406] scale_conv1 <- conv1
I0522 17:14:12.298094 27530 net.cpp:367] scale_conv1 -> conv1 (in-place)
I0522 17:14:12.298143 27530 layer_factory.hpp:77] Creating layer scale_conv1
I0522 17:14:12.298316 27530 net.cpp:122] Setting up scale_conv1
I0522 17:14:12.298323 27530 net.cpp:129] Top shape: 16 64 112 112 (12845056)
I0522 17:14:12.298326 27530 net.cpp:137] Memory required for data: 163774528
I0522 17:14:12.298342 27530 layer_factory.hpp:77] Creating layer conv1_relu
I0522 17:14:12.298348 27530 net.cpp:84] Creating Layer conv1_relu
I0522 17:14:12.298365 27530 net.cpp:406] conv1_relu <- conv1
I0522 17:14:12.298368 27530 net.cpp:367] conv1_relu -> conv1 (in-place)
I0522 17:14:12.298573 27530 net.cpp:122] Setting up conv1_relu
I0522 17:14:12.298581 27530 net.cpp:129] Top shape: 16 64 112 112 (12845056)
I0522 17:14:12.298599 27530 net.cpp:137] Memory required for data: 215154752
I0522 17:14:12.298600 27530 layer_factory.hpp:77] Creating layer pool1
I0522 17:14:12.298605 27530 net.cpp:84] Creating Layer pool1
I0522 17:14:12.298624 27530 net.cpp:406] pool1 <- conv1
I0522 17:14:12.298627 27530 net.cpp:380] pool1 -> pool1
I0522 17:14:12.298686 27530 net.cpp:122] Setting up pool1
I0522 17:14:12.298692 27530 net.cpp:129] Top shape: 16 64 56 56 (3211264)
I0522 17:14:12.298696 27530 net.cpp:137] Memory required for data: 227999808
I0522 17:14:12.298698 27530 layer_factory.hpp:77] Creating layer pool1_pool1_0_split
I0522 17:14:12.298703 27530 net.cpp:84] Creating Layer pool1_pool1_0_split
I0522 17:14:12.298707 27530 net.cpp:406] pool1_pool1_0_split <- pool1
I0522 17:14:12.298710 27530 net.cpp:380] pool1_pool1_0_split -> pool1_pool1_0_split_0
I0522 17:14:12.298717 27530 net.cpp:380] pool1_pool1_0_split -> pool1_pool1_0_split_1
I0522 17:14:12.298743 27530 net.cpp:122] Setting up pool1_pool1_0_split
I0522 17:14:12.298749 27530 net.cpp:129] Top shape: 16 64 56 56 (3211264)
I0522 17:14:12.298754 27530 net.cpp:129] Top shape: 16 64 56 56 (3211264)
I0522 17:14:12.298772 27530 net.cpp:137] Memory required for data: 253689920
I0522 17:14:12.298774 27530 layer_factory.hpp:77] Creating layer res2a_branch1
I0522 17:14:12.298799 27530 net.cpp:84] Creating Layer res2a_branch1
I0522 17:14:12.298802 27530 net.cpp:406] res2a_branch1 <- pool1_pool1_0_split_0
I0522 17:14:12.298820 27530 net.cpp:380] res2a_branch1 -> res2a_branch1
I0522 17:14:12.299728 27530 net.cpp:122] Setting up res2a_branch1
I0522 17:14:12.299753 27530 net.cpp:129] Top shape: 16 256 56 56 (12845056)
I0522 17:14:12.299757 27530 net.cpp:137] Memory required for data: 305070144
I0522 17:14:12.299762 27530 layer_factory.hpp:77] Creating layer bn2a_branch1
I0522 17:14:12.299782 27530 net.cpp:84] Creating Layer bn2a_branch1
I0522 17:14:12.299785 27530 net.cpp:406] bn2a_branch1 <- res2a_branch1
I0522 17:14:12.299804 27530 net.cpp:367] bn2a_branch1 -> res2a_branch1 (in-place)
I0522 17:14:12.300565 27530 net.cpp:122] Setting up bn2a_branch1
I0522 17:14:12.300590 27530 net.cpp:129] Top shape: 16 256 56 56 (12845056)
I0522 17:14:12.300593 27530 net.cpp:137] Memory required for data: 356450368
I0522 17:14:12.300603 27530 layer_factory.hpp:77] Creating layer scale2a_branch1
I0522 17:14:12.300623 27530 net.cpp:84] Creating Layer scale2a_branch1
I0522 17:14:12.300642 27530 net.cpp:406] scale2a_branch1 <- res2a_branch1
I0522 17:14:12.300647 27530 net.cpp:367] scale2a_branch1 -> res2a_branch1 (in-place)
I0522 17:14:12.300725 27530 layer_factory.hpp:77] Creating layer scale2a_branch1
I0522 17:14:12.300880 27530 net.cpp:122] Setting up scale2a_branch1
I0522 17:14:12.300886 27530 net.cpp:129] Top shape: 16 256 56 56 (12845056)
I0522 17:14:12.300889 27530 net.cpp:137] Memory required for data: 407830592
I0522 17:14:12.300894 27530 layer_factory.hpp:77] Creating layer res2a_branch2a
I0522 17:14:12.300910 27530 net.cpp:84] Creating Layer res2a_branch2a
I0522 17:14:12.300914 27530 net.cpp:406] res2a_branch2a <- pool1_pool1_0_split_1
I0522 17:14:12.300920 27530 net.cpp:380] res2a_branch2a -> res2a_branch2a
I0522 17:14:12.301798 27530 net.cpp:122] Setting up res2a_branch2a
I0522 17:14:12.301823 27530 net.cpp:129] Top shape: 16 64 56 56 (3211264)
I0522 17:14:12.301826 27530 net.cpp:137] Memory required for data: 420675648
I0522 17:14:12.301831 27530 layer_factory.hpp:77] Creating layer bn2a_branch2a
I0522 17:14:12.301851 27530 net.cpp:84] Creating Layer bn2a_branch2a
I0522 17:14:12.301853 27530 net.cpp:406] bn2a_branch2a <- res2a_branch2a
I0522 17:14:12.301873 27530 net.cpp:367] bn2a_branch2a -> res2a_branch2a (in-place)
I0522 17:14:12.302043 27530 net.cpp:122] Setting up bn2a_branch2a
I0522 17:14:12.302049 27530 net.cpp:129] Top shape: 16 64 56 56 (3211264)
I0522 17:14:12.302067 27530 net.cpp:137] Memory required for data: 433520704
I0522 17:14:12.302075 27530 layer_factory.hpp:77] Creating layer scale2a_branch2a
I0522 17:14:12.302096 27530 net.cpp:84] Creating Layer scale2a_branch2a
I0522 17:14:12.302100 27530 net.cpp:406] scale2a_branch2a <- res2a_branch2a
I0522 17:14:12.302104 27530 net.cpp:367] scale2a_branch2a -> res2a_branch2a (in-place)
I0522 17:14:12.302162 27530 layer_factory.hpp:77] Creating layer scale2a_branch2a
I0522 17:14:12.302332 27530 net.cpp:122] Setting up scale2a_branch2a
I0522 17:14:12.302340 27530 net.cpp:129] Top shape: 16 64 56 56 (3211264)
I0522 17:14:12.302342 27530 net.cpp:137] Memory required for data: 446365760
I0522 17:14:12.302347 27530 layer_factory.hpp:77] Creating layer res2a_branch2a_relu
I0522 17:14:12.302366 27530 net.cpp:84] Creating Layer res2a_branch2a_relu
I0522 17:14:12.302369 27530 net.cpp:406] res2a_branch2a_relu <- res2a_branch2a
I0522 17:14:12.302373 27530 net.cpp:367] res2a_branch2a_relu -> res2a_branch2a (in-place)
I0522 17:14:12.302556 27530 net.cpp:122] Setting up res2a_branch2a_relu
I0522 17:14:12.302563 27530 net.cpp:129] Top shape: 16 64 56 56 (3211264)
I0522 17:14:12.302580 27530 net.cpp:137] Memory required for data: 459210816
I0522 17:14:12.302583 27530 layer_factory.hpp:77] Creating layer res2a_branch2b
I0522 17:14:12.302590 27530 net.cpp:84] Creating Layer res2a_branch2b
I0522 17:14:12.302606 27530 net.cpp:406] res2a_branch2b <- res2a_branch2a
I0522 17:14:12.302613 27530 net.cpp:380] res2a_branch2b -> res2a_branch2b
I0522 17:14:12.304231 27530 net.cpp:122] Setting up res2a_branch2b
I0522 17:14:12.304244 27530 net.cpp:129] Top shape: 16 64 56 56 (3211264)
I0522 17:14:12.304247 27530 net.cpp:137] Memory required for data: 472055872
I0522 17:14:12.304255 27530 layer_factory.hpp:77] Creating layer bn2a_branch2b
I0522 17:14:12.304260 27530 net.cpp:84] Creating Layer bn2a_branch2b
I0522 17:14:12.304263 27530 net.cpp:406] bn2a_branch2b <- res2a_branch2b
I0522 17:14:12.304267 27530 net.cpp:367] bn2a_branch2b -> res2a_branch2b (in-place)
I0522 17:14:12.304473 27530 net.cpp:122] Setting up bn2a_branch2b
I0522 17:14:12.304479 27530 net.cpp:129] Top shape: 16 64 56 56 (3211264)
I0522 17:14:12.304482 27530 net.cpp:137] Memory required for data: 484900928
I0522 17:14:12.304488 27530 layer_factory.hpp:77] Creating layer scale2a_branch2b
I0522 17:14:12.304496 27530 net.cpp:84] Creating Layer scale2a_branch2b
I0522 17:14:12.304498 27530 net.cpp:406] scale2a_branch2b <- res2a_branch2b
I0522 17:14:12.304502 27530 net.cpp:367] scale2a_branch2b -> res2a_branch2b (in-place)
I0522 17:14:12.304545 27530 layer_factory.hpp:77] Creating layer scale2a_branch2b
I0522 17:14:12.304635 27530 net.cpp:122] Setting up scale2a_branch2b
I0522 17:14:12.304641 27530 net.cpp:129] Top shape: 16 64 56 56 (3211264)
I0522 17:14:12.304643 27530 net.cpp:137] Memory required for data: 497745984
I0522 17:14:12.304648 27530 layer_factory.hpp:77] Creating layer res2a_branch2b_relu
I0522 17:14:12.304653 27530 net.cpp:84] Creating Layer res2a_branch2b_relu
I0522 17:14:12.304656 27530 net.cpp:406] res2a_branch2b_relu <- res2a_branch2b
I0522 17:14:12.304661 27530 net.cpp:367] res2a_branch2b_relu -> res2a_branch2b (in-place)
I0522 17:14:12.305078 27530 net.cpp:122] Setting up res2a_branch2b_relu
I0522 17:14:12.305088 27530 net.cpp:129] Top shape: 16 64 56 56 (3211264)
I0522 17:14:12.305091 27530 net.cpp:137] Memory required for data: 510591040
I0522 17:14:12.305094 27530 layer_factory.hpp:77] Creating layer res2a_branch2c
I0522 17:14:12.305101 27530 net.cpp:84] Creating Layer res2a_branch2c
I0522 17:14:12.305104 27530 net.cpp:406] res2a_branch2c <- res2a_branch2b
I0522 17:14:12.305109 27530 net.cpp:380] res2a_branch2c -> res2a_branch2c
I0522 17:14:12.306008 27530 net.cpp:122] Setting up res2a_branch2c
I0522 17:14:12.306020 27530 net.cpp:129] Top shape: 16 256 56 56 (12845056)
I0522 17:14:12.306022 27530 net.cpp:137] Memory required for data: 561971264
I0522 17:14:12.306027 27530 layer_factory.hpp:77] Creating layer bn2a_branch2c
I0522 17:14:12.306032 27530 net.cpp:84] Creating Layer bn2a_branch2c
I0522 17:14:12.306035 27530 net.cpp:406] bn2a_branch2c <- res2a_branch2c
I0522 17:14:12.306041 27530 net.cpp:367] bn2a_branch2c -> res2a_branch2c (in-place)
I0522 17:14:12.306232 27530 net.cpp:122] Setting up bn2a_branch2c
I0522 17:14:12.306238 27530 net.cpp:129] Top shape: 16 256 56 56 (12845056)
I0522 17:14:12.306241 27530 net.cpp:137] Memory required for data: 613351488
I0522 17:14:12.306247 27530 layer_factory.hpp:77] Creating layer scale2a_branch2c
I0522 17:14:12.306252 27530 net.cpp:84] Creating Layer scale2a_branch2c
I0522 17:14:12.306255 27530 net.cpp:406] scale2a_branch2c <- res2a_branch2c
I0522 17:14:12.306259 27530 net.cpp:367] scale2a_branch2c -> res2a_branch2c (in-place)
I0522 17:14:12.306318 27530 layer_factory.hpp:77] Creating layer scale2a_branch2c
I0522 17:14:12.306470 27530 net.cpp:122] Setting up scale2a_branch2c
I0522 17:14:12.306476 27530 net.cpp:129] Top shape: 16 256 56 56 (12845056)
I0522 17:14:12.306479 27530 net.cpp:137] Memory required for data: 664731712
I0522 17:14:12.306484 27530 layer_factory.hpp:77] Creating layer res2a
I0522 17:14:12.306488 27530 net.cpp:84] Creating Layer res2a
I0522 17:14:12.306491 27530 net.cpp:406] res2a <- res2a_branch1
I0522 17:14:12.306495 27530 net.cpp:406] res2a <- res2a_branch2c
I0522 17:14:12.306499 27530 net.cpp:380] res2a -> res2a
I0522 17:14:12.306547 27530 net.cpp:122] Setting up res2a
I0522 17:14:12.306553 27530 net.cpp:129] Top shape: 16 256 56 56 (12845056)
I0522 17:14:12.306568 27530 net.cpp:137] Memory required for data: 716111936
I0522 17:14:12.306571 27530 layer_factory.hpp:77] Creating layer res2a_relu
I0522 17:14:12.306576 27530 net.cpp:84] Creating Layer res2a_relu
I0522 17:14:12.306578 27530 net.cpp:406] res2a_relu <- res2a
I0522 17:14:12.306582 27530 net.cpp:367] res2a_relu -> res2a (in-place)
I0522 17:14:12.306764 27530 net.cpp:122] Setting up res2a_relu
I0522 17:14:12.306772 27530 net.cpp:129] Top shape: 16 256 56 56 (12845056)
I0522 17:14:12.306790 27530 net.cpp:137] Memory required for data: 767492160
I0522 17:14:12.306792 27530 layer_factory.hpp:77] Creating layer res2a_res2a_relu_0_split
I0522 17:14:12.306813 27530 net.cpp:84] Creating Layer res2a_res2a_relu_0_split
I0522 17:14:12.306816 27530 net.cpp:406] res2a_res2a_relu_0_split <- res2a
I0522 17:14:12.306820 27530 net.cpp:380] res2a_res2a_relu_0_split -> res2a_res2a_relu_0_split_0
I0522 17:14:12.306826 27530 net.cpp:380] res2a_res2a_relu_0_split -> res2a_res2a_relu_0_split_1
I0522 17:14:12.306869 27530 net.cpp:122] Setting up res2a_res2a_relu_0_split
I0522 17:14:12.306891 27530 net.cpp:129] Top shape: 16 256 56 56 (12845056)
I0522 17:14:12.306908 27530 net.cpp:129] Top shape: 16 256 56 56 (12845056)
I0522 17:14:12.306912 27530 net.cpp:137] Memory required for data: 870252608
I0522 17:14:12.306915 27530 layer_factory.hpp:77] Creating layer res2b_branch2a
I0522 17:14:12.306957 27530 net.cpp:84] Creating Layer res2b_branch2a
I0522 17:14:12.306960 27530 net.cpp:406] res2b_branch2a <- res2a_res2a_relu_0_split_0
I0522 17:14:12.306979 27530 net.cpp:380] res2b_branch2a -> res2b_branch2a
I0522 17:14:12.307893 27530 net.cpp:122] Setting up res2b_branch2a
I0522 17:14:12.307904 27530 net.cpp:129] Top shape: 16 64 56 56 (3211264)
I0522 17:14:12.307929 27530 net.cpp:137] Memory required for data: 883097664
I0522 17:14:12.307934 27530 layer_factory.hpp:77] Creating layer bn2b_branch2a
I0522 17:14:12.307953 27530 net.cpp:84] Creating Layer bn2b_branch2a
I0522 17:14:12.307957 27530 net.cpp:406] bn2b_branch2a <- res2b_branch2a
I0522 17:14:12.307976 27530 net.cpp:367] bn2b_branch2a -> res2b_branch2a (in-place)
I0522 17:14:12.308140 27530 net.cpp:122] Setting up bn2b_branch2a
I0522 17:14:12.308147 27530 net.cpp:129] Top shape: 16 64 56 56 (3211264)
I0522 17:14:12.308164 27530 net.cpp:137] Memory required for data: 895942720
I0522 17:14:12.308174 27530 layer_factory.hpp:77] Creating layer scale2b_branch2a
I0522 17:14:12.308179 27530 net.cpp:84] Creating Layer scale2b_branch2a
I0522 17:14:12.308183 27530 net.cpp:406] scale2b_branch2a <- res2b_branch2a
I0522 17:14:12.308188 27530 net.cpp:367] scale2b_branch2a -> res2b_branch2a (in-place)
I0522 17:14:12.308257 27530 layer_factory.hpp:77] Creating layer scale2b_branch2a
I0522 17:14:12.308372 27530 net.cpp:122] Setting up scale2b_branch2a
I0522 17:14:12.308379 27530 net.cpp:129] Top shape: 16 64 56 56 (3211264)
I0522 17:14:12.308396 27530 net.cpp:137] Memory required for data: 908787776
I0522 17:14:12.308401 27530 layer_factory.hpp:77] Creating layer res2b_branch2a_relu
I0522 17:14:12.308405 27530 net.cpp:84] Creating Layer res2b_branch2a_relu
I0522 17:14:12.308409 27530 net.cpp:406] res2b_branch2a_relu <- res2b_branch2a
I0522 17:14:12.308413 27530 net.cpp:367] res2b_branch2a_relu -> res2b_branch2a (in-place)
I0522 17:14:12.308609 27530 net.cpp:122] Setting up res2b_branch2a_relu
I0522 17:14:12.308616 27530 net.cpp:129] Top shape: 16 64 56 56 (3211264)
I0522 17:14:12.308634 27530 net.cpp:137] Memory required for data: 921632832
I0522 17:14:12.308636 27530 layer_factory.hpp:77] Creating layer res2b_branch2b
I0522 17:14:12.308645 27530 net.cpp:84] Creating Layer res2b_branch2b
I0522 17:14:12.308660 27530 net.cpp:406] res2b_branch2b <- res2b_branch2a
I0522 17:14:12.308665 27530 net.cpp:380] res2b_branch2b -> res2b_branch2b
I0522 17:14:12.309727 27530 net.cpp:122] Setting up res2b_branch2b
I0522 17:14:12.309763 27530 net.cpp:129] Top shape: 16 64 56 56 (3211264)
I0522 17:14:12.309769 27530 net.cpp:137] Memory required for data: 934477888
I0522 17:14:12.309777 27530 layer_factory.hpp:77] Creating layer bn2b_branch2b
I0522 17:14:12.309784 27530 net.cpp:84] Creating Layer bn2b_branch2b
I0522 17:14:12.309788 27530 net.cpp:406] bn2b_branch2b <- res2b_branch2b
I0522 17:14:12.309793 27530 net.cpp:367] bn2b_branch2b -> res2b_branch2b (in-place)
I0522 17:14:12.309967 27530 net.cpp:122] Setting up bn2b_branch2b
I0522 17:14:12.309973 27530 net.cpp:129] Top shape: 16 64 56 56 (3211264)
I0522 17:14:12.309976 27530 net.cpp:137] Memory required for data: 947322944
I0522 17:14:12.309983 27530 layer_factory.hpp:77] Creating layer scale2b_branch2b
I0522 17:14:12.309989 27530 net.cpp:84] Creating Layer scale2b_branch2b
I0522 17:14:12.309993 27530 net.cpp:406] scale2b_branch2b <- res2b_branch2b
I0522 17:14:12.309998 27530 net.cpp:367] scale2b_branch2b -> res2b_branch2b (in-place)
I0522 17:14:12.310029 27530 layer_factory.hpp:77] Creating layer scale2b_branch2b
I0522 17:14:12.310124 27530 net.cpp:122] Setting up scale2b_branch2b
I0522 17:14:12.310130 27530 net.cpp:129] Top shape: 16 64 56 56 (3211264)
I0522 17:14:12.310134 27530 net.cpp:137] Memory required for data: 960168000
I0522 17:14:12.310139 27530 layer_factory.hpp:77] Creating layer res2b_branch2b_relu
I0522 17:14:12.310145 27530 net.cpp:84] Creating Layer res2b_branch2b_relu
I0522 17:14:12.310149 27530 net.cpp:406] res2b_branch2b_relu <- res2b_branch2b
I0522 17:14:12.310153 27530 net.cpp:367] res2b_branch2b_relu -> res2b_branch2b (in-place)
I0522 17:14:12.310573 27530 net.cpp:122] Setting up res2b_branch2b_relu
I0522 17:14:12.310585 27530 net.cpp:129] Top shape: 16 64 56 56 (3211264)
I0522 17:14:12.310588 27530 net.cpp:137] Memory required for data: 973013056
I0522 17:14:12.310591 27530 layer_factory.hpp:77] Creating layer res2b_branch2c
I0522 17:14:12.310614 27530 net.cpp:84] Creating Layer res2b_branch2c
I0522 17:14:12.310619 27530 net.cpp:406] res2b_branch2c <- res2b_branch2b
I0522 17:14:12.310624 27530 net.cpp:380] res2b_branch2c -> res2b_branch2c
I0522 17:14:12.311580 27530 net.cpp:122] Setting up res2b_branch2c
I0522 17:14:12.311594 27530 net.cpp:129] Top shape: 16 256 56 56 (12845056)
I0522 17:14:12.311599 27530 net.cpp:137] Memory required for data: 1024393280
I0522 17:14:12.311605 27530 layer_factory.hpp:77] Creating layer bn2b_branch2c
I0522 17:14:12.311612 27530 net.cpp:84] Creating Layer bn2b_branch2c
I0522 17:14:12.311616 27530 net.cpp:406] bn2b_branch2c <- res2b_branch2c
I0522 17:14:12.311621 27530 net.cpp:367] bn2b_branch2c -> res2b_branch2c (in-place)
I0522 17:14:12.311789 27530 net.cpp:122] Setting up bn2b_branch2c
I0522 17:14:12.311795 27530 net.cpp:129] Top shape: 16 256 56 56 (12845056)
I0522 17:14:12.311799 27530 net.cpp:137] Memory required for data: 1075773504
I0522 17:14:12.311818 27530 layer_factory.hpp:77] Creating layer scale2b_branch2c
I0522 17:14:12.311825 27530 net.cpp:84] Creating Layer scale2b_branch2c
I0522 17:14:12.311828 27530 net.cpp:406] scale2b_branch2c <- res2b_branch2c
I0522 17:14:12.311832 27530 net.cpp:367] scale2b_branch2c -> res2b_branch2c (in-place)
I0522 17:14:12.311903 27530 layer_factory.hpp:77] Creating layer scale2b_branch2c
I0522 17:14:12.312014 27530 net.cpp:122] Setting up scale2b_branch2c
I0522 17:14:12.312021 27530 net.cpp:129] Top shape: 16 256 56 56 (12845056)
I0522 17:14:12.312024 27530 net.cpp:137] Memory required for data: 1127153728
I0522 17:14:12.312042 27530 layer_factory.hpp:77] Creating layer res2b
I0522 17:14:12.312048 27530 net.cpp:84] Creating Layer res2b
I0522 17:14:12.312052 27530 net.cpp:406] res2b <- res2a_res2a_relu_0_split_1
I0522 17:14:12.312057 27530 net.cpp:406] res2b <- res2b_branch2c
I0522 17:14:12.312062 27530 net.cpp:380] res2b -> res2b
I0522 17:14:12.312108 27530 net.cpp:122] Setting up res2b
I0522 17:14:12.312114 27530 net.cpp:129] Top shape: 16 256 56 56 (12845056)
I0522 17:14:12.312119 27530 net.cpp:137] Memory required for data: 1178533952
I0522 17:14:12.312121 27530 layer_factory.hpp:77] Creating layer res2b_relu
I0522 17:14:12.312126 27530 net.cpp:84] Creating Layer res2b_relu
I0522 17:14:12.312129 27530 net.cpp:406] res2b_relu <- res2b
I0522 17:14:12.312134 27530 net.cpp:367] res2b_relu -> res2b (in-place)
I0522 17:14:12.312290 27530 net.cpp:122] Setting up res2b_relu
I0522 17:14:12.312299 27530 net.cpp:129] Top shape: 16 256 56 56 (12845056)
I0522 17:14:12.312301 27530 net.cpp:137] Memory required for data: 1229914176
I0522 17:14:12.312304 27530 layer_factory.hpp:77] Creating layer res2b_res2b_relu_0_split
I0522 17:14:12.312309 27530 net.cpp:84] Creating Layer res2b_res2b_relu_0_split
I0522 17:14:12.312314 27530 net.cpp:406] res2b_res2b_relu_0_split <- res2b
I0522 17:14:12.312317 27530 net.cpp:380] res2b_res2b_relu_0_split -> res2b_res2b_relu_0_split_0
I0522 17:14:12.312325 27530 net.cpp:380] res2b_res2b_relu_0_split -> res2b_res2b_relu_0_split_1
I0522 17:14:12.312356 27530 net.cpp:122] Setting up res2b_res2b_relu_0_split
I0522 17:14:12.312362 27530 net.cpp:129] Top shape: 16 256 56 56 (12845056)
I0522 17:14:12.312366 27530 net.cpp:129] Top shape: 16 256 56 56 (12845056)
I0522 17:14:12.312369 27530 net.cpp:137] Memory required for data: 1332674624
I0522 17:14:12.312372 27530 layer_factory.hpp:77] Creating layer res2c_branch2a
I0522 17:14:12.312379 27530 net.cpp:84] Creating Layer res2c_branch2a
I0522 17:14:12.312383 27530 net.cpp:406] res2c_branch2a <- res2b_res2b_relu_0_split_0
I0522 17:14:12.312388 27530 net.cpp:380] res2c_branch2a -> res2c_branch2a
I0522 17:14:12.313331 27530 net.cpp:122] Setting up res2c_branch2a
I0522 17:14:12.313343 27530 net.cpp:129] Top shape: 16 64 56 56 (3211264)
I0522 17:14:12.313346 27530 net.cpp:137] Memory required for data: 1345519680
I0522 17:14:12.313352 27530 layer_factory.hpp:77] Creating layer bn2c_branch2a
I0522 17:14:12.313359 27530 net.cpp:84] Creating Layer bn2c_branch2a
I0522 17:14:12.313361 27530 net.cpp:406] bn2c_branch2a <- res2c_branch2a
I0522 17:14:12.313376 27530 net.cpp:367] bn2c_branch2a -> res2c_branch2a (in-place)
I0522 17:14:12.313539 27530 net.cpp:122] Setting up bn2c_branch2a
I0522 17:14:12.313546 27530 net.cpp:129] Top shape: 16 64 56 56 (3211264)
I0522 17:14:12.313549 27530 net.cpp:137] Memory required for data: 1358364736
I0522 17:14:12.313555 27530 layer_factory.hpp:77] Creating layer scale2c_branch2a
I0522 17:14:12.313561 27530 net.cpp:84] Creating Layer scale2c_branch2a
I0522 17:14:12.313566 27530 net.cpp:406] scale2c_branch2a <- res2c_branch2a
I0522 17:14:12.313570 27530 net.cpp:367] scale2c_branch2a -> res2c_branch2a (in-place)
I0522 17:14:12.313601 27530 layer_factory.hpp:77] Creating layer scale2c_branch2a
I0522 17:14:12.313693 27530 net.cpp:122] Setting up scale2c_branch2a
I0522 17:14:12.313699 27530 net.cpp:129] Top shape: 16 64 56 56 (3211264)
I0522 17:14:12.313702 27530 net.cpp:137] Memory required for data: 1371209792
I0522 17:14:12.313707 27530 layer_factory.hpp:77] Creating layer res2c_branch2a_relu
I0522 17:14:12.313714 27530 net.cpp:84] Creating Layer res2c_branch2a_relu
I0522 17:14:12.313717 27530 net.cpp:406] res2c_branch2a_relu <- res2c_branch2a
I0522 17:14:12.313721 27530 net.cpp:367] res2c_branch2a_relu -> res2c_branch2a (in-place)
I0522 17:14:12.313872 27530 net.cpp:122] Setting up res2c_branch2a_relu
I0522 17:14:12.313880 27530 net.cpp:129] Top shape: 16 64 56 56 (3211264)
I0522 17:14:12.313884 27530 net.cpp:137] Memory required for data: 1384054848
I0522 17:14:12.313887 27530 layer_factory.hpp:77] Creating layer res2c_branch2b
I0522 17:14:12.313894 27530 net.cpp:84] Creating Layer res2c_branch2b
I0522 17:14:12.313899 27530 net.cpp:406] res2c_branch2b <- res2c_branch2a
I0522 17:14:12.313905 27530 net.cpp:380] res2c_branch2b -> res2c_branch2b
I0522 17:14:12.314920 27530 net.cpp:122] Setting up res2c_branch2b
I0522 17:14:12.314937 27530 net.cpp:129] Top shape: 16 64 56 56 (3211264)
I0522 17:14:12.314941 27530 net.cpp:137] Memory required for data: 1396899904
I0522 17:14:12.314947 27530 layer_factory.hpp:77] Creating layer bn2c_branch2b
I0522 17:14:12.314954 27530 net.cpp:84] Creating Layer bn2c_branch2b
I0522 17:14:12.314959 27530 net.cpp:406] bn2c_branch2b <- res2c_branch2b
I0522 17:14:12.314965 27530 net.cpp:367] bn2c_branch2b -> res2c_branch2b (in-place)
I0522 17:14:12.315130 27530 net.cpp:122] Setting up bn2c_branch2b
I0522 17:14:12.315137 27530 net.cpp:129] Top shape: 16 64 56 56 (3211264)
I0522 17:14:12.315141 27530 net.cpp:137] Memory required for data: 1409744960
I0522 17:14:12.315147 27530 layer_factory.hpp:77] Creating layer scale2c_branch2b
I0522 17:14:12.315153 27530 net.cpp:84] Creating Layer scale2c_branch2b
I0522 17:14:12.315156 27530 net.cpp:406] scale2c_branch2b <- res2c_branch2b
I0522 17:14:12.315160 27530 net.cpp:367] scale2c_branch2b -> res2c_branch2b (in-place)
I0522 17:14:12.315196 27530 layer_factory.hpp:77] Creating layer scale2c_branch2b
I0522 17:14:12.315291 27530 net.cpp:122] Setting up scale2c_branch2b
I0522 17:14:12.315299 27530 net.cpp:129] Top shape: 16 64 56 56 (3211264)
I0522 17:14:12.315301 27530 net.cpp:137] Memory required for data: 1422590016
I0522 17:14:12.315306 27530 layer_factory.hpp:77] Creating layer res2c_branch2b_relu
I0522 17:14:12.315313 27530 net.cpp:84] Creating Layer res2c_branch2b_relu
I0522 17:14:12.315317 27530 net.cpp:406] res2c_branch2b_relu <- res2c_branch2b
I0522 17:14:12.315321 27530 net.cpp:367] res2c_branch2b_relu -> res2c_branch2b (in-place)
I0522 17:14:12.315479 27530 net.cpp:122] Setting up res2c_branch2b_relu
I0522 17:14:12.315490 27530 net.cpp:129] Top shape: 16 64 56 56 (3211264)
I0522 17:14:12.315493 27530 net.cpp:137] Memory required for data: 1435435072
I0522 17:14:12.315496 27530 layer_factory.hpp:77] Creating layer res2c_branch2c
I0522 17:14:12.315503 27530 net.cpp:84] Creating Layer res2c_branch2c
I0522 17:14:12.315508 27530 net.cpp:406] res2c_branch2c <- res2c_branch2b
I0522 17:14:12.315513 27530 net.cpp:380] res2c_branch2c -> res2c_branch2c
I0522 17:14:12.316474 27530 net.cpp:122] Setting up res2c_branch2c
I0522 17:14:12.316485 27530 net.cpp:129] Top shape: 16 256 56 56 (12845056)
I0522 17:14:12.316498 27530 net.cpp:137] Memory required for data: 1486815296
I0522 17:14:12.316504 27530 layer_factory.hpp:77] Creating layer bn2c_branch2c
I0522 17:14:12.316510 27530 net.cpp:84] Creating Layer bn2c_branch2c
I0522 17:14:12.316514 27530 net.cpp:406] bn2c_branch2c <- res2c_branch2c
I0522 17:14:12.316521 27530 net.cpp:367] bn2c_branch2c -> res2c_branch2c (in-place)
I0522 17:14:12.316682 27530 net.cpp:122] Setting up bn2c_branch2c
I0522 17:14:12.316689 27530 net.cpp:129] Top shape: 16 256 56 56 (12845056)
I0522 17:14:12.316692 27530 net.cpp:137] Memory required for data: 1538195520
I0522 17:14:12.316706 27530 layer_factory.hpp:77] Creating layer scale2c_branch2c
I0522 17:14:12.316714 27530 net.cpp:84] Creating Layer scale2c_branch2c
I0522 17:14:12.316717 27530 net.cpp:406] scale2c_branch2c <- res2c_branch2c
I0522 17:14:12.316722 27530 net.cpp:367] scale2c_branch2c -> res2c_branch2c (in-place)
I0522 17:14:12.316756 27530 layer_factory.hpp:77] Creating layer scale2c_branch2c
I0522 17:14:12.316850 27530 net.cpp:122] Setting up scale2c_branch2c
I0522 17:14:12.316857 27530 net.cpp:129] Top shape: 16 256 56 56 (12845056)
I0522 17:14:12.316860 27530 net.cpp:137] Memory required for data: 1589575744
I0522 17:14:12.316866 27530 layer_factory.hpp:77] Creating layer res2c
I0522 17:14:12.316874 27530 net.cpp:84] Creating Layer res2c
I0522 17:14:12.316879 27530 net.cpp:406] res2c <- res2b_res2b_relu_0_split_1
I0522 17:14:12.316882 27530 net.cpp:406] res2c <- res2c_branch2c
I0522 17:14:12.316887 27530 net.cpp:380] res2c -> res2c
I0522 17:14:12.316906 27530 net.cpp:122] Setting up res2c
I0522 17:14:12.316912 27530 net.cpp:129] Top shape: 16 256 56 56 (12845056)
I0522 17:14:12.316915 27530 net.cpp:137] Memory required for data: 1640955968
I0522 17:14:12.316920 27530 layer_factory.hpp:77] Creating layer res2c_relu
I0522 17:14:12.316925 27530 net.cpp:84] Creating Layer res2c_relu
I0522 17:14:12.316928 27530 net.cpp:406] res2c_relu <- res2c
I0522 17:14:12.316932 27530 net.cpp:367] res2c_relu -> res2c (in-place)
I0522 17:14:12.317322 27530 net.cpp:122] Setting up res2c_relu
I0522 17:14:12.317333 27530 net.cpp:129] Top shape: 16 256 56 56 (12845056)
I0522 17:14:12.317337 27530 net.cpp:137] Memory required for data: 1692336192
I0522 17:14:12.317342 27530 layer_factory.hpp:77] Creating layer res2c_res2c_relu_0_split
I0522 17:14:12.317347 27530 net.cpp:84] Creating Layer res2c_res2c_relu_0_split
I0522 17:14:12.317350 27530 net.cpp:406] res2c_res2c_relu_0_split <- res2c
I0522 17:14:12.317356 27530 net.cpp:380] res2c_res2c_relu_0_split -> res2c_res2c_relu_0_split_0
I0522 17:14:12.317363 27530 net.cpp:380] res2c_res2c_relu_0_split -> res2c_res2c_relu_0_split_1
I0522 17:14:12.317399 27530 net.cpp:122] Setting up res2c_res2c_relu_0_split
I0522 17:14:12.317405 27530 net.cpp:129] Top shape: 16 256 56 56 (12845056)
I0522 17:14:12.317410 27530 net.cpp:129] Top shape: 16 256 56 56 (12845056)
I0522 17:14:12.317414 27530 net.cpp:137] Memory required for data: 1795096640
I0522 17:14:12.317416 27530 layer_factory.hpp:77] Creating layer res3a_branch1
I0522 17:14:12.317426 27530 net.cpp:84] Creating Layer res3a_branch1
I0522 17:14:12.317430 27530 net.cpp:406] res3a_branch1 <- res2c_res2c_relu_0_split_0
I0522 17:14:12.317435 27530 net.cpp:380] res3a_branch1 -> res3a_branch1
I0522 17:14:12.319108 27530 net.cpp:122] Setting up res3a_branch1
I0522 17:14:12.319120 27530 net.cpp:129] Top shape: 16 512 28 28 (6422528)
I0522 17:14:12.319125 27530 net.cpp:137] Memory required for data: 1820786752
I0522 17:14:12.319130 27530 layer_factory.hpp:77] Creating layer bn3a_branch1
I0522 17:14:12.319136 27530 net.cpp:84] Creating Layer bn3a_branch1
I0522 17:14:12.319140 27530 net.cpp:406] bn3a_branch1 <- res3a_branch1
I0522 17:14:12.319146 27530 net.cpp:367] bn3a_branch1 -> res3a_branch1 (in-place)
I0522 17:14:12.319998 27530 net.cpp:122] Setting up bn3a_branch1
I0522 17:14:12.320016 27530 net.cpp:129] Top shape: 16 512 28 28 (6422528)
I0522 17:14:12.320020 27530 net.cpp:137] Memory required for data: 1846476864
I0522 17:14:12.320047 27530 layer_factory.hpp:77] Creating layer scale3a_branch1
I0522 17:14:12.320056 27530 net.cpp:84] Creating Layer scale3a_branch1
I0522 17:14:12.320061 27530 net.cpp:406] scale3a_branch1 <- res3a_branch1
I0522 17:14:12.320066 27530 net.cpp:367] scale3a_branch1 -> res3a_branch1 (in-place)
I0522 17:14:12.320114 27530 layer_factory.hpp:77] Creating layer scale3a_branch1
I0522 17:14:12.320209 27530 net.cpp:122] Setting up scale3a_branch1
I0522 17:14:12.320216 27530 net.cpp:129] Top shape: 16 512 28 28 (6422528)
I0522 17:14:12.320221 27530 net.cpp:137] Memory required for data: 1872166976
I0522 17:14:12.320226 27530 layer_factory.hpp:77] Creating layer res3a_branch2a
I0522 17:14:12.320235 27530 net.cpp:84] Creating Layer res3a_branch2a
I0522 17:14:12.320240 27530 net.cpp:406] res3a_branch2a <- res2c_res2c_relu_0_split_1
I0522 17:14:12.320246 27530 net.cpp:380] res3a_branch2a -> res3a_branch2a
I0522 17:14:12.321848 27530 net.cpp:122] Setting up res3a_branch2a
I0522 17:14:12.321878 27530 net.cpp:129] Top shape: 16 128 28 28 (1605632)
I0522 17:14:12.321882 27530 net.cpp:137] Memory required for data: 1878589504
I0522 17:14:12.321890 27530 layer_factory.hpp:77] Creating layer bn3a_branch2a
I0522 17:14:12.321897 27530 net.cpp:84] Creating Layer bn3a_branch2a
I0522 17:14:12.321902 27530 net.cpp:406] bn3a_branch2a <- res3a_branch2a
I0522 17:14:12.321908 27530 net.cpp:367] bn3a_branch2a -> res3a_branch2a (in-place)
I0522 17:14:12.322088 27530 net.cpp:122] Setting up bn3a_branch2a
I0522 17:14:12.322094 27530 net.cpp:129] Top shape: 16 128 28 28 (1605632)
I0522 17:14:12.322110 27530 net.cpp:137] Memory required for data: 1885012032
I0522 17:14:12.322118 27530 layer_factory.hpp:77] Creating layer scale3a_branch2a
I0522 17:14:12.322137 27530 net.cpp:84] Creating Layer scale3a_branch2a
I0522 17:14:12.322141 27530 net.cpp:406] scale3a_branch2a <- res3a_branch2a
I0522 17:14:12.322146 27530 net.cpp:367] scale3a_branch2a -> res3a_branch2a (in-place)
I0522 17:14:12.322192 27530 layer_factory.hpp:77] Creating layer scale3a_branch2a
I0522 17:14:12.322312 27530 net.cpp:122] Setting up scale3a_branch2a
I0522 17:14:12.322335 27530 net.cpp:129] Top shape: 16 128 28 28 (1605632)
I0522 17:14:12.322337 27530 net.cpp:137] Memory required for data: 1891434560
I0522 17:14:12.322343 27530 layer_factory.hpp:77] Creating layer res3a_branch2a_relu
I0522 17:14:12.322348 27530 net.cpp:84] Creating Layer res3a_branch2a_relu
I0522 17:14:12.322351 27530 net.cpp:406] res3a_branch2a_relu <- res3a_branch2a
I0522 17:14:12.322355 27530 net.cpp:367] res3a_branch2a_relu -> res3a_branch2a (in-place)
I0522 17:14:12.322551 27530 net.cpp:122] Setting up res3a_branch2a_relu
I0522 17:14:12.322561 27530 net.cpp:129] Top shape: 16 128 28 28 (1605632)
I0522 17:14:12.322564 27530 net.cpp:137] Memory required for data: 1897857088
I0522 17:14:12.322567 27530 layer_factory.hpp:77] Creating layer res3a_branch2b
I0522 17:14:12.322576 27530 net.cpp:84] Creating Layer res3a_branch2b
I0522 17:14:12.322580 27530 net.cpp:406] res3a_branch2b <- res3a_branch2a
I0522 17:14:12.322585 27530 net.cpp:380] res3a_branch2b -> res3a_branch2b
I0522 17:14:12.324394 27530 net.cpp:122] Setting up res3a_branch2b
I0522 17:14:12.324407 27530 net.cpp:129] Top shape: 16 128 28 28 (1605632)
I0522 17:14:12.324411 27530 net.cpp:137] Memory required for data: 1904279616
I0522 17:14:12.324416 27530 layer_factory.hpp:77] Creating layer bn3a_branch2b
I0522 17:14:12.324422 27530 net.cpp:84] Creating Layer bn3a_branch2b
I0522 17:14:12.324426 27530 net.cpp:406] bn3a_branch2b <- res3a_branch2b
I0522 17:14:12.324434 27530 net.cpp:367] bn3a_branch2b -> res3a_branch2b (in-place)
I0522 17:14:12.324604 27530 net.cpp:122] Setting up bn3a_branch2b
I0522 17:14:12.324610 27530 net.cpp:129] Top shape: 16 128 28 28 (1605632)
I0522 17:14:12.324615 27530 net.cpp:137] Memory required for data: 1910702144
I0522 17:14:12.324621 27530 layer_factory.hpp:77] Creating layer scale3a_branch2b
I0522 17:14:12.324626 27530 net.cpp:84] Creating Layer scale3a_branch2b
I0522 17:14:12.324630 27530 net.cpp:406] scale3a_branch2b <- res3a_branch2b
I0522 17:14:12.324645 27530 net.cpp:367] scale3a_branch2b -> res3a_branch2b (in-place)
I0522 17:14:12.324679 27530 layer_factory.hpp:77] Creating layer scale3a_branch2b
I0522 17:14:12.324774 27530 net.cpp:122] Setting up scale3a_branch2b
I0522 17:14:12.324781 27530 net.cpp:129] Top shape: 16 128 28 28 (1605632)
I0522 17:14:12.324785 27530 net.cpp:137] Memory required for data: 1917124672
I0522 17:14:12.324790 27530 layer_factory.hpp:77] Creating layer res3a_branch2b_relu
I0522 17:14:12.324796 27530 net.cpp:84] Creating Layer res3a_branch2b_relu
I0522 17:14:12.324800 27530 net.cpp:406] res3a_branch2b_relu <- res3a_branch2b
I0522 17:14:12.324805 27530 net.cpp:367] res3a_branch2b_relu -> res3a_branch2b (in-place)
I0522 17:14:12.324968 27530 net.cpp:122] Setting up res3a_branch2b_relu
I0522 17:14:12.324976 27530 net.cpp:129] Top shape: 16 128 28 28 (1605632)
I0522 17:14:12.324980 27530 net.cpp:137] Memory required for data: 1923547200
I0522 17:14:12.324983 27530 layer_factory.hpp:77] Creating layer res3a_branch2c
I0522 17:14:12.324991 27530 net.cpp:84] Creating Layer res3a_branch2c
I0522 17:14:12.324995 27530 net.cpp:406] res3a_branch2c <- res3a_branch2b
I0522 17:14:12.325001 27530 net.cpp:380] res3a_branch2c -> res3a_branch2c
I0522 17:14:12.326218 27530 net.cpp:122] Setting up res3a_branch2c
I0522 17:14:12.326233 27530 net.cpp:129] Top shape: 16 512 28 28 (6422528)
I0522 17:14:12.326237 27530 net.cpp:137] Memory required for data: 1949237312
I0522 17:14:12.326243 27530 layer_factory.hpp:77] Creating layer bn3a_branch2c
I0522 17:14:12.326261 27530 net.cpp:84] Creating Layer bn3a_branch2c
I0522 17:14:12.326265 27530 net.cpp:406] bn3a_branch2c <- res3a_branch2c
I0522 17:14:12.326283 27530 net.cpp:367] bn3a_branch2c -> res3a_branch2c (in-place)
I0522 17:14:12.326480 27530 net.cpp:122] Setting up bn3a_branch2c
I0522 17:14:12.326488 27530 net.cpp:129] Top shape: 16 512 28 28 (6422528)
I0522 17:14:12.326503 27530 net.cpp:137] Memory required for data: 1974927424
I0522 17:14:12.326509 27530 layer_factory.hpp:77] Creating layer scale3a_branch2c
I0522 17:14:12.326529 27530 net.cpp:84] Creating Layer scale3a_branch2c
I0522 17:14:12.326534 27530 net.cpp:406] scale3a_branch2c <- res3a_branch2c
I0522 17:14:12.326539 27530 net.cpp:367] scale3a_branch2c -> res3a_branch2c (in-place)
I0522 17:14:12.326599 27530 layer_factory.hpp:77] Creating layer scale3a_branch2c
I0522 17:14:12.326745 27530 net.cpp:122] Setting up scale3a_branch2c
I0522 17:14:12.326752 27530 net.cpp:129] Top shape: 16 512 28 28 (6422528)
I0522 17:14:12.326756 27530 net.cpp:137] Memory required for data: 2000617536
I0522 17:14:12.326761 27530 layer_factory.hpp:77] Creating layer res3a
I0522 17:14:12.326767 27530 net.cpp:84] Creating Layer res3a
I0522 17:14:12.326771 27530 net.cpp:406] res3a <- res3a_branch1
I0522 17:14:12.326776 27530 net.cpp:406] res3a <- res3a_branch2c
I0522 17:14:12.326781 27530 net.cpp:380] res3a -> res3a
I0522 17:14:12.326802 27530 net.cpp:122] Setting up res3a
I0522 17:14:12.326810 27530 net.cpp:129] Top shape: 16 512 28 28 (6422528)
I0522 17:14:12.326813 27530 net.cpp:137] Memory required for data: 2026307648
I0522 17:14:12.326817 27530 layer_factory.hpp:77] Creating layer res3a_relu
I0522 17:14:12.326820 27530 net.cpp:84] Creating Layer res3a_relu
I0522 17:14:12.326838 27530 net.cpp:406] res3a_relu <- res3a
I0522 17:14:12.326841 27530 net.cpp:367] res3a_relu -> res3a (in-place)
I0522 17:14:12.327294 27530 net.cpp:122] Setting up res3a_relu
I0522 17:14:12.327306 27530 net.cpp:129] Top shape: 16 512 28 28 (6422528)
I0522 17:14:12.327323 27530 net.cpp:137] Memory required for data: 2051997760
I0522 17:14:12.327327 27530 layer_factory.hpp:77] Creating layer res3a_res3a_relu_0_split
I0522 17:14:12.327332 27530 net.cpp:84] Creating Layer res3a_res3a_relu_0_split
I0522 17:14:12.327335 27530 net.cpp:406] res3a_res3a_relu_0_split <- res3a
I0522 17:14:12.327342 27530 net.cpp:380] res3a_res3a_relu_0_split -> res3a_res3a_relu_0_split_0
I0522 17:14:12.327349 27530 net.cpp:380] res3a_res3a_relu_0_split -> res3a_res3a_relu_0_split_1
I0522 17:14:12.327396 27530 net.cpp:122] Setting up res3a_res3a_relu_0_split
I0522 17:14:12.327402 27530 net.cpp:129] Top shape: 16 512 28 28 (6422528)
I0522 17:14:12.327409 27530 net.cpp:129] Top shape: 16 512 28 28 (6422528)
I0522 17:14:12.327411 27530 net.cpp:137] Memory required for data: 2103377984
I0522 17:14:12.327414 27530 layer_factory.hpp:77] Creating layer res3b_branch2a
I0522 17:14:12.327422 27530 net.cpp:84] Creating Layer res3b_branch2a
I0522 17:14:12.327427 27530 net.cpp:406] res3b_branch2a <- res3a_res3a_relu_0_split_0
I0522 17:14:12.327432 27530 net.cpp:380] res3b_branch2a -> res3b_branch2a
I0522 17:14:12.328678 27530 net.cpp:122] Setting up res3b_branch2a
I0522 17:14:12.328707 27530 net.cpp:129] Top shape: 16 128 28 28 (1605632)
I0522 17:14:12.328711 27530 net.cpp:137] Memory required for data: 2109800512
I0522 17:14:12.328718 27530 layer_factory.hpp:77] Creating layer bn3b_branch2a
I0522 17:14:12.328724 27530 net.cpp:84] Creating Layer bn3b_branch2a
I0522 17:14:12.328729 27530 net.cpp:406] bn3b_branch2a <- res3b_branch2a
I0522 17:14:12.328734 27530 net.cpp:367] bn3b_branch2a -> res3b_branch2a (in-place)
I0522 17:14:12.328903 27530 net.cpp:122] Setting up bn3b_branch2a
I0522 17:14:12.328910 27530 net.cpp:129] Top shape: 16 128 28 28 (1605632)
I0522 17:14:12.328913 27530 net.cpp:137] Memory required for data: 2116223040
I0522 17:14:12.328920 27530 layer_factory.hpp:77] Creating layer scale3b_branch2a
I0522 17:14:12.328927 27530 net.cpp:84] Creating Layer scale3b_branch2a
I0522 17:14:12.328929 27530 net.cpp:406] scale3b_branch2a <- res3b_branch2a
I0522 17:14:12.328933 27530 net.cpp:367] scale3b_branch2a -> res3b_branch2a (in-place)
I0522 17:14:12.328997 27530 layer_factory.hpp:77] Creating layer scale3b_branch2a
I0522 17:14:12.329097 27530 net.cpp:122] Setting up scale3b_branch2a
I0522 17:14:12.329104 27530 net.cpp:129] Top shape: 16 128 28 28 (1605632)
I0522 17:14:12.329107 27530 net.cpp:137] Memory required for data: 2122645568
I0522 17:14:12.329113 27530 layer_factory.hpp:77] Creating layer res3b_branch2a_relu
I0522 17:14:12.329120 27530 net.cpp:84] Creating Layer res3b_branch2a_relu
I0522 17:14:12.329124 27530 net.cpp:406] res3b_branch2a_relu <- res3b_branch2a
I0522 17:14:12.329128 27530 net.cpp:367] res3b_branch2a_relu -> res3b_branch2a (in-place)
I0522 17:14:12.329298 27530 net.cpp:122] Setting up res3b_branch2a_relu
I0522 17:14:12.329306 27530 net.cpp:129] Top shape: 16 128 28 28 (1605632)
I0522 17:14:12.329309 27530 net.cpp:137] Memory required for data: 2129068096
I0522 17:14:12.329313 27530 layer_factory.hpp:77] Creating layer res3b_branch2b
I0522 17:14:12.329321 27530 net.cpp:84] Creating Layer res3b_branch2b
I0522 17:14:12.329325 27530 net.cpp:406] res3b_branch2b <- res3b_branch2a
I0522 17:14:12.329330 27530 net.cpp:380] res3b_branch2b -> res3b_branch2b
I0522 17:14:12.331778 27530 net.cpp:122] Setting up res3b_branch2b
I0522 17:14:12.331792 27530 net.cpp:129] Top shape: 16 128 28 28 (1605632)
I0522 17:14:12.331796 27530 net.cpp:137] Memory required for data: 2135490624
I0522 17:14:12.331801 27530 layer_factory.hpp:77] Creating layer bn3b_branch2b
I0522 17:14:12.331810 27530 net.cpp:84] Creating Layer bn3b_branch2b
I0522 17:14:12.331815 27530 net.cpp:406] bn3b_branch2b <- res3b_branch2b
I0522 17:14:12.331820 27530 net.cpp:367] bn3b_branch2b -> res3b_branch2b (in-place)
I0522 17:14:12.331992 27530 net.cpp:122] Setting up bn3b_branch2b
I0522 17:14:12.332000 27530 net.cpp:129] Top shape: 16 128 28 28 (1605632)
I0522 17:14:12.332005 27530 net.cpp:137] Memory required for data: 2141913152
I0522 17:14:12.332010 27530 layer_factory.hpp:77] Creating layer scale3b_branch2b
I0522 17:14:12.332016 27530 net.cpp:84] Creating Layer scale3b_branch2b
I0522 17:14:12.332020 27530 net.cpp:406] scale3b_branch2b <- res3b_branch2b
I0522 17:14:12.332026 27530 net.cpp:367] scale3b_branch2b -> res3b_branch2b (in-place)
I0522 17:14:12.332075 27530 layer_factory.hpp:77] Creating layer scale3b_branch2b
I0522 17:14:12.332185 27530 net.cpp:122] Setting up scale3b_branch2b
I0522 17:14:12.332192 27530 net.cpp:129] Top shape: 16 128 28 28 (1605632)
I0522 17:14:12.332204 27530 net.cpp:137] Memory required for data: 2148335680
I0522 17:14:12.332211 27530 layer_factory.hpp:77] Creating layer res3b_branch2b_relu
I0522 17:14:12.332217 27530 net.cpp:84] Creating Layer res3b_branch2b_relu
I0522 17:14:12.332221 27530 net.cpp:406] res3b_branch2b_relu <- res3b_branch2b
I0522 17:14:12.332227 27530 net.cpp:367] res3b_branch2b_relu -> res3b_branch2b (in-place)
I0522 17:14:12.332403 27530 net.cpp:122] Setting up res3b_branch2b_relu
I0522 17:14:12.332412 27530 net.cpp:129] Top shape: 16 128 28 28 (1605632)
I0522 17:14:12.332415 27530 net.cpp:137] Memory required for data: 2154758208
I0522 17:14:12.332432 27530 layer_factory.hpp:77] Creating layer res3b_branch2c
I0522 17:14:12.332440 27530 net.cpp:84] Creating Layer res3b_branch2c
I0522 17:14:12.332444 27530 net.cpp:406] res3b_branch2c <- res3b_branch2b
I0522 17:14:12.332449 27530 net.cpp:380] res3b_branch2c -> res3b_branch2c
I0522 17:14:12.333631 27530 net.cpp:122] Setting up res3b_branch2c
I0522 17:14:12.333643 27530 net.cpp:129] Top shape: 16 512 28 28 (6422528)
I0522 17:14:12.333647 27530 net.cpp:137] Memory required for data: 2180448320
I0522 17:14:12.333664 27530 layer_factory.hpp:77] Creating layer bn3b_branch2c
I0522 17:14:12.333672 27530 net.cpp:84] Creating Layer bn3b_branch2c
I0522 17:14:12.333674 27530 net.cpp:406] bn3b_branch2c <- res3b_branch2c
I0522 17:14:12.333680 27530 net.cpp:367] bn3b_branch2c -> res3b_branch2c (in-place)
I0522 17:14:12.333865 27530 net.cpp:122] Setting up bn3b_branch2c
I0522 17:14:12.333873 27530 net.cpp:129] Top shape: 16 512 28 28 (6422528)
I0522 17:14:12.333889 27530 net.cpp:137] Memory required for data: 2206138432
I0522 17:14:12.333894 27530 layer_factory.hpp:77] Creating layer scale3b_branch2c
I0522 17:14:12.333899 27530 net.cpp:84] Creating Layer scale3b_branch2c
I0522 17:14:12.333917 27530 net.cpp:406] scale3b_branch2c <- res3b_branch2c
I0522 17:14:12.333922 27530 net.cpp:367] scale3b_branch2c -> res3b_branch2c (in-place)
I0522 17:14:12.333971 27530 layer_factory.hpp:77] Creating layer scale3b_branch2c
I0522 17:14:12.334115 27530 net.cpp:122] Setting up scale3b_branch2c
I0522 17:14:12.334122 27530 net.cpp:129] Top shape: 16 512 28 28 (6422528)
I0522 17:14:12.334125 27530 net.cpp:137] Memory required for data: 2231828544
I0522 17:14:12.334131 27530 layer_factory.hpp:77] Creating layer res3b
I0522 17:14:12.334136 27530 net.cpp:84] Creating Layer res3b
I0522 17:14:12.334138 27530 net.cpp:406] res3b <- res3a_res3a_relu_0_split_1
I0522 17:14:12.334142 27530 net.cpp:406] res3b <- res3b_branch2c
I0522 17:14:12.334146 27530 net.cpp:380] res3b -> res3b
I0522 17:14:12.334194 27530 net.cpp:122] Setting up res3b
I0522 17:14:12.334200 27530 net.cpp:129] Top shape: 16 512 28 28 (6422528)
I0522 17:14:12.334216 27530 net.cpp:137] Memory required for data: 2257518656
I0522 17:14:12.334219 27530 layer_factory.hpp:77] Creating layer res3b_relu
I0522 17:14:12.334224 27530 net.cpp:84] Creating Layer res3b_relu
I0522 17:14:12.334241 27530 net.cpp:406] res3b_relu <- res3b
I0522 17:14:12.334245 27530 net.cpp:367] res3b_relu -> res3b (in-place)
I0522 17:14:12.334663 27530 net.cpp:122] Setting up res3b_relu
I0522 17:14:12.334687 27530 net.cpp:129] Top shape: 16 512 28 28 (6422528)
I0522 17:14:12.334692 27530 net.cpp:137] Memory required for data: 2283208768
I0522 17:14:12.334694 27530 layer_factory.hpp:77] Creating layer res3b_res3b_relu_0_split
I0522 17:14:12.334702 27530 net.cpp:84] Creating Layer res3b_res3b_relu_0_split
I0522 17:14:12.334717 27530 net.cpp:406] res3b_res3b_relu_0_split <- res3b
I0522 17:14:12.334722 27530 net.cpp:380] res3b_res3b_relu_0_split -> res3b_res3b_relu_0_split_0
I0522 17:14:12.334731 27530 net.cpp:380] res3b_res3b_relu_0_split -> res3b_res3b_relu_0_split_1
I0522 17:14:12.334767 27530 net.cpp:122] Setting up res3b_res3b_relu_0_split
I0522 17:14:12.334774 27530 net.cpp:129] Top shape: 16 512 28 28 (6422528)
I0522 17:14:12.334779 27530 net.cpp:129] Top shape: 16 512 28 28 (6422528)
I0522 17:14:12.334781 27530 net.cpp:137] Memory required for data: 2334588992
I0522 17:14:12.334791 27530 layer_factory.hpp:77] Creating layer res3c_branch2a
I0522 17:14:12.334800 27530 net.cpp:84] Creating Layer res3c_branch2a
I0522 17:14:12.334803 27530 net.cpp:406] res3c_branch2a <- res3b_res3b_relu_0_split_0
I0522 17:14:12.334810 27530 net.cpp:380] res3c_branch2a -> res3c_branch2a
I0522 17:14:12.335964 27530 net.cpp:122] Setting up res3c_branch2a
I0522 17:14:12.335988 27530 net.cpp:129] Top shape: 16 128 28 28 (1605632)
I0522 17:14:12.335992 27530 net.cpp:137] Memory required for data: 2341011520
I0522 17:14:12.335997 27530 layer_factory.hpp:77] Creating layer bn3c_branch2a
I0522 17:14:12.336004 27530 net.cpp:84] Creating Layer bn3c_branch2a
I0522 17:14:12.336019 27530 net.cpp:406] bn3c_branch2a <- res3c_branch2a
I0522 17:14:12.336024 27530 net.cpp:367] bn3c_branch2a -> res3c_branch2a (in-place)
I0522 17:14:12.336242 27530 net.cpp:122] Setting up bn3c_branch2a
I0522 17:14:12.336249 27530 net.cpp:129] Top shape: 16 128 28 28 (1605632)
I0522 17:14:12.336251 27530 net.cpp:137] Memory required for data: 2347434048
I0522 17:14:12.336257 27530 layer_factory.hpp:77] Creating layer scale3c_branch2a
I0522 17:14:12.336263 27530 net.cpp:84] Creating Layer scale3c_branch2a
I0522 17:14:12.336266 27530 net.cpp:406] scale3c_branch2a <- res3c_branch2a
I0522 17:14:12.336269 27530 net.cpp:367] scale3c_branch2a -> res3c_branch2a (in-place)
I0522 17:14:12.336345 27530 layer_factory.hpp:77] Creating layer scale3c_branch2a
I0522 17:14:12.336493 27530 net.cpp:122] Setting up scale3c_branch2a
I0522 17:14:12.336499 27530 net.cpp:129] Top shape: 16 128 28 28 (1605632)
I0522 17:14:12.336503 27530 net.cpp:137] Memory required for data: 2353856576
I0522 17:14:12.336508 27530 layer_factory.hpp:77] Creating layer res3c_branch2a_relu
I0522 17:14:12.336511 27530 net.cpp:84] Creating Layer res3c_branch2a_relu
I0522 17:14:12.336514 27530 net.cpp:406] res3c_branch2a_relu <- res3c_branch2a
I0522 17:14:12.336519 27530 net.cpp:367] res3c_branch2a_relu -> res3c_branch2a (in-place)
I0522 17:14:12.336726 27530 net.cpp:122] Setting up res3c_branch2a_relu
I0522 17:14:12.336735 27530 net.cpp:129] Top shape: 16 128 28 28 (1605632)
I0522 17:14:12.336737 27530 net.cpp:137] Memory required for data: 2360279104
I0522 17:14:12.336740 27530 layer_factory.hpp:77] Creating layer res3c_branch2b
I0522 17:14:12.336748 27530 net.cpp:84] Creating Layer res3c_branch2b
I0522 17:14:12.336751 27530 net.cpp:406] res3c_branch2b <- res3c_branch2a
I0522 17:14:12.336756 27530 net.cpp:380] res3c_branch2b -> res3c_branch2b
I0522 17:14:12.338455 27530 net.cpp:122] Setting up res3c_branch2b
I0522 17:14:12.338467 27530 net.cpp:129] Top shape: 16 128 28 28 (1605632)
I0522 17:14:12.338471 27530 net.cpp:137] Memory required for data: 2366701632
I0522 17:14:12.338475 27530 layer_factory.hpp:77] Creating layer bn3c_branch2b
I0522 17:14:12.338480 27530 net.cpp:84] Creating Layer bn3c_branch2b
I0522 17:14:12.338485 27530 net.cpp:406] bn3c_branch2b <- res3c_branch2b
I0522 17:14:12.338490 27530 net.cpp:367] bn3c_branch2b -> res3c_branch2b (in-place)
I0522 17:14:12.338708 27530 net.cpp:122] Setting up bn3c_branch2b
I0522 17:14:12.338714 27530 net.cpp:129] Top shape: 16 128 28 28 (1605632)
I0522 17:14:12.338732 27530 net.cpp:137] Memory required for data: 2373124160
I0522 17:14:12.338737 27530 layer_factory.hpp:77] Creating layer scale3c_branch2b
I0522 17:14:12.338743 27530 net.cpp:84] Creating Layer scale3c_branch2b
I0522 17:14:12.338760 27530 net.cpp:406] scale3c_branch2b <- res3c_branch2b
I0522 17:14:12.338765 27530 net.cpp:367] scale3c_branch2b -> res3c_branch2b (in-place)
I0522 17:14:12.338812 27530 layer_factory.hpp:77] Creating layer scale3c_branch2b
I0522 17:14:12.338979 27530 net.cpp:122] Setting up scale3c_branch2b
I0522 17:14:12.338985 27530 net.cpp:129] Top shape: 16 128 28 28 (1605632)
I0522 17:14:12.338989 27530 net.cpp:137] Memory required for data: 2379546688
I0522 17:14:12.338994 27530 layer_factory.hpp:77] Creating layer res3c_branch2b_relu
I0522 17:14:12.338999 27530 net.cpp:84] Creating Layer res3c_branch2b_relu
I0522 17:14:12.339002 27530 net.cpp:406] res3c_branch2b_relu <- res3c_branch2b
I0522 17:14:12.339015 27530 net.cpp:367] res3c_branch2b_relu -> res3c_branch2b (in-place)
I0522 17:14:12.339229 27530 net.cpp:122] Setting up res3c_branch2b_relu
I0522 17:14:12.339237 27530 net.cpp:129] Top shape: 16 128 28 28 (1605632)
I0522 17:14:12.339254 27530 net.cpp:137] Memory required for data: 2385969216
I0522 17:14:12.339258 27530 layer_factory.hpp:77] Creating layer res3c_branch2c
I0522 17:14:12.339267 27530 net.cpp:84] Creating Layer res3c_branch2c
I0522 17:14:12.339284 27530 net.cpp:406] res3c_branch2c <- res3c_branch2b
I0522 17:14:12.339289 27530 net.cpp:380] res3c_branch2c -> res3c_branch2c
I0522 17:14:12.340441 27530 net.cpp:122] Setting up res3c_branch2c
I0522 17:14:12.340467 27530 net.cpp:129] Top shape: 16 512 28 28 (6422528)
I0522 17:14:12.340471 27530 net.cpp:137] Memory required for data: 2411659328
I0522 17:14:12.340476 27530 layer_factory.hpp:77] Creating layer bn3c_branch2c
I0522 17:14:12.340494 27530 net.cpp:84] Creating Layer bn3c_branch2c
I0522 17:14:12.340498 27530 net.cpp:406] bn3c_branch2c <- res3c_branch2c
I0522 17:14:12.340502 27530 net.cpp:367] bn3c_branch2c -> res3c_branch2c (in-place)
I0522 17:14:12.340693 27530 net.cpp:122] Setting up bn3c_branch2c
I0522 17:14:12.340700 27530 net.cpp:129] Top shape: 16 512 28 28 (6422528)
I0522 17:14:12.340718 27530 net.cpp:137] Memory required for data: 2437349440
I0522 17:14:12.340723 27530 layer_factory.hpp:77] Creating layer scale3c_branch2c
I0522 17:14:12.340728 27530 net.cpp:84] Creating Layer scale3c_branch2c
I0522 17:14:12.340745 27530 net.cpp:406] scale3c_branch2c <- res3c_branch2c
I0522 17:14:12.340749 27530 net.cpp:367] scale3c_branch2c -> res3c_branch2c (in-place)
I0522 17:14:12.340797 27530 layer_factory.hpp:77] Creating layer scale3c_branch2c
I0522 17:14:12.340919 27530 net.cpp:122] Setting up scale3c_branch2c
I0522 17:14:12.340937 27530 net.cpp:129] Top shape: 16 512 28 28 (6422528)
I0522 17:14:12.340940 27530 net.cpp:137] Memory required for data: 2463039552
I0522 17:14:12.340960 27530 layer_factory.hpp:77] Creating layer res3c
I0522 17:14:12.340965 27530 net.cpp:84] Creating Layer res3c
I0522 17:14:12.340968 27530 net.cpp:406] res3c <- res3b_res3b_relu_0_split_1
I0522 17:14:12.340972 27530 net.cpp:406] res3c <- res3c_branch2c
I0522 17:14:12.340991 27530 net.cpp:380] res3c -> res3c
I0522 17:14:12.341012 27530 net.cpp:122] Setting up res3c
I0522 17:14:12.341017 27530 net.cpp:129] Top shape: 16 512 28 28 (6422528)
I0522 17:14:12.341032 27530 net.cpp:137] Memory required for data: 2488729664
I0522 17:14:12.341035 27530 layer_factory.hpp:77] Creating layer res3c_relu
I0522 17:14:12.341039 27530 net.cpp:84] Creating Layer res3c_relu
I0522 17:14:12.341042 27530 net.cpp:406] res3c_relu <- res3c
I0522 17:14:12.341048 27530 net.cpp:367] res3c_relu -> res3c (in-place)
I0522 17:14:12.341245 27530 net.cpp:122] Setting up res3c_relu
I0522 17:14:12.341253 27530 net.cpp:129] Top shape: 16 512 28 28 (6422528)
I0522 17:14:12.341270 27530 net.cpp:137] Memory required for data: 2514419776
I0522 17:14:12.341274 27530 layer_factory.hpp:77] Creating layer res3c_res3c_relu_0_split
I0522 17:14:12.341279 27530 net.cpp:84] Creating Layer res3c_res3c_relu_0_split
I0522 17:14:12.341295 27530 net.cpp:406] res3c_res3c_relu_0_split <- res3c
I0522 17:14:12.341300 27530 net.cpp:380] res3c_res3c_relu_0_split -> res3c_res3c_relu_0_split_0
I0522 17:14:12.341306 27530 net.cpp:380] res3c_res3c_relu_0_split -> res3c_res3c_relu_0_split_1
I0522 17:14:12.341367 27530 net.cpp:122] Setting up res3c_res3c_relu_0_split
I0522 17:14:12.341372 27530 net.cpp:129] Top shape: 16 512 28 28 (6422528)
I0522 17:14:12.341389 27530 net.cpp:129] Top shape: 16 512 28 28 (6422528)
I0522 17:14:12.341392 27530 net.cpp:137] Memory required for data: 2565800000
I0522 17:14:12.341394 27530 layer_factory.hpp:77] Creating layer res3d_branch2a
I0522 17:14:12.341415 27530 net.cpp:84] Creating Layer res3d_branch2a
I0522 17:14:12.341419 27530 net.cpp:406] res3d_branch2a <- res3c_res3c_relu_0_split_0
I0522 17:14:12.341425 27530 net.cpp:380] res3d_branch2a -> res3d_branch2a
I0522 17:14:12.343272 27530 net.cpp:122] Setting up res3d_branch2a
I0522 17:14:12.343287 27530 net.cpp:129] Top shape: 16 128 28 28 (1605632)
I0522 17:14:12.343291 27530 net.cpp:137] Memory required for data: 2572222528
I0522 17:14:12.343297 27530 layer_factory.hpp:77] Creating layer bn3d_branch2a
I0522 17:14:12.343303 27530 net.cpp:84] Creating Layer bn3d_branch2a
I0522 17:14:12.343307 27530 net.cpp:406] bn3d_branch2a <- res3d_branch2a
I0522 17:14:12.343312 27530 net.cpp:367] bn3d_branch2a -> res3d_branch2a (in-place)
I0522 17:14:12.343482 27530 net.cpp:122] Setting up bn3d_branch2a
I0522 17:14:12.343489 27530 net.cpp:129] Top shape: 16 128 28 28 (1605632)
I0522 17:14:12.343492 27530 net.cpp:137] Memory required for data: 2578645056
I0522 17:14:12.343511 27530 layer_factory.hpp:77] Creating layer scale3d_branch2a
I0522 17:14:12.343518 27530 net.cpp:84] Creating Layer scale3d_branch2a
I0522 17:14:12.343521 27530 net.cpp:406] scale3d_branch2a <- res3d_branch2a
I0522 17:14:12.343525 27530 net.cpp:367] scale3d_branch2a -> res3d_branch2a (in-place)
I0522 17:14:12.343562 27530 layer_factory.hpp:77] Creating layer scale3d_branch2a
I0522 17:14:12.343684 27530 net.cpp:122] Setting up scale3d_branch2a
I0522 17:14:12.343691 27530 net.cpp:129] Top shape: 16 128 28 28 (1605632)
I0522 17:14:12.343693 27530 net.cpp:137] Memory required for data: 2585067584
I0522 17:14:12.343699 27530 layer_factory.hpp:77] Creating layer res3d_branch2a_relu
I0522 17:14:12.343704 27530 net.cpp:84] Creating Layer res3d_branch2a_relu
I0522 17:14:12.343706 27530 net.cpp:406] res3d_branch2a_relu <- res3d_branch2a
I0522 17:14:12.343711 27530 net.cpp:367] res3d_branch2a_relu -> res3d_branch2a (in-place)
I0522 17:14:12.344116 27530 net.cpp:122] Setting up res3d_branch2a_relu
I0522 17:14:12.344126 27530 net.cpp:129] Top shape: 16 128 28 28 (1605632)
I0522 17:14:12.344130 27530 net.cpp:137] Memory required for data: 2591490112
I0522 17:14:12.344132 27530 layer_factory.hpp:77] Creating layer res3d_branch2b
I0522 17:14:12.344141 27530 net.cpp:84] Creating Layer res3d_branch2b
I0522 17:14:12.344146 27530 net.cpp:406] res3d_branch2b <- res3d_branch2a
I0522 17:14:12.344151 27530 net.cpp:380] res3d_branch2b -> res3d_branch2b
I0522 17:14:12.345881 27530 net.cpp:122] Setting up res3d_branch2b
I0522 17:14:12.345893 27530 net.cpp:129] Top shape: 16 128 28 28 (1605632)
I0522 17:14:12.345896 27530 net.cpp:137] Memory required for data: 2597912640
I0522 17:14:12.345901 27530 layer_factory.hpp:77] Creating layer bn3d_branch2b
I0522 17:14:12.345906 27530 net.cpp:84] Creating Layer bn3d_branch2b
I0522 17:14:12.345911 27530 net.cpp:406] bn3d_branch2b <- res3d_branch2b
I0522 17:14:12.345916 27530 net.cpp:367] bn3d_branch2b -> res3d_branch2b (in-place)
I0522 17:14:12.346088 27530 net.cpp:122] Setting up bn3d_branch2b
I0522 17:14:12.346094 27530 net.cpp:129] Top shape: 16 128 28 28 (1605632)
I0522 17:14:12.346098 27530 net.cpp:137] Memory required for data: 2604335168
I0522 17:14:12.346104 27530 layer_factory.hpp:77] Creating layer scale3d_branch2b
I0522 17:14:12.346109 27530 net.cpp:84] Creating Layer scale3d_branch2b
I0522 17:14:12.346112 27530 net.cpp:406] scale3d_branch2b <- res3d_branch2b
I0522 17:14:12.346117 27530 net.cpp:367] scale3d_branch2b -> res3d_branch2b (in-place)
I0522 17:14:12.346151 27530 layer_factory.hpp:77] Creating layer scale3d_branch2b
I0522 17:14:12.346278 27530 net.cpp:122] Setting up scale3d_branch2b
I0522 17:14:12.346285 27530 net.cpp:129] Top shape: 16 128 28 28 (1605632)
I0522 17:14:12.346288 27530 net.cpp:137] Memory required for data: 2610757696
I0522 17:14:12.346293 27530 layer_factory.hpp:77] Creating layer res3d_branch2b_relu
I0522 17:14:12.346299 27530 net.cpp:84] Creating Layer res3d_branch2b_relu
I0522 17:14:12.346302 27530 net.cpp:406] res3d_branch2b_relu <- res3d_branch2b
I0522 17:14:12.346307 27530 net.cpp:367] res3d_branch2b_relu -> res3d_branch2b (in-place)
I0522 17:14:12.346467 27530 net.cpp:122] Setting up res3d_branch2b_relu
I0522 17:14:12.346475 27530 net.cpp:129] Top shape: 16 128 28 28 (1605632)
I0522 17:14:12.346478 27530 net.cpp:137] Memory required for data: 2617180224
I0522 17:14:12.346491 27530 layer_factory.hpp:77] Creating layer res3d_branch2c
I0522 17:14:12.346500 27530 net.cpp:84] Creating Layer res3d_branch2c
I0522 17:14:12.346503 27530 net.cpp:406] res3d_branch2c <- res3d_branch2b
I0522 17:14:12.346509 27530 net.cpp:380] res3d_branch2c -> res3d_branch2c
I0522 17:14:12.347687 27530 net.cpp:122] Setting up res3d_branch2c
I0522 17:14:12.347698 27530 net.cpp:129] Top shape: 16 512 28 28 (6422528)
I0522 17:14:12.347702 27530 net.cpp:137] Memory required for data: 2642870336
I0522 17:14:12.347707 27530 layer_factory.hpp:77] Creating layer bn3d_branch2c
I0522 17:14:12.347713 27530 net.cpp:84] Creating Layer bn3d_branch2c
I0522 17:14:12.347717 27530 net.cpp:406] bn3d_branch2c <- res3d_branch2c
I0522 17:14:12.347720 27530 net.cpp:367] bn3d_branch2c -> res3d_branch2c (in-place)
I0522 17:14:12.347890 27530 net.cpp:122] Setting up bn3d_branch2c
I0522 17:14:12.347898 27530 net.cpp:129] Top shape: 16 512 28 28 (6422528)
I0522 17:14:12.347900 27530 net.cpp:137] Memory required for data: 2668560448
I0522 17:14:12.347906 27530 layer_factory.hpp:77] Creating layer scale3d_branch2c
I0522 17:14:12.347910 27530 net.cpp:84] Creating Layer scale3d_branch2c
I0522 17:14:12.347914 27530 net.cpp:406] scale3d_branch2c <- res3d_branch2c
I0522 17:14:12.347918 27530 net.cpp:367] scale3d_branch2c -> res3d_branch2c (in-place)
I0522 17:14:12.347954 27530 layer_factory.hpp:77] Creating layer scale3d_branch2c
I0522 17:14:12.348083 27530 net.cpp:122] Setting up scale3d_branch2c
I0522 17:14:12.348089 27530 net.cpp:129] Top shape: 16 512 28 28 (6422528)
I0522 17:14:12.348093 27530 net.cpp:137] Memory required for data: 2694250560
I0522 17:14:12.348098 27530 layer_factory.hpp:77] Creating layer res3d
I0522 17:14:12.348104 27530 net.cpp:84] Creating Layer res3d
I0522 17:14:12.348106 27530 net.cpp:406] res3d <- res3c_res3c_relu_0_split_1
I0522 17:14:12.348110 27530 net.cpp:406] res3d <- res3d_branch2c
I0522 17:14:12.348114 27530 net.cpp:380] res3d -> res3d
I0522 17:14:12.348135 27530 net.cpp:122] Setting up res3d
I0522 17:14:12.348141 27530 net.cpp:129] Top shape: 16 512 28 28 (6422528)
I0522 17:14:12.348145 27530 net.cpp:137] Memory required for data: 2719940672
I0522 17:14:12.348146 27530 layer_factory.hpp:77] Creating layer res3d_relu
I0522 17:14:12.348150 27530 net.cpp:84] Creating Layer res3d_relu
I0522 17:14:12.348155 27530 net.cpp:406] res3d_relu <- res3d
I0522 17:14:12.348160 27530 net.cpp:367] res3d_relu -> res3d (in-place)
I0522 17:14:12.348316 27530 net.cpp:122] Setting up res3d_relu
I0522 17:14:12.348325 27530 net.cpp:129] Top shape: 16 512 28 28 (6422528)
I0522 17:14:12.348327 27530 net.cpp:137] Memory required for data: 2745630784
I0522 17:14:12.348330 27530 layer_factory.hpp:77] Creating layer res3d_res3d_relu_0_split
I0522 17:14:12.348335 27530 net.cpp:84] Creating Layer res3d_res3d_relu_0_split
I0522 17:14:12.348340 27530 net.cpp:406] res3d_res3d_relu_0_split <- res3d
I0522 17:14:12.348345 27530 net.cpp:380] res3d_res3d_relu_0_split -> res3d_res3d_relu_0_split_0
I0522 17:14:12.348350 27530 net.cpp:380] res3d_res3d_relu_0_split -> res3d_res3d_relu_0_split_1
I0522 17:14:12.348384 27530 net.cpp:122] Setting up res3d_res3d_relu_0_split
I0522 17:14:12.348390 27530 net.cpp:129] Top shape: 16 512 28 28 (6422528)
I0522 17:14:12.348394 27530 net.cpp:129] Top shape: 16 512 28 28 (6422528)
I0522 17:14:12.348397 27530 net.cpp:137] Memory required for data: 2797011008
I0522 17:14:12.348400 27530 layer_factory.hpp:77] Creating layer res4a_branch1
I0522 17:14:12.348407 27530 net.cpp:84] Creating Layer res4a_branch1
I0522 17:14:12.348412 27530 net.cpp:406] res4a_branch1 <- res3d_res3d_relu_0_split_0
I0522 17:14:12.348417 27530 net.cpp:380] res4a_branch1 -> res4a_branch1
I0522 17:14:12.352159 27530 net.cpp:122] Setting up res4a_branch1
I0522 17:14:12.352174 27530 net.cpp:129] Top shape: 16 1024 14 14 (3211264)
I0522 17:14:12.352178 27530 net.cpp:137] Memory required for data: 2809856064
I0522 17:14:12.352185 27530 layer_factory.hpp:77] Creating layer bn4a_branch1
I0522 17:14:12.352191 27530 net.cpp:84] Creating Layer bn4a_branch1
I0522 17:14:12.352205 27530 net.cpp:406] bn4a_branch1 <- res4a_branch1
I0522 17:14:12.352211 27530 net.cpp:367] bn4a_branch1 -> res4a_branch1 (in-place)
I0522 17:14:12.352396 27530 net.cpp:122] Setting up bn4a_branch1
I0522 17:14:12.352403 27530 net.cpp:129] Top shape: 16 1024 14 14 (3211264)
I0522 17:14:12.352406 27530 net.cpp:137] Memory required for data: 2822701120
I0522 17:14:12.352412 27530 layer_factory.hpp:77] Creating layer scale4a_branch1
I0522 17:14:12.352418 27530 net.cpp:84] Creating Layer scale4a_branch1
I0522 17:14:12.352421 27530 net.cpp:406] scale4a_branch1 <- res4a_branch1
I0522 17:14:12.352425 27530 net.cpp:367] scale4a_branch1 -> res4a_branch1 (in-place)
I0522 17:14:12.352459 27530 layer_factory.hpp:77] Creating layer scale4a_branch1
I0522 17:14:12.352596 27530 net.cpp:122] Setting up scale4a_branch1
I0522 17:14:12.352602 27530 net.cpp:129] Top shape: 16 1024 14 14 (3211264)
I0522 17:14:12.352604 27530 net.cpp:137] Memory required for data: 2835546176
I0522 17:14:12.352610 27530 layer_factory.hpp:77] Creating layer res4a_branch2a
I0522 17:14:12.352618 27530 net.cpp:84] Creating Layer res4a_branch2a
I0522 17:14:12.352622 27530 net.cpp:406] res4a_branch2a <- res3d_res3d_relu_0_split_1
I0522 17:14:12.352627 27530 net.cpp:380] res4a_branch2a -> res4a_branch2a
I0522 17:14:12.354703 27530 net.cpp:122] Setting up res4a_branch2a
I0522 17:14:12.354717 27530 net.cpp:129] Top shape: 16 256 14 14 (802816)
I0522 17:14:12.354720 27530 net.cpp:137] Memory required for data: 2838757440
I0522 17:14:12.354725 27530 layer_factory.hpp:77] Creating layer bn4a_branch2a
I0522 17:14:12.354732 27530 net.cpp:84] Creating Layer bn4a_branch2a
I0522 17:14:12.354735 27530 net.cpp:406] bn4a_branch2a <- res4a_branch2a
I0522 17:14:12.354740 27530 net.cpp:367] bn4a_branch2a -> res4a_branch2a (in-place)
I0522 17:14:12.354962 27530 net.cpp:122] Setting up bn4a_branch2a
I0522 17:14:12.354970 27530 net.cpp:129] Top shape: 16 256 14 14 (802816)
I0522 17:14:12.354974 27530 net.cpp:137] Memory required for data: 2841968704
I0522 17:14:12.354979 27530 layer_factory.hpp:77] Creating layer scale4a_branch2a
I0522 17:14:12.354985 27530 net.cpp:84] Creating Layer scale4a_branch2a
I0522 17:14:12.354988 27530 net.cpp:406] scale4a_branch2a <- res4a_branch2a
I0522 17:14:12.354992 27530 net.cpp:367] scale4a_branch2a -> res4a_branch2a (in-place)
I0522 17:14:12.355056 27530 layer_factory.hpp:77] Creating layer scale4a_branch2a
I0522 17:14:12.355180 27530 net.cpp:122] Setting up scale4a_branch2a
I0522 17:14:12.355187 27530 net.cpp:129] Top shape: 16 256 14 14 (802816)
I0522 17:14:12.355190 27530 net.cpp:137] Memory required for data: 2845179968
I0522 17:14:12.355195 27530 layer_factory.hpp:77] Creating layer res4a_branch2a_relu
I0522 17:14:12.355201 27530 net.cpp:84] Creating Layer res4a_branch2a_relu
I0522 17:14:12.355203 27530 net.cpp:406] res4a_branch2a_relu <- res4a_branch2a
I0522 17:14:12.355207 27530 net.cpp:367] res4a_branch2a_relu -> res4a_branch2a (in-place)
I0522 17:14:12.355623 27530 net.cpp:122] Setting up res4a_branch2a_relu
I0522 17:14:12.355633 27530 net.cpp:129] Top shape: 16 256 14 14 (802816)
I0522 17:14:12.355654 27530 net.cpp:137] Memory required for data: 2848391232
I0522 17:14:12.355657 27530 layer_factory.hpp:77] Creating layer res4a_branch2b
I0522 17:14:12.355680 27530 net.cpp:84] Creating Layer res4a_branch2b
I0522 17:14:12.355684 27530 net.cpp:406] res4a_branch2b <- res4a_branch2a
I0522 17:14:12.355705 27530 net.cpp:380] res4a_branch2b -> res4a_branch2b
I0522 17:14:12.360318 27530 net.cpp:122] Setting up res4a_branch2b
I0522 17:14:12.360353 27530 net.cpp:129] Top shape: 16 256 14 14 (802816)
I0522 17:14:12.360357 27530 net.cpp:137] Memory required for data: 2851602496
I0522 17:14:12.360366 27530 layer_factory.hpp:77] Creating layer bn4a_branch2b
I0522 17:14:12.360389 27530 net.cpp:84] Creating Layer bn4a_branch2b
I0522 17:14:12.360394 27530 net.cpp:406] bn4a_branch2b <- res4a_branch2b
I0522 17:14:12.360400 27530 net.cpp:367] bn4a_branch2b -> res4a_branch2b (in-place)
I0522 17:14:12.360643 27530 net.cpp:122] Setting up bn4a_branch2b
I0522 17:14:12.360674 27530 net.cpp:129] Top shape: 16 256 14 14 (802816)
I0522 17:14:12.360677 27530 net.cpp:137] Memory required for data: 2854813760
I0522 17:14:12.360698 27530 layer_factory.hpp:77] Creating layer scale4a_branch2b
I0522 17:14:12.360707 27530 net.cpp:84] Creating Layer scale4a_branch2b
I0522 17:14:12.360711 27530 net.cpp:406] scale4a_branch2b <- res4a_branch2b
I0522 17:14:12.360716 27530 net.cpp:367] scale4a_branch2b -> res4a_branch2b (in-place)
I0522 17:14:12.360761 27530 layer_factory.hpp:77] Creating layer scale4a_branch2b
I0522 17:14:12.360903 27530 net.cpp:122] Setting up scale4a_branch2b
I0522 17:14:12.360909 27530 net.cpp:129] Top shape: 16 256 14 14 (802816)
I0522 17:14:12.360927 27530 net.cpp:137] Memory required for data: 2858025024
I0522 17:14:12.360932 27530 layer_factory.hpp:77] Creating layer res4a_branch2b_relu
I0522 17:14:12.360939 27530 net.cpp:84] Creating Layer res4a_branch2b_relu
I0522 17:14:12.360942 27530 net.cpp:406] res4a_branch2b_relu <- res4a_branch2b
I0522 17:14:12.360946 27530 net.cpp:367] res4a_branch2b_relu -> res4a_branch2b (in-place)
I0522 17:14:12.361150 27530 net.cpp:122] Setting up res4a_branch2b_relu
I0522 17:14:12.361160 27530 net.cpp:129] Top shape: 16 256 14 14 (802816)
I0522 17:14:12.361177 27530 net.cpp:137] Memory required for data: 2861236288
I0522 17:14:12.361181 27530 layer_factory.hpp:77] Creating layer res4a_branch2c
I0522 17:14:12.361191 27530 net.cpp:84] Creating Layer res4a_branch2c
I0522 17:14:12.361194 27530 net.cpp:406] res4a_branch2c <- res4a_branch2b
I0522 17:14:12.361199 27530 net.cpp:380] res4a_branch2c -> res4a_branch2c
I0522 17:14:12.363909 27530 net.cpp:122] Setting up res4a_branch2c
I0522 17:14:12.363986 27530 net.cpp:129] Top shape: 16 1024 14 14 (3211264)
I0522 17:14:12.363992 27530 net.cpp:137] Memory required for data: 2874081344
I0522 17:14:12.364001 27530 layer_factory.hpp:77] Creating layer bn4a_branch2c
I0522 17:14:12.364009 27530 net.cpp:84] Creating Layer bn4a_branch2c
I0522 17:14:12.364025 27530 net.cpp:406] bn4a_branch2c <- res4a_branch2c
I0522 17:14:12.364043 27530 net.cpp:367] bn4a_branch2c -> res4a_branch2c (in-place)
I0522 17:14:12.364248 27530 net.cpp:122] Setting up bn4a_branch2c
I0522 17:14:12.364256 27530 net.cpp:129] Top shape: 16 1024 14 14 (3211264)
I0522 17:14:12.364259 27530 net.cpp:137] Memory required for data: 2886926400
I0522 17:14:12.364267 27530 layer_factory.hpp:77] Creating layer scale4a_branch2c
I0522 17:14:12.364274 27530 net.cpp:84] Creating Layer scale4a_branch2c
I0522 17:14:12.364276 27530 net.cpp:406] scale4a_branch2c <- res4a_branch2c
I0522 17:14:12.364280 27530 net.cpp:367] scale4a_branch2c -> res4a_branch2c (in-place)
I0522 17:14:12.364332 27530 layer_factory.hpp:77] Creating layer scale4a_branch2c
I0522 17:14:12.364480 27530 net.cpp:122] Setting up scale4a_branch2c
I0522 17:14:12.364486 27530 net.cpp:129] Top shape: 16 1024 14 14 (3211264)
I0522 17:14:12.364490 27530 net.cpp:137] Memory required for data: 2899771456
I0522 17:14:12.364495 27530 layer_factory.hpp:77] Creating layer res4a
I0522 17:14:12.364501 27530 net.cpp:84] Creating Layer res4a
I0522 17:14:12.364506 27530 net.cpp:406] res4a <- res4a_branch1
I0522 17:14:12.364511 27530 net.cpp:406] res4a <- res4a_branch2c
I0522 17:14:12.364516 27530 net.cpp:380] res4a -> res4a
I0522 17:14:12.364538 27530 net.cpp:122] Setting up res4a
I0522 17:14:12.364544 27530 net.cpp:129] Top shape: 16 1024 14 14 (3211264)
I0522 17:14:12.364547 27530 net.cpp:137] Memory required for data: 2912616512
I0522 17:14:12.364552 27530 layer_factory.hpp:77] Creating layer res4a_relu
I0522 17:14:12.364555 27530 net.cpp:84] Creating Layer res4a_relu
I0522 17:14:12.364560 27530 net.cpp:406] res4a_relu <- res4a
I0522 17:14:12.364567 27530 net.cpp:367] res4a_relu -> res4a (in-place)
I0522 17:14:12.364751 27530 net.cpp:122] Setting up res4a_relu
I0522 17:14:12.364759 27530 net.cpp:129] Top shape: 16 1024 14 14 (3211264)
I0522 17:14:12.364763 27530 net.cpp:137] Memory required for data: 2925461568
I0522 17:14:12.364766 27530 layer_factory.hpp:77] Creating layer res4a_res4a_relu_0_split
I0522 17:14:12.364784 27530 net.cpp:84] Creating Layer res4a_res4a_relu_0_split
I0522 17:14:12.364789 27530 net.cpp:406] res4a_res4a_relu_0_split <- res4a
I0522 17:14:12.364792 27530 net.cpp:380] res4a_res4a_relu_0_split -> res4a_res4a_relu_0_split_0
I0522 17:14:12.364799 27530 net.cpp:380] res4a_res4a_relu_0_split -> res4a_res4a_relu_0_split_1
I0522 17:14:12.364840 27530 net.cpp:122] Setting up res4a_res4a_relu_0_split
I0522 17:14:12.364846 27530 net.cpp:129] Top shape: 16 1024 14 14 (3211264)
I0522 17:14:12.364850 27530 net.cpp:129] Top shape: 16 1024 14 14 (3211264)
I0522 17:14:12.364854 27530 net.cpp:137] Memory required for data: 2951151680
I0522 17:14:12.364857 27530 layer_factory.hpp:77] Creating layer res4b_branch2a
I0522 17:14:12.364886 27530 net.cpp:84] Creating Layer res4b_branch2a
I0522 17:14:12.364890 27530 net.cpp:406] res4b_branch2a <- res4a_res4a_relu_0_split_0
I0522 17:14:12.364897 27530 net.cpp:380] res4b_branch2a -> res4b_branch2a
I0522 17:14:12.368060 27530 net.cpp:122] Setting up res4b_branch2a
I0522 17:14:12.368162 27530 net.cpp:129] Top shape: 16 256 14 14 (802816)
I0522 17:14:12.368177 27530 net.cpp:137] Memory required for data: 2954362944
I0522 17:14:12.368189 27530 layer_factory.hpp:77] Creating layer bn4b_branch2a
I0522 17:14:12.368198 27530 net.cpp:84] Creating Layer bn4b_branch2a
I0522 17:14:12.368202 27530 net.cpp:406] bn4b_branch2a <- res4b_branch2a
I0522 17:14:12.368209 27530 net.cpp:367] bn4b_branch2a -> res4b_branch2a (in-place)
I0522 17:14:12.368422 27530 net.cpp:122] Setting up bn4b_branch2a
I0522 17:14:12.368427 27530 net.cpp:129] Top shape: 16 256 14 14 (802816)
I0522 17:14:12.368443 27530 net.cpp:137] Memory required for data: 2957574208
I0522 17:14:12.368449 27530 layer_factory.hpp:77] Creating layer scale4b_branch2a
I0522 17:14:12.368468 27530 net.cpp:84] Creating Layer scale4b_branch2a
I0522 17:14:12.368474 27530 net.cpp:406] scale4b_branch2a <- res4b_branch2a
I0522 17:14:12.368477 27530 net.cpp:367] scale4b_branch2a -> res4b_branch2a (in-place)
I0522 17:14:12.368531 27530 layer_factory.hpp:77] Creating layer scale4b_branch2a
I0522 17:14:12.368655 27530 net.cpp:122] Setting up scale4b_branch2a
I0522 17:14:12.368662 27530 net.cpp:129] Top shape: 16 256 14 14 (802816)
I0522 17:14:12.368665 27530 net.cpp:137] Memory required for data: 2960785472
I0522 17:14:12.368683 27530 layer_factory.hpp:77] Creating layer res4b_branch2a_relu
I0522 17:14:12.368690 27530 net.cpp:84] Creating Layer res4b_branch2a_relu
I0522 17:14:12.368695 27530 net.cpp:406] res4b_branch2a_relu <- res4b_branch2a
I0522 17:14:12.368698 27530 net.cpp:367] res4b_branch2a_relu -> res4b_branch2a (in-place)
I0522 17:14:12.369186 27530 net.cpp:122] Setting up res4b_branch2a_relu
I0522 17:14:12.369199 27530 net.cpp:129] Top shape: 16 256 14 14 (802816)
I0522 17:14:12.369202 27530 net.cpp:137] Memory required for data: 2963996736
I0522 17:14:12.369220 27530 layer_factory.hpp:77] Creating layer res4b_branch2b
I0522 17:14:12.369241 27530 net.cpp:84] Creating Layer res4b_branch2b
I0522 17:14:12.369246 27530 net.cpp:406] res4b_branch2b <- res4b_branch2a
I0522 17:14:12.369266 27530 net.cpp:380] res4b_branch2b -> res4b_branch2b
I0522 17:14:12.374063 27530 net.cpp:122] Setting up res4b_branch2b
I0522 17:14:12.374094 27530 net.cpp:129] Top shape: 16 256 14 14 (802816)
I0522 17:14:12.374096 27530 net.cpp:137] Memory required for data: 2967208000
I0522 17:14:12.374119 27530 layer_factory.hpp:77] Creating layer bn4b_branch2b
I0522 17:14:12.374137 27530 net.cpp:84] Creating Layer bn4b_branch2b
I0522 17:14:12.374142 27530 net.cpp:406] bn4b_branch2b <- res4b_branch2b
I0522 17:14:12.374161 27530 net.cpp:367] bn4b_branch2b -> res4b_branch2b (in-place)
I0522 17:14:12.374400 27530 net.cpp:122] Setting up bn4b_branch2b
I0522 17:14:12.374408 27530 net.cpp:129] Top shape: 16 256 14 14 (802816)
I0522 17:14:12.374411 27530 net.cpp:137] Memory required for data: 2970419264
I0522 17:14:12.374418 27530 layer_factory.hpp:77] Creating layer scale4b_branch2b
I0522 17:14:12.374423 27530 net.cpp:84] Creating Layer scale4b_branch2b
I0522 17:14:12.374436 27530 net.cpp:406] scale4b_branch2b <- res4b_branch2b
I0522 17:14:12.374440 27530 net.cpp:367] scale4b_branch2b -> res4b_branch2b (in-place)
I0522 17:14:12.374521 27530 layer_factory.hpp:77] Creating layer scale4b_branch2b
I0522 17:14:12.374686 27530 net.cpp:122] Setting up scale4b_branch2b
I0522 17:14:12.374692 27530 net.cpp:129] Top shape: 16 256 14 14 (802816)
I0522 17:14:12.374711 27530 net.cpp:137] Memory required for data: 2973630528
I0522 17:14:12.374716 27530 layer_factory.hpp:77] Creating layer res4b_branch2b_relu
I0522 17:14:12.374723 27530 net.cpp:84] Creating Layer res4b_branch2b_relu
I0522 17:14:12.374727 27530 net.cpp:406] res4b_branch2b_relu <- res4b_branch2b
I0522 17:14:12.374732 27530 net.cpp:367] res4b_branch2b_relu -> res4b_branch2b (in-place)
I0522 17:14:12.374912 27530 net.cpp:122] Setting up res4b_branch2b_relu
I0522 17:14:12.374922 27530 net.cpp:129] Top shape: 16 256 14 14 (802816)
I0522 17:14:12.374945 27530 net.cpp:137] Memory required for data: 2976841792
I0522 17:14:12.374949 27530 layer_factory.hpp:77] Creating layer res4b_branch2c
I0522 17:14:12.374959 27530 net.cpp:84] Creating Layer res4b_branch2c
I0522 17:14:12.374977 27530 net.cpp:406] res4b_branch2c <- res4b_branch2b
I0522 17:14:12.374982 27530 net.cpp:380] res4b_branch2c -> res4b_branch2c
I0522 17:14:12.377125 27530 net.cpp:122] Setting up res4b_branch2c
I0522 17:14:12.377136 27530 net.cpp:129] Top shape: 16 1024 14 14 (3211264)
I0522 17:14:12.377140 27530 net.cpp:137] Memory required for data: 2989686848
I0522 17:14:12.377146 27530 layer_factory.hpp:77] Creating layer bn4b_branch2c
I0522 17:14:12.377152 27530 net.cpp:84] Creating Layer bn4b_branch2c
I0522 17:14:12.377156 27530 net.cpp:406] bn4b_branch2c <- res4b_branch2c
I0522 17:14:12.377161 27530 net.cpp:367] bn4b_branch2c -> res4b_branch2c (in-place)
I0522 17:14:12.377346 27530 net.cpp:122] Setting up bn4b_branch2c
I0522 17:14:12.377351 27530 net.cpp:129] Top shape: 16 1024 14 14 (3211264)
I0522 17:14:12.377354 27530 net.cpp:137] Memory required for data: 3002531904
I0522 17:14:12.377360 27530 layer_factory.hpp:77] Creating layer scale4b_branch2c
I0522 17:14:12.377365 27530 net.cpp:84] Creating Layer scale4b_branch2c
I0522 17:14:12.377368 27530 net.cpp:406] scale4b_branch2c <- res4b_branch2c
I0522 17:14:12.377372 27530 net.cpp:367] scale4b_branch2c -> res4b_branch2c (in-place)
I0522 17:14:12.377408 27530 layer_factory.hpp:77] Creating layer scale4b_branch2c
I0522 17:14:12.377544 27530 net.cpp:122] Setting up scale4b_branch2c
I0522 17:14:12.377552 27530 net.cpp:129] Top shape: 16 1024 14 14 (3211264)
I0522 17:14:12.377553 27530 net.cpp:137] Memory required for data: 3015376960
I0522 17:14:12.377559 27530 layer_factory.hpp:77] Creating layer res4b
I0522 17:14:12.377564 27530 net.cpp:84] Creating Layer res4b
I0522 17:14:12.377568 27530 net.cpp:406] res4b <- res4a_res4a_relu_0_split_1
I0522 17:14:12.377573 27530 net.cpp:406] res4b <- res4b_branch2c
I0522 17:14:12.377578 27530 net.cpp:380] res4b -> res4b
I0522 17:14:12.377599 27530 net.cpp:122] Setting up res4b
I0522 17:14:12.377605 27530 net.cpp:129] Top shape: 16 1024 14 14 (3211264)
I0522 17:14:12.377607 27530 net.cpp:137] Memory required for data: 3028222016
I0522 17:14:12.377610 27530 layer_factory.hpp:77] Creating layer res4b_relu
I0522 17:14:12.377615 27530 net.cpp:84] Creating Layer res4b_relu
I0522 17:14:12.377619 27530 net.cpp:406] res4b_relu <- res4b
I0522 17:14:12.377622 27530 net.cpp:367] res4b_relu -> res4b (in-place)
I0522 17:14:12.377846 27530 net.cpp:122] Setting up res4b_relu
I0522 17:14:12.377853 27530 net.cpp:129] Top shape: 16 1024 14 14 (3211264)
I0522 17:14:12.377857 27530 net.cpp:137] Memory required for data: 3041067072
I0522 17:14:12.377861 27530 layer_factory.hpp:77] Creating layer res4b_res4b_relu_0_split
I0522 17:14:12.377866 27530 net.cpp:84] Creating Layer res4b_res4b_relu_0_split
I0522 17:14:12.377868 27530 net.cpp:406] res4b_res4b_relu_0_split <- res4b
I0522 17:14:12.377874 27530 net.cpp:380] res4b_res4b_relu_0_split -> res4b_res4b_relu_0_split_0
I0522 17:14:12.377902 27530 net.cpp:380] res4b_res4b_relu_0_split -> res4b_res4b_relu_0_split_1
I0522 17:14:12.377955 27530 net.cpp:122] Setting up res4b_res4b_relu_0_split
I0522 17:14:12.377962 27530 net.cpp:129] Top shape: 16 1024 14 14 (3211264)
I0522 17:14:12.377979 27530 net.cpp:129] Top shape: 16 1024 14 14 (3211264)
I0522 17:14:12.377982 27530 net.cpp:137] Memory required for data: 3066757184
I0522 17:14:12.377986 27530 layer_factory.hpp:77] Creating layer res4c_branch2a
I0522 17:14:12.378006 27530 net.cpp:84] Creating Layer res4c_branch2a
I0522 17:14:12.378023 27530 net.cpp:406] res4c_branch2a <- res4b_res4b_relu_0_split_0
I0522 17:14:12.378028 27530 net.cpp:380] res4c_branch2a -> res4c_branch2a
I0522 17:14:12.380861 27530 net.cpp:122] Setting up res4c_branch2a
I0522 17:14:12.380878 27530 net.cpp:129] Top shape: 16 256 14 14 (802816)
I0522 17:14:12.380882 27530 net.cpp:137] Memory required for data: 3069968448
I0522 17:14:12.380901 27530 layer_factory.hpp:77] Creating layer bn4c_branch2a
I0522 17:14:12.380911 27530 net.cpp:84] Creating Layer bn4c_branch2a
I0522 17:14:12.380916 27530 net.cpp:406] bn4c_branch2a <- res4c_branch2a
I0522 17:14:12.380920 27530 net.cpp:367] bn4c_branch2a -> res4c_branch2a (in-place)
I0522 17:14:12.381119 27530 net.cpp:122] Setting up bn4c_branch2a
I0522 17:14:12.381125 27530 net.cpp:129] Top shape: 16 256 14 14 (802816)
I0522 17:14:12.381129 27530 net.cpp:137] Memory required for data: 3073179712
I0522 17:14:12.381134 27530 layer_factory.hpp:77] Creating layer scale4c_branch2a
I0522 17:14:12.381139 27530 net.cpp:84] Creating Layer scale4c_branch2a
I0522 17:14:12.381144 27530 net.cpp:406] scale4c_branch2a <- res4c_branch2a
I0522 17:14:12.381148 27530 net.cpp:367] scale4c_branch2a -> res4c_branch2a (in-place)
I0522 17:14:12.381202 27530 layer_factory.hpp:77] Creating layer scale4c_branch2a
I0522 17:14:12.381316 27530 net.cpp:122] Setting up scale4c_branch2a
I0522 17:14:12.381323 27530 net.cpp:129] Top shape: 16 256 14 14 (802816)
I0522 17:14:12.381326 27530 net.cpp:137] Memory required for data: 3076390976
I0522 17:14:12.381331 27530 layer_factory.hpp:77] Creating layer res4c_branch2a_relu
I0522 17:14:12.381336 27530 net.cpp:84] Creating Layer res4c_branch2a_relu
I0522 17:14:12.381340 27530 net.cpp:406] res4c_branch2a_relu <- res4c_branch2a
I0522 17:14:12.381345 27530 net.cpp:367] res4c_branch2a_relu -> res4c_branch2a (in-place)
I0522 17:14:12.381531 27530 net.cpp:122] Setting up res4c_branch2a_relu
I0522 17:14:12.381538 27530 net.cpp:129] Top shape: 16 256 14 14 (802816)
I0522 17:14:12.381541 27530 net.cpp:137] Memory required for data: 3079602240
I0522 17:14:12.381544 27530 layer_factory.hpp:77] Creating layer res4c_branch2b
I0522 17:14:12.381552 27530 net.cpp:84] Creating Layer res4c_branch2b
I0522 17:14:12.381556 27530 net.cpp:406] res4c_branch2b <- res4c_branch2a
I0522 17:14:12.381562 27530 net.cpp:380] res4c_branch2b -> res4c_branch2b
I0522 17:14:12.385927 27530 net.cpp:122] Setting up res4c_branch2b
I0522 17:14:12.385943 27530 net.cpp:129] Top shape: 16 256 14 14 (802816)
I0522 17:14:12.385946 27530 net.cpp:137] Memory required for data: 3082813504
I0522 17:14:12.385953 27530 layer_factory.hpp:77] Creating layer bn4c_branch2b
I0522 17:14:12.385962 27530 net.cpp:84] Creating Layer bn4c_branch2b
I0522 17:14:12.385964 27530 net.cpp:406] bn4c_branch2b <- res4c_branch2b
I0522 17:14:12.385969 27530 net.cpp:367] bn4c_branch2b -> res4c_branch2b (in-place)
I0522 17:14:12.386185 27530 net.cpp:122] Setting up bn4c_branch2b
I0522 17:14:12.386193 27530 net.cpp:129] Top shape: 16 256 14 14 (802816)
I0522 17:14:12.386194 27530 net.cpp:137] Memory required for data: 3086024768
I0522 17:14:12.386201 27530 layer_factory.hpp:77] Creating layer scale4c_branch2b
I0522 17:14:12.386206 27530 net.cpp:84] Creating Layer scale4c_branch2b
I0522 17:14:12.386209 27530 net.cpp:406] scale4c_branch2b <- res4c_branch2b
I0522 17:14:12.386214 27530 net.cpp:367] scale4c_branch2b -> res4c_branch2b (in-place)
I0522 17:14:12.386255 27530 layer_factory.hpp:77] Creating layer scale4c_branch2b
I0522 17:14:12.386384 27530 net.cpp:122] Setting up scale4c_branch2b
I0522 17:14:12.386399 27530 net.cpp:129] Top shape: 16 256 14 14 (802816)
I0522 17:14:12.386401 27530 net.cpp:137] Memory required for data: 3089236032
I0522 17:14:12.386406 27530 layer_factory.hpp:77] Creating layer res4c_branch2b_relu
I0522 17:14:12.386413 27530 net.cpp:84] Creating Layer res4c_branch2b_relu
I0522 17:14:12.386416 27530 net.cpp:406] res4c_branch2b_relu <- res4c_branch2b
I0522 17:14:12.386421 27530 net.cpp:367] res4c_branch2b_relu -> res4c_branch2b (in-place)
I0522 17:14:12.386832 27530 net.cpp:122] Setting up res4c_branch2b_relu
I0522 17:14:12.386844 27530 net.cpp:129] Top shape: 16 256 14 14 (802816)
I0522 17:14:12.386847 27530 net.cpp:137] Memory required for data: 3092447296
I0522 17:14:12.386850 27530 layer_factory.hpp:77] Creating layer res4c_branch2c
I0522 17:14:12.386858 27530 net.cpp:84] Creating Layer res4c_branch2c
I0522 17:14:12.386862 27530 net.cpp:406] res4c_branch2c <- res4c_branch2b
I0522 17:14:12.386868 27530 net.cpp:380] res4c_branch2c -> res4c_branch2c
I0522 17:14:12.388957 27530 net.cpp:122] Setting up res4c_branch2c
I0522 17:14:12.388967 27530 net.cpp:129] Top shape: 16 1024 14 14 (3211264)
I0522 17:14:12.388972 27530 net.cpp:137] Memory required for data: 3105292352
I0522 17:14:12.388978 27530 layer_factory.hpp:77] Creating layer bn4c_branch2c
I0522 17:14:12.388983 27530 net.cpp:84] Creating Layer bn4c_branch2c
I0522 17:14:12.388986 27530 net.cpp:406] bn4c_branch2c <- res4c_branch2c
I0522 17:14:12.388993 27530 net.cpp:367] bn4c_branch2c -> res4c_branch2c (in-place)
I0522 17:14:12.389176 27530 net.cpp:122] Setting up bn4c_branch2c
I0522 17:14:12.389183 27530 net.cpp:129] Top shape: 16 1024 14 14 (3211264)
I0522 17:14:12.389185 27530 net.cpp:137] Memory required for data: 3118137408
I0522 17:14:12.389191 27530 layer_factory.hpp:77] Creating layer scale4c_branch2c
I0522 17:14:12.389197 27530 net.cpp:84] Creating Layer scale4c_branch2c
I0522 17:14:12.389200 27530 net.cpp:406] scale4c_branch2c <- res4c_branch2c
I0522 17:14:12.389204 27530 net.cpp:367] scale4c_branch2c -> res4c_branch2c (in-place)
I0522 17:14:12.389240 27530 layer_factory.hpp:77] Creating layer scale4c_branch2c
I0522 17:14:12.389379 27530 net.cpp:122] Setting up scale4c_branch2c
I0522 17:14:12.389386 27530 net.cpp:129] Top shape: 16 1024 14 14 (3211264)
I0522 17:14:12.389389 27530 net.cpp:137] Memory required for data: 3130982464
I0522 17:14:12.389394 27530 layer_factory.hpp:77] Creating layer res4c
I0522 17:14:12.389400 27530 net.cpp:84] Creating Layer res4c
I0522 17:14:12.389403 27530 net.cpp:406] res4c <- res4b_res4b_relu_0_split_1
I0522 17:14:12.389406 27530 net.cpp:406] res4c <- res4c_branch2c
I0522 17:14:12.389411 27530 net.cpp:380] res4c -> res4c
I0522 17:14:12.389434 27530 net.cpp:122] Setting up res4c
I0522 17:14:12.389441 27530 net.cpp:129] Top shape: 16 1024 14 14 (3211264)
I0522 17:14:12.389443 27530 net.cpp:137] Memory required for data: 3143827520
I0522 17:14:12.389446 27530 layer_factory.hpp:77] Creating layer res4c_relu
I0522 17:14:12.389451 27530 net.cpp:84] Creating Layer res4c_relu
I0522 17:14:12.389453 27530 net.cpp:406] res4c_relu <- res4c
I0522 17:14:12.389458 27530 net.cpp:367] res4c_relu -> res4c (in-place)
I0522 17:14:12.389652 27530 net.cpp:122] Setting up res4c_relu
I0522 17:14:12.389659 27530 net.cpp:129] Top shape: 16 1024 14 14 (3211264)
I0522 17:14:12.389662 27530 net.cpp:137] Memory required for data: 3156672576
I0522 17:14:12.389665 27530 layer_factory.hpp:77] Creating layer res4c_res4c_relu_0_split
I0522 17:14:12.389670 27530 net.cpp:84] Creating Layer res4c_res4c_relu_0_split
I0522 17:14:12.389673 27530 net.cpp:406] res4c_res4c_relu_0_split <- res4c
I0522 17:14:12.389678 27530 net.cpp:380] res4c_res4c_relu_0_split -> res4c_res4c_relu_0_split_0
I0522 17:14:12.389685 27530 net.cpp:380] res4c_res4c_relu_0_split -> res4c_res4c_relu_0_split_1
I0522 17:14:12.389737 27530 net.cpp:122] Setting up res4c_res4c_relu_0_split
I0522 17:14:12.389744 27530 net.cpp:129] Top shape: 16 1024 14 14 (3211264)
I0522 17:14:12.389760 27530 net.cpp:129] Top shape: 16 1024 14 14 (3211264)
I0522 17:14:12.389787 27530 net.cpp:137] Memory required for data: 3182362688
I0522 17:14:12.389804 27530 layer_factory.hpp:77] Creating layer res4d_branch2a
I0522 17:14:12.389828 27530 net.cpp:84] Creating Layer res4d_branch2a
I0522 17:14:12.389833 27530 net.cpp:406] res4d_branch2a <- res4c_res4c_relu_0_split_0
I0522 17:14:12.389850 27530 net.cpp:380] res4d_branch2a -> res4d_branch2a
I0522 17:14:12.392627 27530 net.cpp:122] Setting up res4d_branch2a
I0522 17:14:12.392642 27530 net.cpp:129] Top shape: 16 256 14 14 (802816)
I0522 17:14:12.392645 27530 net.cpp:137] Memory required for data: 3185573952
I0522 17:14:12.392652 27530 layer_factory.hpp:77] Creating layer bn4d_branch2a
I0522 17:14:12.392660 27530 net.cpp:84] Creating Layer bn4d_branch2a
I0522 17:14:12.392663 27530 net.cpp:406] bn4d_branch2a <- res4d_branch2a
I0522 17:14:12.392668 27530 net.cpp:367] bn4d_branch2a -> res4d_branch2a (in-place)
I0522 17:14:12.392885 27530 net.cpp:122] Setting up bn4d_branch2a
I0522 17:14:12.392892 27530 net.cpp:129] Top shape: 16 256 14 14 (802816)
I0522 17:14:12.392895 27530 net.cpp:137] Memory required for data: 3188785216
I0522 17:14:12.392901 27530 layer_factory.hpp:77] Creating layer scale4d_branch2a
I0522 17:14:12.392906 27530 net.cpp:84] Creating Layer scale4d_branch2a
I0522 17:14:12.392910 27530 net.cpp:406] scale4d_branch2a <- res4d_branch2a
I0522 17:14:12.392913 27530 net.cpp:367] scale4d_branch2a -> res4d_branch2a (in-place)
I0522 17:14:12.392983 27530 layer_factory.hpp:77] Creating layer scale4d_branch2a
I0522 17:14:12.393115 27530 net.cpp:122] Setting up scale4d_branch2a
I0522 17:14:12.393121 27530 net.cpp:129] Top shape: 16 256 14 14 (802816)
I0522 17:14:12.393124 27530 net.cpp:137] Memory required for data: 3191996480
I0522 17:14:12.393129 27530 layer_factory.hpp:77] Creating layer res4d_branch2a_relu
I0522 17:14:12.393133 27530 net.cpp:84] Creating Layer res4d_branch2a_relu
I0522 17:14:12.393137 27530 net.cpp:406] res4d_branch2a_relu <- res4d_branch2a
I0522 17:14:12.393142 27530 net.cpp:367] res4d_branch2a_relu -> res4d_branch2a (in-place)
I0522 17:14:12.393368 27530 net.cpp:122] Setting up res4d_branch2a_relu
I0522 17:14:12.393376 27530 net.cpp:129] Top shape: 16 256 14 14 (802816)
I0522 17:14:12.393394 27530 net.cpp:137] Memory required for data: 3195207744
I0522 17:14:12.393398 27530 layer_factory.hpp:77] Creating layer res4d_branch2b
I0522 17:14:12.393419 27530 net.cpp:84] Creating Layer res4d_branch2b
I0522 17:14:12.393424 27530 net.cpp:406] res4d_branch2b <- res4d_branch2a
I0522 17:14:12.393430 27530 net.cpp:380] res4d_branch2b -> res4d_branch2b
I0522 17:14:12.398197 27530 net.cpp:122] Setting up res4d_branch2b
I0522 17:14:12.398218 27530 net.cpp:129] Top shape: 16 256 14 14 (802816)
I0522 17:14:12.398222 27530 net.cpp:137] Memory required for data: 3198419008
I0522 17:14:12.398231 27530 layer_factory.hpp:77] Creating layer bn4d_branch2b
I0522 17:14:12.398237 27530 net.cpp:84] Creating Layer bn4d_branch2b
I0522 17:14:12.398241 27530 net.cpp:406] bn4d_branch2b <- res4d_branch2b
I0522 17:14:12.398247 27530 net.cpp:367] bn4d_branch2b -> res4d_branch2b (in-place)
I0522 17:14:12.398499 27530 net.cpp:122] Setting up bn4d_branch2b
I0522 17:14:12.398506 27530 net.cpp:129] Top shape: 16 256 14 14 (802816)
I0522 17:14:12.398509 27530 net.cpp:137] Memory required for data: 3201630272
I0522 17:14:12.398514 27530 layer_factory.hpp:77] Creating layer scale4d_branch2b
I0522 17:14:12.398521 27530 net.cpp:84] Creating Layer scale4d_branch2b
I0522 17:14:12.398524 27530 net.cpp:406] scale4d_branch2b <- res4d_branch2b
I0522 17:14:12.398528 27530 net.cpp:367] scale4d_branch2b -> res4d_branch2b (in-place)
I0522 17:14:12.398607 27530 layer_factory.hpp:77] Creating layer scale4d_branch2b
I0522 17:14:12.398741 27530 net.cpp:122] Setting up scale4d_branch2b
I0522 17:14:12.398748 27530 net.cpp:129] Top shape: 16 256 14 14 (802816)
I0522 17:14:12.398752 27530 net.cpp:137] Memory required for data: 3204841536
I0522 17:14:12.398757 27530 layer_factory.hpp:77] Creating layer res4d_branch2b_relu
I0522 17:14:12.398763 27530 net.cpp:84] Creating Layer res4d_branch2b_relu
I0522 17:14:12.398777 27530 net.cpp:406] res4d_branch2b_relu <- res4d_branch2b
I0522 17:14:12.398782 27530 net.cpp:367] res4d_branch2b_relu -> res4d_branch2b (in-place)
I0522 17:14:12.399227 27530 net.cpp:122] Setting up res4d_branch2b_relu
I0522 17:14:12.399252 27530 net.cpp:129] Top shape: 16 256 14 14 (802816)
I0522 17:14:12.399255 27530 net.cpp:137] Memory required for data: 3208052800
I0522 17:14:12.399260 27530 layer_factory.hpp:77] Creating layer res4d_branch2c
I0522 17:14:12.399267 27530 net.cpp:84] Creating Layer res4d_branch2c
I0522 17:14:12.399286 27530 net.cpp:406] res4d_branch2c <- res4d_branch2b
I0522 17:14:12.399292 27530 net.cpp:380] res4d_branch2c -> res4d_branch2c
I0522 17:14:12.401304 27530 net.cpp:122] Setting up res4d_branch2c
I0522 17:14:12.401314 27530 net.cpp:129] Top shape: 16 1024 14 14 (3211264)
I0522 17:14:12.401331 27530 net.cpp:137] Memory required for data: 3220897856
I0522 17:14:12.401336 27530 layer_factory.hpp:77] Creating layer bn4d_branch2c
I0522 17:14:12.401342 27530 net.cpp:84] Creating Layer bn4d_branch2c
I0522 17:14:12.401362 27530 net.cpp:406] bn4d_branch2c <- res4d_branch2c
I0522 17:14:12.401367 27530 net.cpp:367] bn4d_branch2c -> res4d_branch2c (in-place)
I0522 17:14:12.401621 27530 net.cpp:122] Setting up bn4d_branch2c
I0522 17:14:12.401628 27530 net.cpp:129] Top shape: 16 1024 14 14 (3211264)
I0522 17:14:12.401631 27530 net.cpp:137] Memory required for data: 3233742912
I0522 17:14:12.401638 27530 layer_factory.hpp:77] Creating layer scale4d_branch2c
I0522 17:14:12.401641 27530 net.cpp:84] Creating Layer scale4d_branch2c
I0522 17:14:12.401644 27530 net.cpp:406] scale4d_branch2c <- res4d_branch2c
I0522 17:14:12.401649 27530 net.cpp:367] scale4d_branch2c -> res4d_branch2c (in-place)
I0522 17:14:12.401727 27530 layer_factory.hpp:77] Creating layer scale4d_branch2c
I0522 17:14:12.401890 27530 net.cpp:122] Setting up scale4d_branch2c
I0522 17:14:12.401895 27530 net.cpp:129] Top shape: 16 1024 14 14 (3211264)
I0522 17:14:12.401898 27530 net.cpp:137] Memory required for data: 3246587968
I0522 17:14:12.401903 27530 layer_factory.hpp:77] Creating layer res4d
I0522 17:14:12.401908 27530 net.cpp:84] Creating Layer res4d
I0522 17:14:12.401911 27530 net.cpp:406] res4d <- res4c_res4c_relu_0_split_1
I0522 17:14:12.401916 27530 net.cpp:406] res4d <- res4d_branch2c
I0522 17:14:12.401921 27530 net.cpp:380] res4d -> res4d
I0522 17:14:12.401968 27530 net.cpp:122] Setting up res4d
I0522 17:14:12.401975 27530 net.cpp:129] Top shape: 16 1024 14 14 (3211264)
I0522 17:14:12.401978 27530 net.cpp:137] Memory required for data: 3259433024
I0522 17:14:12.401994 27530 layer_factory.hpp:77] Creating layer res4d_relu
I0522 17:14:12.401998 27530 net.cpp:84] Creating Layer res4d_relu
I0522 17:14:12.402001 27530 net.cpp:406] res4d_relu <- res4d
I0522 17:14:12.402005 27530 net.cpp:367] res4d_relu -> res4d (in-place)
I0522 17:14:12.402180 27530 net.cpp:122] Setting up res4d_relu
I0522 17:14:12.402189 27530 net.cpp:129] Top shape: 16 1024 14 14 (3211264)
I0522 17:14:12.402191 27530 net.cpp:137] Memory required for data: 3272278080
I0522 17:14:12.402194 27530 layer_factory.hpp:77] Creating layer res4d_res4d_relu_0_split
I0522 17:14:12.402199 27530 net.cpp:84] Creating Layer res4d_res4d_relu_0_split
I0522 17:14:12.402202 27530 net.cpp:406] res4d_res4d_relu_0_split <- res4d
I0522 17:14:12.402206 27530 net.cpp:380] res4d_res4d_relu_0_split -> res4d_res4d_relu_0_split_0
I0522 17:14:12.402213 27530 net.cpp:380] res4d_res4d_relu_0_split -> res4d_res4d_relu_0_split_1
I0522 17:14:12.402288 27530 net.cpp:122] Setting up res4d_res4d_relu_0_split
I0522 17:14:12.402294 27530 net.cpp:129] Top shape: 16 1024 14 14 (3211264)
I0522 17:14:12.402297 27530 net.cpp:129] Top shape: 16 1024 14 14 (3211264)
I0522 17:14:12.402300 27530 net.cpp:137] Memory required for data: 3297968192
I0522 17:14:12.402303 27530 layer_factory.hpp:77] Creating layer res4e_branch2a
I0522 17:14:12.402312 27530 net.cpp:84] Creating Layer res4e_branch2a
I0522 17:14:12.402315 27530 net.cpp:406] res4e_branch2a <- res4d_res4d_relu_0_split_0
I0522 17:14:12.402343 27530 net.cpp:380] res4e_branch2a -> res4e_branch2a
I0522 17:14:12.405218 27530 net.cpp:122] Setting up res4e_branch2a
I0522 17:14:12.405258 27530 net.cpp:129] Top shape: 16 256 14 14 (802816)
I0522 17:14:12.405262 27530 net.cpp:137] Memory required for data: 3301179456
I0522 17:14:12.405272 27530 layer_factory.hpp:77] Creating layer bn4e_branch2a
I0522 17:14:12.405298 27530 net.cpp:84] Creating Layer bn4e_branch2a
I0522 17:14:12.405303 27530 net.cpp:406] bn4e_branch2a <- res4e_branch2a
I0522 17:14:12.405310 27530 net.cpp:367] bn4e_branch2a -> res4e_branch2a (in-place)
I0522 17:14:12.405531 27530 net.cpp:122] Setting up bn4e_branch2a
I0522 17:14:12.405565 27530 net.cpp:129] Top shape: 16 256 14 14 (802816)
I0522 17:14:12.405580 27530 net.cpp:137] Memory required for data: 3304390720
I0522 17:14:12.405598 27530 layer_factory.hpp:77] Creating layer scale4e_branch2a
I0522 17:14:12.405616 27530 net.cpp:84] Creating Layer scale4e_branch2a
I0522 17:14:12.405622 27530 net.cpp:406] scale4e_branch2a <- res4e_branch2a
I0522 17:14:12.405627 27530 net.cpp:367] scale4e_branch2a -> res4e_branch2a (in-place)
I0522 17:14:12.405728 27530 layer_factory.hpp:77] Creating layer scale4e_branch2a
I0522 17:14:12.405916 27530 net.cpp:122] Setting up scale4e_branch2a
I0522 17:14:12.405923 27530 net.cpp:129] Top shape: 16 256 14 14 (802816)
I0522 17:14:12.405926 27530 net.cpp:137] Memory required for data: 3307601984
I0522 17:14:12.405931 27530 layer_factory.hpp:77] Creating layer res4e_branch2a_relu
I0522 17:14:12.405937 27530 net.cpp:84] Creating Layer res4e_branch2a_relu
I0522 17:14:12.405941 27530 net.cpp:406] res4e_branch2a_relu <- res4e_branch2a
I0522 17:14:12.405967 27530 net.cpp:367] res4e_branch2a_relu -> res4e_branch2a (in-place)
I0522 17:14:12.406275 27530 net.cpp:122] Setting up res4e_branch2a_relu
I0522 17:14:12.406282 27530 net.cpp:129] Top shape: 16 256 14 14 (802816)
I0522 17:14:12.406298 27530 net.cpp:137] Memory required for data: 3310813248
I0522 17:14:12.406301 27530 layer_factory.hpp:77] Creating layer res4e_branch2b
I0522 17:14:12.406325 27530 net.cpp:84] Creating Layer res4e_branch2b
I0522 17:14:12.406329 27530 net.cpp:406] res4e_branch2b <- res4e_branch2a
I0522 17:14:12.406335 27530 net.cpp:380] res4e_branch2b -> res4e_branch2b
I0522 17:14:12.411391 27530 net.cpp:122] Setting up res4e_branch2b
I0522 17:14:12.411425 27530 net.cpp:129] Top shape: 16 256 14 14 (802816)
I0522 17:14:12.411429 27530 net.cpp:137] Memory required for data: 3314024512
I0522 17:14:12.411438 27530 layer_factory.hpp:77] Creating layer bn4e_branch2b
I0522 17:14:12.411464 27530 net.cpp:84] Creating Layer bn4e_branch2b
I0522 17:14:12.411469 27530 net.cpp:406] bn4e_branch2b <- res4e_branch2b
I0522 17:14:12.411490 27530 net.cpp:367] bn4e_branch2b -> res4e_branch2b (in-place)
I0522 17:14:12.411772 27530 net.cpp:122] Setting up bn4e_branch2b
I0522 17:14:12.411779 27530 net.cpp:129] Top shape: 16 256 14 14 (802816)
I0522 17:14:12.411782 27530 net.cpp:137] Memory required for data: 3317235776
I0522 17:14:12.411788 27530 layer_factory.hpp:77] Creating layer scale4e_branch2b
I0522 17:14:12.411794 27530 net.cpp:84] Creating Layer scale4e_branch2b
I0522 17:14:12.411798 27530 net.cpp:406] scale4e_branch2b <- res4e_branch2b
I0522 17:14:12.411803 27530 net.cpp:367] scale4e_branch2b -> res4e_branch2b (in-place)
I0522 17:14:12.411888 27530 layer_factory.hpp:77] Creating layer scale4e_branch2b
I0522 17:14:12.412041 27530 net.cpp:122] Setting up scale4e_branch2b
I0522 17:14:12.412047 27530 net.cpp:129] Top shape: 16 256 14 14 (802816)
I0522 17:14:12.412050 27530 net.cpp:137] Memory required for data: 3320447040
I0522 17:14:12.412055 27530 layer_factory.hpp:77] Creating layer res4e_branch2b_relu
I0522 17:14:12.412060 27530 net.cpp:84] Creating Layer res4e_branch2b_relu
I0522 17:14:12.412063 27530 net.cpp:406] res4e_branch2b_relu <- res4e_branch2b
I0522 17:14:12.412067 27530 net.cpp:367] res4e_branch2b_relu -> res4e_branch2b (in-place)
I0522 17:14:12.412614 27530 net.cpp:122] Setting up res4e_branch2b_relu
I0522 17:14:12.412627 27530 net.cpp:129] Top shape: 16 256 14 14 (802816)
I0522 17:14:12.412639 27530 net.cpp:137] Memory required for data: 3323658304
I0522 17:14:12.412643 27530 layer_factory.hpp:77] Creating layer res4e_branch2c
I0522 17:14:12.412652 27530 net.cpp:84] Creating Layer res4e_branch2c
I0522 17:14:12.412657 27530 net.cpp:406] res4e_branch2c <- res4e_branch2b
I0522 17:14:12.412677 27530 net.cpp:380] res4e_branch2c -> res4e_branch2c
I0522 17:14:12.415338 27530 net.cpp:122] Setting up res4e_branch2c
I0522 17:14:12.415410 27530 net.cpp:129] Top shape: 16 1024 14 14 (3211264)
I0522 17:14:12.415416 27530 net.cpp:137] Memory required for data: 3336503360
I0522 17:14:12.415427 27530 layer_factory.hpp:77] Creating layer bn4e_branch2c
I0522 17:14:12.415436 27530 net.cpp:84] Creating Layer bn4e_branch2c
I0522 17:14:12.415441 27530 net.cpp:406] bn4e_branch2c <- res4e_branch2c
I0522 17:14:12.415449 27530 net.cpp:367] bn4e_branch2c -> res4e_branch2c (in-place)
I0522 17:14:12.415719 27530 net.cpp:122] Setting up bn4e_branch2c
I0522 17:14:12.415729 27530 net.cpp:129] Top shape: 16 1024 14 14 (3211264)
I0522 17:14:12.415731 27530 net.cpp:137] Memory required for data: 3349348416
I0522 17:14:12.415752 27530 layer_factory.hpp:77] Creating layer scale4e_branch2c
I0522 17:14:12.415758 27530 net.cpp:84] Creating Layer scale4e_branch2c
I0522 17:14:12.415776 27530 net.cpp:406] scale4e_branch2c <- res4e_branch2c
I0522 17:14:12.415779 27530 net.cpp:367] scale4e_branch2c -> res4e_branch2c (in-place)
I0522 17:14:12.415827 27530 layer_factory.hpp:77] Creating layer scale4e_branch2c
I0522 17:14:12.415961 27530 net.cpp:122] Setting up scale4e_branch2c
I0522 17:14:12.415967 27530 net.cpp:129] Top shape: 16 1024 14 14 (3211264)
I0522 17:14:12.415971 27530 net.cpp:137] Memory required for data: 3362193472
I0522 17:14:12.415990 27530 layer_factory.hpp:77] Creating layer res4e
I0522 17:14:12.416012 27530 net.cpp:84] Creating Layer res4e
I0522 17:14:12.416018 27530 net.cpp:406] res4e <- res4d_res4d_relu_0_split_1
I0522 17:14:12.416034 27530 net.cpp:406] res4e <- res4e_branch2c
I0522 17:14:12.416039 27530 net.cpp:380] res4e -> res4e
I0522 17:14:12.416106 27530 net.cpp:122] Setting up res4e
I0522 17:14:12.416112 27530 net.cpp:129] Top shape: 16 1024 14 14 (3211264)
I0522 17:14:12.416115 27530 net.cpp:137] Memory required for data: 3375038528
I0522 17:14:12.416118 27530 layer_factory.hpp:77] Creating layer res4e_relu
I0522 17:14:12.416123 27530 net.cpp:84] Creating Layer res4e_relu
I0522 17:14:12.416126 27530 net.cpp:406] res4e_relu <- res4e
I0522 17:14:12.416131 27530 net.cpp:367] res4e_relu -> res4e (in-place)
I0522 17:14:12.416342 27530 net.cpp:122] Setting up res4e_relu
I0522 17:14:12.416350 27530 net.cpp:129] Top shape: 16 1024 14 14 (3211264)
I0522 17:14:12.416353 27530 net.cpp:137] Memory required for data: 3387883584
I0522 17:14:12.416357 27530 layer_factory.hpp:77] Creating layer res4e_res4e_relu_0_split
I0522 17:14:12.416363 27530 net.cpp:84] Creating Layer res4e_res4e_relu_0_split
I0522 17:14:12.416365 27530 net.cpp:406] res4e_res4e_relu_0_split <- res4e
I0522 17:14:12.416369 27530 net.cpp:380] res4e_res4e_relu_0_split -> res4e_res4e_relu_0_split_0
I0522 17:14:12.416375 27530 net.cpp:380] res4e_res4e_relu_0_split -> res4e_res4e_relu_0_split_1
I0522 17:14:12.416441 27530 net.cpp:122] Setting up res4e_res4e_relu_0_split
I0522 17:14:12.416447 27530 net.cpp:129] Top shape: 16 1024 14 14 (3211264)
I0522 17:14:12.416451 27530 net.cpp:129] Top shape: 16 1024 14 14 (3211264)
I0522 17:14:12.416453 27530 net.cpp:137] Memory required for data: 3413573696
I0522 17:14:12.416456 27530 layer_factory.hpp:77] Creating layer res4f_branch2a
I0522 17:14:12.416466 27530 net.cpp:84] Creating Layer res4f_branch2a
I0522 17:14:12.416469 27530 net.cpp:406] res4f_branch2a <- res4e_res4e_relu_0_split_0
I0522 17:14:12.416476 27530 net.cpp:380] res4f_branch2a -> res4f_branch2a
I0522 17:14:12.419440 27530 net.cpp:122] Setting up res4f_branch2a
I0522 17:14:12.419453 27530 net.cpp:129] Top shape: 16 256 14 14 (802816)
I0522 17:14:12.419456 27530 net.cpp:137] Memory required for data: 3416784960
I0522 17:14:12.419474 27530 layer_factory.hpp:77] Creating layer bn4f_branch2a
I0522 17:14:12.419484 27530 net.cpp:84] Creating Layer bn4f_branch2a
I0522 17:14:12.419488 27530 net.cpp:406] bn4f_branch2a <- res4f_branch2a
I0522 17:14:12.419508 27530 net.cpp:367] bn4f_branch2a -> res4f_branch2a (in-place)
I0522 17:14:12.419775 27530 net.cpp:122] Setting up bn4f_branch2a
I0522 17:14:12.419783 27530 net.cpp:129] Top shape: 16 256 14 14 (802816)
I0522 17:14:12.419786 27530 net.cpp:137] Memory required for data: 3419996224
I0522 17:14:12.419807 27530 layer_factory.hpp:77] Creating layer scale4f_branch2a
I0522 17:14:12.419813 27530 net.cpp:84] Creating Layer scale4f_branch2a
I0522 17:14:12.419817 27530 net.cpp:406] scale4f_branch2a <- res4f_branch2a
I0522 17:14:12.419821 27530 net.cpp:367] scale4f_branch2a -> res4f_branch2a (in-place)
I0522 17:14:12.419878 27530 layer_factory.hpp:77] Creating layer scale4f_branch2a
I0522 17:14:12.420018 27530 net.cpp:122] Setting up scale4f_branch2a
I0522 17:14:12.420025 27530 net.cpp:129] Top shape: 16 256 14 14 (802816)
I0522 17:14:12.420028 27530 net.cpp:137] Memory required for data: 3423207488
I0522 17:14:12.420033 27530 layer_factory.hpp:77] Creating layer res4f_branch2a_relu
I0522 17:14:12.420038 27530 net.cpp:84] Creating Layer res4f_branch2a_relu
I0522 17:14:12.420042 27530 net.cpp:406] res4f_branch2a_relu <- res4f_branch2a
I0522 17:14:12.420047 27530 net.cpp:367] res4f_branch2a_relu -> res4f_branch2a (in-place)
I0522 17:14:12.420250 27530 net.cpp:122] Setting up res4f_branch2a_relu
I0522 17:14:12.420258 27530 net.cpp:129] Top shape: 16 256 14 14 (802816)
I0522 17:14:12.420276 27530 net.cpp:137] Memory required for data: 3426418752
I0522 17:14:12.420279 27530 layer_factory.hpp:77] Creating layer res4f_branch2b
I0522 17:14:12.420289 27530 net.cpp:84] Creating Layer res4f_branch2b
I0522 17:14:12.420295 27530 net.cpp:406] res4f_branch2b <- res4f_branch2a
I0522 17:14:12.420302 27530 net.cpp:380] res4f_branch2b -> res4f_branch2b
I0522 17:14:12.425578 27530 net.cpp:122] Setting up res4f_branch2b
I0522 17:14:12.425621 27530 net.cpp:129] Top shape: 16 256 14 14 (802816)
I0522 17:14:12.425624 27530 net.cpp:137] Memory required for data: 3429630016
I0522 17:14:12.425638 27530 layer_factory.hpp:77] Creating layer bn4f_branch2b
I0522 17:14:12.425649 27530 net.cpp:84] Creating Layer bn4f_branch2b
I0522 17:14:12.425654 27530 net.cpp:406] bn4f_branch2b <- res4f_branch2b
I0522 17:14:12.425662 27530 net.cpp:367] bn4f_branch2b -> res4f_branch2b (in-place)
I0522 17:14:12.425930 27530 net.cpp:122] Setting up bn4f_branch2b
I0522 17:14:12.425958 27530 net.cpp:129] Top shape: 16 256 14 14 (802816)
I0522 17:14:12.425972 27530 net.cpp:137] Memory required for data: 3432841280
I0522 17:14:12.425989 27530 layer_factory.hpp:77] Creating layer scale4f_branch2b
I0522 17:14:12.426005 27530 net.cpp:84] Creating Layer scale4f_branch2b
I0522 17:14:12.426018 27530 net.cpp:406] scale4f_branch2b <- res4f_branch2b
I0522 17:14:12.426031 27530 net.cpp:367] scale4f_branch2b -> res4f_branch2b (in-place)
I0522 17:14:12.426113 27530 layer_factory.hpp:77] Creating layer scale4f_branch2b
I0522 17:14:12.426234 27530 net.cpp:122] Setting up scale4f_branch2b
I0522 17:14:12.426242 27530 net.cpp:129] Top shape: 16 256 14 14 (802816)
I0522 17:14:12.426245 27530 net.cpp:137] Memory required for data: 3436052544
I0522 17:14:12.426250 27530 layer_factory.hpp:77] Creating layer res4f_branch2b_relu
I0522 17:14:12.426268 27530 net.cpp:84] Creating Layer res4f_branch2b_relu
I0522 17:14:12.426271 27530 net.cpp:406] res4f_branch2b_relu <- res4f_branch2b
I0522 17:14:12.426275 27530 net.cpp:367] res4f_branch2b_relu -> res4f_branch2b (in-place)
I0522 17:14:12.426506 27530 net.cpp:122] Setting up res4f_branch2b_relu
I0522 17:14:12.426515 27530 net.cpp:129] Top shape: 16 256 14 14 (802816)
I0522 17:14:12.426518 27530 net.cpp:137] Memory required for data: 3439263808
I0522 17:14:12.426522 27530 layer_factory.hpp:77] Creating layer res4f_branch2c
I0522 17:14:12.426553 27530 net.cpp:84] Creating Layer res4f_branch2c
I0522 17:14:12.426555 27530 net.cpp:406] res4f_branch2c <- res4f_branch2b
I0522 17:14:12.426571 27530 net.cpp:380] res4f_branch2c -> res4f_branch2c
I0522 17:14:12.429155 27530 net.cpp:122] Setting up res4f_branch2c
I0522 17:14:12.429189 27530 net.cpp:129] Top shape: 16 1024 14 14 (3211264)
I0522 17:14:12.429193 27530 net.cpp:137] Memory required for data: 3452108864
I0522 17:14:12.429201 27530 layer_factory.hpp:77] Creating layer bn4f_branch2c
I0522 17:14:12.429211 27530 net.cpp:84] Creating Layer bn4f_branch2c
I0522 17:14:12.429215 27530 net.cpp:406] bn4f_branch2c <- res4f_branch2c
I0522 17:14:12.429221 27530 net.cpp:367] bn4f_branch2c -> res4f_branch2c (in-place)
I0522 17:14:12.429513 27530 net.cpp:122] Setting up bn4f_branch2c
I0522 17:14:12.429522 27530 net.cpp:129] Top shape: 16 1024 14 14 (3211264)
I0522 17:14:12.429524 27530 net.cpp:137] Memory required for data: 3464953920
I0522 17:14:12.429579 27530 layer_factory.hpp:77] Creating layer scale4f_branch2c
I0522 17:14:12.429586 27530 net.cpp:84] Creating Layer scale4f_branch2c
I0522 17:14:12.429589 27530 net.cpp:406] scale4f_branch2c <- res4f_branch2c
I0522 17:14:12.429594 27530 net.cpp:367] scale4f_branch2c -> res4f_branch2c (in-place)
I0522 17:14:12.429638 27530 layer_factory.hpp:77] Creating layer scale4f_branch2c
I0522 17:14:12.429756 27530 net.cpp:122] Setting up scale4f_branch2c
I0522 17:14:12.429780 27530 net.cpp:129] Top shape: 16 1024 14 14 (3211264)
I0522 17:14:12.429791 27530 net.cpp:137] Memory required for data: 3477798976
I0522 17:14:12.429800 27530 layer_factory.hpp:77] Creating layer res4f
I0522 17:14:12.429805 27530 net.cpp:84] Creating Layer res4f
I0522 17:14:12.429808 27530 net.cpp:406] res4f <- res4e_res4e_relu_0_split_1
I0522 17:14:12.429812 27530 net.cpp:406] res4f <- res4f_branch2c
I0522 17:14:12.429836 27530 net.cpp:380] res4f -> res4f
I0522 17:14:12.429884 27530 net.cpp:122] Setting up res4f
I0522 17:14:12.429891 27530 net.cpp:129] Top shape: 16 1024 14 14 (3211264)
I0522 17:14:12.429894 27530 net.cpp:137] Memory required for data: 3490644032
I0522 17:14:12.429898 27530 layer_factory.hpp:77] Creating layer res4f_relu
I0522 17:14:12.429903 27530 net.cpp:84] Creating Layer res4f_relu
I0522 17:14:12.429906 27530 net.cpp:406] res4f_relu <- res4f
I0522 17:14:12.429910 27530 net.cpp:367] res4f_relu -> res4f (in-place)
I0522 17:14:12.430563 27530 net.cpp:122] Setting up res4f_relu
I0522 17:14:12.430578 27530 net.cpp:129] Top shape: 16 1024 14 14 (3211264)
I0522 17:14:12.430582 27530 net.cpp:137] Memory required for data: 3503489088
I0522 17:14:12.430584 27530 layer_factory.hpp:77] Creating layer res4f_res4f_relu_0_split
I0522 17:14:12.430590 27530 net.cpp:84] Creating Layer res4f_res4f_relu_0_split
I0522 17:14:12.430593 27530 net.cpp:406] res4f_res4f_relu_0_split <- res4f
I0522 17:14:12.430599 27530 net.cpp:380] res4f_res4f_relu_0_split -> res4f_res4f_relu_0_split_0
I0522 17:14:12.430606 27530 net.cpp:380] res4f_res4f_relu_0_split -> res4f_res4f_relu_0_split_1
I0522 17:14:12.430670 27530 net.cpp:122] Setting up res4f_res4f_relu_0_split
I0522 17:14:12.430676 27530 net.cpp:129] Top shape: 16 1024 14 14 (3211264)
I0522 17:14:12.430680 27530 net.cpp:129] Top shape: 16 1024 14 14 (3211264)
I0522 17:14:12.430683 27530 net.cpp:137] Memory required for data: 3529179200
I0522 17:14:12.430686 27530 layer_factory.hpp:77] Creating layer res5a_branch1
I0522 17:14:12.430696 27530 net.cpp:84] Creating Layer res5a_branch1
I0522 17:14:12.430701 27530 net.cpp:406] res5a_branch1 <- res4f_res4f_relu_0_split_0
I0522 17:14:12.430706 27530 net.cpp:380] res5a_branch1 -> res5a_branch1
I0522 17:14:12.442716 27530 net.cpp:122] Setting up res5a_branch1
I0522 17:14:12.442739 27530 net.cpp:129] Top shape: 16 2048 7 7 (1605632)
I0522 17:14:12.442744 27530 net.cpp:137] Memory required for data: 3535601728
I0522 17:14:12.442751 27530 layer_factory.hpp:77] Creating layer bn5a_branch1
I0522 17:14:12.442760 27530 net.cpp:84] Creating Layer bn5a_branch1
I0522 17:14:12.442764 27530 net.cpp:406] bn5a_branch1 <- res5a_branch1
I0522 17:14:12.442771 27530 net.cpp:367] bn5a_branch1 -> res5a_branch1 (in-place)
I0522 17:14:12.443055 27530 net.cpp:122] Setting up bn5a_branch1
I0522 17:14:12.443073 27530 net.cpp:129] Top shape: 16 2048 7 7 (1605632)
I0522 17:14:12.443076 27530 net.cpp:137] Memory required for data: 3542024256
I0522 17:14:12.443083 27530 layer_factory.hpp:77] Creating layer scale5a_branch1
I0522 17:14:12.443087 27530 net.cpp:84] Creating Layer scale5a_branch1
I0522 17:14:12.443091 27530 net.cpp:406] scale5a_branch1 <- res5a_branch1
I0522 17:14:12.443095 27530 net.cpp:367] scale5a_branch1 -> res5a_branch1 (in-place)
I0522 17:14:12.443137 27530 layer_factory.hpp:77] Creating layer scale5a_branch1
I0522 17:14:12.443294 27530 net.cpp:122] Setting up scale5a_branch1
I0522 17:14:12.443300 27530 net.cpp:129] Top shape: 16 2048 7 7 (1605632)
I0522 17:14:12.443303 27530 net.cpp:137] Memory required for data: 3548446784
I0522 17:14:12.443308 27530 layer_factory.hpp:77] Creating layer res5a_branch2a
I0522 17:14:12.443317 27530 net.cpp:84] Creating Layer res5a_branch2a
I0522 17:14:12.443321 27530 net.cpp:406] res5a_branch2a <- res4f_res4f_relu_0_split_1
I0522 17:14:12.443326 27530 net.cpp:380] res5a_branch2a -> res5a_branch2a
I0522 17:14:12.447157 27530 net.cpp:122] Setting up res5a_branch2a
I0522 17:14:12.447173 27530 net.cpp:129] Top shape: 16 512 7 7 (401408)
I0522 17:14:12.447177 27530 net.cpp:137] Memory required for data: 3550052416
I0522 17:14:12.447183 27530 layer_factory.hpp:77] Creating layer bn5a_branch2a
I0522 17:14:12.447190 27530 net.cpp:84] Creating Layer bn5a_branch2a
I0522 17:14:12.447193 27530 net.cpp:406] bn5a_branch2a <- res5a_branch2a
I0522 17:14:12.447199 27530 net.cpp:367] bn5a_branch2a -> res5a_branch2a (in-place)
I0522 17:14:12.447453 27530 net.cpp:122] Setting up bn5a_branch2a
I0522 17:14:12.447461 27530 net.cpp:129] Top shape: 16 512 7 7 (401408)
I0522 17:14:12.447464 27530 net.cpp:137] Memory required for data: 3551658048
I0522 17:14:12.447470 27530 layer_factory.hpp:77] Creating layer scale5a_branch2a
I0522 17:14:12.447475 27530 net.cpp:84] Creating Layer scale5a_branch2a
I0522 17:14:12.447479 27530 net.cpp:406] scale5a_branch2a <- res5a_branch2a
I0522 17:14:12.447481 27530 net.cpp:367] scale5a_branch2a -> res5a_branch2a (in-place)
I0522 17:14:12.447563 27530 layer_factory.hpp:77] Creating layer scale5a_branch2a
I0522 17:14:12.447731 27530 net.cpp:122] Setting up scale5a_branch2a
I0522 17:14:12.447737 27530 net.cpp:129] Top shape: 16 512 7 7 (401408)
I0522 17:14:12.447739 27530 net.cpp:137] Memory required for data: 3553263680
I0522 17:14:12.447746 27530 layer_factory.hpp:77] Creating layer res5a_branch2a_relu
I0522 17:14:12.447751 27530 net.cpp:84] Creating Layer res5a_branch2a_relu
I0522 17:14:12.447754 27530 net.cpp:406] res5a_branch2a_relu <- res5a_branch2a
I0522 17:14:12.447757 27530 net.cpp:367] res5a_branch2a_relu -> res5a_branch2a (in-place)
I0522 17:14:12.447962 27530 net.cpp:122] Setting up res5a_branch2a_relu
I0522 17:14:12.447970 27530 net.cpp:129] Top shape: 16 512 7 7 (401408)
I0522 17:14:12.447973 27530 net.cpp:137] Memory required for data: 3554869312
I0522 17:14:12.447975 27530 layer_factory.hpp:77] Creating layer res5a_branch2b
I0522 17:14:12.447985 27530 net.cpp:84] Creating Layer res5a_branch2b
I0522 17:14:12.447988 27530 net.cpp:406] res5a_branch2b <- res5a_branch2a
I0522 17:14:12.447993 27530 net.cpp:380] res5a_branch2b -> res5a_branch2b
I0522 17:14:12.461028 27530 net.cpp:122] Setting up res5a_branch2b
I0522 17:14:12.461067 27530 net.cpp:129] Top shape: 16 512 7 7 (401408)
I0522 17:14:12.461071 27530 net.cpp:137] Memory required for data: 3556474944
I0522 17:14:12.461079 27530 layer_factory.hpp:77] Creating layer bn5a_branch2b
I0522 17:14:12.461104 27530 net.cpp:84] Creating Layer bn5a_branch2b
I0522 17:14:12.461109 27530 net.cpp:406] bn5a_branch2b <- res5a_branch2b
I0522 17:14:12.461114 27530 net.cpp:367] bn5a_branch2b -> res5a_branch2b (in-place)
I0522 17:14:12.461362 27530 net.cpp:122] Setting up bn5a_branch2b
I0522 17:14:12.461369 27530 net.cpp:129] Top shape: 16 512 7 7 (401408)
I0522 17:14:12.461387 27530 net.cpp:137] Memory required for data: 3558080576
I0522 17:14:12.461395 27530 layer_factory.hpp:77] Creating layer scale5a_branch2b
I0522 17:14:12.461423 27530 net.cpp:84] Creating Layer scale5a_branch2b
I0522 17:14:12.461429 27530 net.cpp:406] scale5a_branch2b <- res5a_branch2b
I0522 17:14:12.461434 27530 net.cpp:367] scale5a_branch2b -> res5a_branch2b (in-place)
I0522 17:14:12.461488 27530 layer_factory.hpp:77] Creating layer scale5a_branch2b
I0522 17:14:12.461633 27530 net.cpp:122] Setting up scale5a_branch2b
I0522 17:14:12.461639 27530 net.cpp:129] Top shape: 16 512 7 7 (401408)
I0522 17:14:12.461658 27530 net.cpp:137] Memory required for data: 3559686208
I0522 17:14:12.461663 27530 layer_factory.hpp:77] Creating layer res5a_branch2b_relu
I0522 17:14:12.461668 27530 net.cpp:84] Creating Layer res5a_branch2b_relu
I0522 17:14:12.461670 27530 net.cpp:406] res5a_branch2b_relu <- res5a_branch2b
I0522 17:14:12.461675 27530 net.cpp:367] res5a_branch2b_relu -> res5a_branch2b (in-place)
I0522 17:14:12.461894 27530 net.cpp:122] Setting up res5a_branch2b_relu
I0522 17:14:12.461902 27530 net.cpp:129] Top shape: 16 512 7 7 (401408)
I0522 17:14:12.461905 27530 net.cpp:137] Memory required for data: 3561291840
I0522 17:14:12.461908 27530 layer_factory.hpp:77] Creating layer res5a_branch2c
I0522 17:14:12.461917 27530 net.cpp:84] Creating Layer res5a_branch2c
I0522 17:14:12.461920 27530 net.cpp:406] res5a_branch2c <- res5a_branch2b
I0522 17:14:12.461926 27530 net.cpp:380] res5a_branch2c -> res5a_branch2c
I0522 17:14:12.469091 27530 net.cpp:122] Setting up res5a_branch2c
I0522 17:14:12.469115 27530 net.cpp:129] Top shape: 16 2048 7 7 (1605632)
I0522 17:14:12.469120 27530 net.cpp:137] Memory required for data: 3567714368
I0522 17:14:12.469127 27530 layer_factory.hpp:77] Creating layer bn5a_branch2c
I0522 17:14:12.469137 27530 net.cpp:84] Creating Layer bn5a_branch2c
I0522 17:14:12.469142 27530 net.cpp:406] bn5a_branch2c <- res5a_branch2c
I0522 17:14:12.469147 27530 net.cpp:367] bn5a_branch2c -> res5a_branch2c (in-place)
I0522 17:14:12.469414 27530 net.cpp:122] Setting up bn5a_branch2c
I0522 17:14:12.469421 27530 net.cpp:129] Top shape: 16 2048 7 7 (1605632)
I0522 17:14:12.469439 27530 net.cpp:137] Memory required for data: 3574136896
I0522 17:14:12.469445 27530 layer_factory.hpp:77] Creating layer scale5a_branch2c
I0522 17:14:12.469467 27530 net.cpp:84] Creating Layer scale5a_branch2c
I0522 17:14:12.469471 27530 net.cpp:406] scale5a_branch2c <- res5a_branch2c
I0522 17:14:12.469487 27530 net.cpp:367] scale5a_branch2c -> res5a_branch2c (in-place)
I0522 17:14:12.469558 27530 layer_factory.hpp:77] Creating layer scale5a_branch2c
I0522 17:14:12.469748 27530 net.cpp:122] Setting up scale5a_branch2c
I0522 17:14:12.469758 27530 net.cpp:129] Top shape: 16 2048 7 7 (1605632)
I0522 17:14:12.469774 27530 net.cpp:137] Memory required for data: 3580559424
I0522 17:14:12.469779 27530 layer_factory.hpp:77] Creating layer res5a
I0522 17:14:12.469784 27530 net.cpp:84] Creating Layer res5a
I0522 17:14:12.469801 27530 net.cpp:406] res5a <- res5a_branch1
I0522 17:14:12.469805 27530 net.cpp:406] res5a <- res5a_branch2c
I0522 17:14:12.469810 27530 net.cpp:380] res5a -> res5a
I0522 17:14:12.469836 27530 net.cpp:122] Setting up res5a
I0522 17:14:12.469843 27530 net.cpp:129] Top shape: 16 2048 7 7 (1605632)
I0522 17:14:12.469846 27530 net.cpp:137] Memory required for data: 3586981952
I0522 17:14:12.469848 27530 layer_factory.hpp:77] Creating layer res5a_relu
I0522 17:14:12.469856 27530 net.cpp:84] Creating Layer res5a_relu
I0522 17:14:12.469859 27530 net.cpp:406] res5a_relu <- res5a
…
I0522 17:14:12.749836 27530 net.cpp:380] res4c_res4c_relu_0_split -> res4c_res4c_relu_0_split_0
I0522 17:14:12.749842 27530 net.cpp:380] res4c_res4c_relu_0_split -> res4c_res4c_relu_0_split_1
I0522 17:14:12.749889 27530 net.cpp:122] Setting up res4c_res4c_relu_0_split
I0522 17:14:12.749896 27530 net.cpp:129] Top shape: 4 1024 14 14 (802816)
I0522 17:14:12.749899 27530 net.cpp:129] Top shape: 4 1024 14 14 (802816)
I0522 17:14:12.749902 27530 net.cpp:137] Memory required for data: 795590672
I0522 17:14:12.749905 27530 layer_factory.hpp:77] Creating layer res4d_branch2a
I0522 17:14:12.749913 27530 net.cpp:84] Creating Layer res4d_branch2a
I0522 17:14:12.749917 27530 net.cpp:406] res4d_branch2a <- res4c_res4c_relu_0_split_0
I0522 17:14:12.749922 27530 net.cpp:380] res4d_branch2a -> res4d_branch2a
I0522 17:14:12.752740 27530 net.cpp:122] Setting up res4d_branch2a
I0522 17:14:12.752768 27530 net.cpp:129] Top shape: 4 256 14 14 (200704)
I0522 17:14:12.752770 27530 net.cpp:137] Memory required for data: 796393488
I0522 17:14:12.752777 27530 layer_factory.hpp:77] Creating layer bn4d_branch2a
I0522 17:14:12.752784 27530 net.cpp:84] Creating Layer bn4d_branch2a
I0522 17:14:12.752801 27530 net.cpp:406] bn4d_branch2a <- res4d_branch2a
I0522 17:14:12.752806 27530 net.cpp:367] bn4d_branch2a -> res4d_branch2a (in-place)
I0522 17:14:12.753094 27530 net.cpp:122] Setting up bn4d_branch2a
I0522 17:14:12.753110 27530 net.cpp:129] Top shape: 4 256 14 14 (200704)
I0522 17:14:12.753113 27530 net.cpp:137] Memory required for data: 797196304
I0522 17:14:12.753119 27530 layer_factory.hpp:77] Creating layer scale4d_branch2a
I0522 17:14:12.753124 27530 net.cpp:84] Creating Layer scale4d_branch2a
I0522 17:14:12.753127 27530 net.cpp:406] scale4d_branch2a <- res4d_branch2a
I0522 17:14:12.753152 27530 net.cpp:367] scale4d_branch2a -> res4d_branch2a (in-place)
I0522 17:14:12.753198 27530 layer_factory.hpp:77] Creating layer scale4d_branch2a
I0522 17:14:12.753327 27530 net.cpp:122] Setting up scale4d_branch2a
I0522 17:14:12.753334 27530 net.cpp:129] Top shape: 4 256 14 14 (200704)
I0522 17:14:12.753335 27530 net.cpp:137] Memory required for data: 797999120
I0522 17:14:12.753341 27530 layer_factory.hpp:77] Creating layer res4d_branch2a_relu
I0522 17:14:12.753346 27530 net.cpp:84] Creating Layer res4d_branch2a_relu
I0522 17:14:12.753350 27530 net.cpp:406] res4d_branch2a_relu <- res4d_branch2a
I0522 17:14:12.753353 27530 net.cpp:367] res4d_branch2a_relu -> res4d_branch2a (in-place)
I0522 17:14:12.753856 27530 net.cpp:122] Setting up res4d_branch2a_relu
I0522 17:14:12.753867 27530 net.cpp:129] Top shape: 4 256 14 14 (200704)
I0522 17:14:12.753870 27530 net.cpp:137] Memory required for data: 798801936
I0522 17:14:12.753873 27530 layer_factory.hpp:77] Creating layer res4d_branch2b
I0522 17:14:12.753881 27530 net.cpp:84] Creating Layer res4d_branch2b
I0522 17:14:12.753885 27530 net.cpp:406] res4d_branch2b <- res4d_branch2a
I0522 17:14:12.753890 27530 net.cpp:380] res4d_branch2b -> res4d_branch2b
I0522 17:14:12.758510 27530 net.cpp:122] Setting up res4d_branch2b
I0522 17:14:12.758527 27530 net.cpp:129] Top shape: 4 256 14 14 (200704)
I0522 17:14:12.758532 27530 net.cpp:137] Memory required for data: 799604752
I0522 17:14:12.758538 27530 layer_factory.hpp:77] Creating layer bn4d_branch2b
I0522 17:14:12.758544 27530 net.cpp:84] Creating Layer bn4d_branch2b
I0522 17:14:12.758548 27530 net.cpp:406] bn4d_branch2b <- res4d_branch2b
I0522 17:14:12.758553 27530 net.cpp:367] bn4d_branch2b -> res4d_branch2b (in-place)
I0522 17:14:12.758797 27530 net.cpp:122] Setting up bn4d_branch2b
I0522 17:14:12.758805 27530 net.cpp:129] Top shape: 4 256 14 14 (200704)
I0522 17:14:12.758807 27530 net.cpp:137] Memory required for data: 800407568
I0522 17:14:12.758814 27530 layer_factory.hpp:77] Creating layer scale4d_branch2b
I0522 17:14:12.758819 27530 net.cpp:84] Creating Layer scale4d_branch2b
I0522 17:14:12.758822 27530 net.cpp:406] scale4d_branch2b <- res4d_branch2b
I0522 17:14:12.758826 27530 net.cpp:367] scale4d_branch2b -> res4d_branch2b (in-place)
I0522 17:14:12.758872 27530 layer_factory.hpp:77] Creating layer scale4d_branch2b
I0522 17:14:12.759044 27530 net.cpp:122] Setting up scale4d_branch2b
I0522 17:14:12.759052 27530 net.cpp:129] Top shape: 4 256 14 14 (200704)
I0522 17:14:12.759054 27530 net.cpp:137] Memory required for data: 801210384
I0522 17:14:12.759059 27530 layer_factory.hpp:77] Creating layer res4d_branch2b_relu
I0522 17:14:12.759064 27530 net.cpp:84] Creating Layer res4d_branch2b_relu
I0522 17:14:12.759068 27530 net.cpp:406] res4d_branch2b_relu <- res4d_branch2b
I0522 17:14:12.759073 27530 net.cpp:367] res4d_branch2b_relu -> res4d_branch2b (in-place)
I0522 17:14:12.759246 27530 net.cpp:122] Setting up res4d_branch2b_relu
I0522 17:14:12.759254 27530 net.cpp:129] Top shape: 4 256 14 14 (200704)
I0522 17:14:12.759258 27530 net.cpp:137] Memory required for data: 802013200
I0522 17:14:12.759260 27530 layer_factory.hpp:77] Creating layer res4d_branch2c
I0522 17:14:12.759268 27530 net.cpp:84] Creating Layer res4d_branch2c
I0522 17:14:12.759272 27530 net.cpp:406] res4d_branch2c <- res4d_branch2b
I0522 17:14:12.759277 27530 net.cpp:380] res4d_branch2c -> res4d_branch2c
I0522 17:14:12.762229 27530 net.cpp:122] Setting up res4d_branch2c
I0522 17:14:12.762243 27530 net.cpp:129] Top shape: 4 1024 14 14 (802816)
I0522 17:14:12.762246 27530 net.cpp:137] Memory required for data: 805224464
I0522 17:14:12.762253 27530 layer_factory.hpp:77] Creating layer bn4d_branch2c
I0522 17:14:12.762274 27530 net.cpp:84] Creating Layer bn4d_branch2c
I0522 17:14:12.762279 27530 net.cpp:406] bn4d_branch2c <- res4d_branch2c
I0522 17:14:12.762284 27530 net.cpp:367] bn4d_branch2c -> res4d_branch2c (in-place)
I0522 17:14:12.762542 27530 net.cpp:122] Setting up bn4d_branch2c
I0522 17:14:12.762552 27530 net.cpp:129] Top shape: 4 1024 14 14 (802816)
I0522 17:14:12.762555 27530 net.cpp:137] Memory required for data: 808435728
I0522 17:14:12.762562 27530 layer_factory.hpp:77] Creating layer scale4d_branch2c
I0522 17:14:12.762567 27530 net.cpp:84] Creating Layer scale4d_branch2c
I0522 17:14:12.762572 27530 net.cpp:406] scale4d_branch2c <- res4d_branch2c
I0522 17:14:12.762576 27530 net.cpp:367] scale4d_branch2c -> res4d_branch2c (in-place)
I0522 17:14:12.762650 27530 layer_factory.hpp:77] Creating layer scale4d_branch2c
I0522 17:14:12.762820 27530 net.cpp:122] Setting up scale4d_branch2c
I0522 17:14:12.762827 27530 net.cpp:129] Top shape: 4 1024 14 14 (802816)
I0522 17:14:12.762830 27530 net.cpp:137] Memory required for data: 811646992
I0522 17:14:12.762835 27530 layer_factory.hpp:77] Creating layer res4d
I0522 17:14:12.762842 27530 net.cpp:84] Creating Layer res4d
I0522 17:14:12.762846 27530 net.cpp:406] res4d <- res4c_res4c_relu_0_split_1
I0522 17:14:12.762850 27530 net.cpp:406] res4d <- res4d_branch2c
I0522 17:14:12.762856 27530 net.cpp:380] res4d -> res4d
I0522 17:14:12.762897 27530 net.cpp:122] Setting up res4d
I0522 17:14:12.762903 27530 net.cpp:129] Top shape: 4 1024 14 14 (802816)
I0522 17:14:12.762907 27530 net.cpp:137] Memory required for data: 814858256
I0522 17:14:12.762910 27530 layer_factory.hpp:77] Creating layer res4d_relu
I0522 17:14:12.762914 27530 net.cpp:84] Creating Layer res4d_relu
I0522 17:14:12.762922 27530 net.cpp:406] res4d_relu <- res4d
I0522 17:14:12.762930 27530 net.cpp:367] res4d_relu -> res4d (in-place)
I0522 17:14:12.763144 27530 net.cpp:122] Setting up res4d_relu
I0522 17:14:12.763152 27530 net.cpp:129] Top shape: 4 1024 14 14 (802816)
I0522 17:14:12.763156 27530 net.cpp:137] Memory required for data: 818069520
I0522 17:14:12.763159 27530 layer_factory.hpp:77] Creating layer res4d_res4d_relu_0_split
I0522 17:14:12.763176 27530 net.cpp:84] Creating Layer res4d_res4d_relu_0_split
I0522 17:14:12.763180 27530 net.cpp:406] res4d_res4d_relu_0_split <- res4d
I0522 17:14:12.763198 27530 net.cpp:380] res4d_res4d_relu_0_split -> res4d_res4d_relu_0_split_0
I0522 17:14:12.763206 27530 net.cpp:380] res4d_res4d_relu_0_split -> res4d_res4d_relu_0_split_1
I0522 17:14:12.763267 27530 net.cpp:122] Setting up res4d_res4d_relu_0_split
I0522 17:14:12.763273 27530 net.cpp:129] Top shape: 4 1024 14 14 (802816)
I0522 17:14:12.763278 27530 net.cpp:129] Top shape: 4 1024 14 14 (802816)
I0522 17:14:12.763279 27530 net.cpp:137] Memory required for data: 824492048
I0522 17:14:12.763283 27530 layer_factory.hpp:77] Creating layer res4e_branch2a
I0522 17:14:12.763289 27530 net.cpp:84] Creating Layer res4e_branch2a
I0522 17:14:12.763293 27530 net.cpp:406] res4e_branch2a <- res4d_res4d_relu_0_split_0
I0522 17:14:12.763298 27530 net.cpp:380] res4e_branch2a -> res4e_branch2a
I0522 17:14:12.765858 27530 net.cpp:122] Setting up res4e_branch2a
I0522 17:14:12.765875 27530 net.cpp:129] Top shape: 4 256 14 14 (200704)
I0522 17:14:12.765878 27530 net.cpp:137] Memory required for data: 825294864
I0522 17:14:12.765898 27530 layer_factory.hpp:77] Creating layer bn4e_branch2a
I0522 17:14:12.765919 27530 net.cpp:84] Creating Layer bn4e_branch2a
I0522 17:14:12.765924 27530 net.cpp:406] bn4e_branch2a <- res4e_branch2a
I0522 17:14:12.765930 27530 net.cpp:367] bn4e_branch2a -> res4e_branch2a (in-place)
I0522 17:14:12.766197 27530 net.cpp:122] Setting up bn4e_branch2a
I0522 17:14:12.766203 27530 net.cpp:129] Top shape: 4 256 14 14 (200704)
I0522 17:14:12.766206 27530 net.cpp:137] Memory required for data: 826097680
I0522 17:14:12.766213 27530 layer_factory.hpp:77] Creating layer scale4e_branch2a
I0522 17:14:12.766218 27530 net.cpp:84] Creating Layer scale4e_branch2a
I0522 17:14:12.766222 27530 net.cpp:406] scale4e_branch2a <- res4e_branch2a
I0522 17:14:12.766235 27530 net.cpp:367] scale4e_branch2a -> res4e_branch2a (in-place)
I0522 17:14:12.766320 27530 layer_factory.hpp:77] Creating layer scale4e_branch2a
I0522 17:14:12.766516 27530 net.cpp:122] Setting up scale4e_branch2a
I0522 17:14:12.766522 27530 net.cpp:129] Top shape: 4 256 14 14 (200704)
I0522 17:14:12.766539 27530 net.cpp:137] Memory required for data: 826900496
I0522 17:14:12.766546 27530 layer_factory.hpp:77] Creating layer res4e_branch2a_relu
I0522 17:14:12.766562 27530 net.cpp:84] Creating Layer res4e_branch2a_relu
I0522 17:14:12.766566 27530 net.cpp:406] res4e_branch2a_relu <- res4e_branch2a
I0522 17:14:12.766571 27530 net.cpp:367] res4e_branch2a_relu -> res4e_branch2a (in-place)
I0522 17:14:12.767269 27530 net.cpp:122] Setting up res4e_branch2a_relu
I0522 17:14:12.767295 27530 net.cpp:129] Top shape: 4 256 14 14 (200704)
I0522 17:14:12.767298 27530 net.cpp:137] Memory required for data: 827703312
I0522 17:14:12.767302 27530 layer_factory.hpp:77] Creating layer res4e_branch2b
I0522 17:14:12.767324 27530 net.cpp:84] Creating Layer res4e_branch2b
I0522 17:14:12.767328 27530 net.cpp:406] res4e_branch2b <- res4e_branch2a
I0522 17:14:12.767335 27530 net.cpp:380] res4e_branch2b -> res4e_branch2b
I0522 17:14:12.772075 27530 net.cpp:122] Setting up res4e_branch2b
I0522 17:14:12.772109 27530 net.cpp:129] Top shape: 4 256 14 14 (200704)
I0522 17:14:12.772114 27530 net.cpp:137] Memory required for data: 828506128
I0522 17:14:12.772121 27530 layer_factory.hpp:77] Creating layer bn4e_branch2b
I0522 17:14:12.772130 27530 net.cpp:84] Creating Layer bn4e_branch2b
I0522 17:14:12.772133 27530 net.cpp:406] bn4e_branch2b <- res4e_branch2b
I0522 17:14:12.772138 27530 net.cpp:367] bn4e_branch2b -> res4e_branch2b (in-place)
I0522 17:14:12.772444 27530 net.cpp:122] Setting up bn4e_branch2b
I0522 17:14:12.772450 27530 net.cpp:129] Top shape: 4 256 14 14 (200704)
I0522 17:14:12.772454 27530 net.cpp:137] Memory required for data: 829308944
I0522 17:14:12.772459 27530 layer_factory.hpp:77] Creating layer scale4e_branch2b
I0522 17:14:12.772464 27530 net.cpp:84] Creating Layer scale4e_branch2b
I0522 17:14:12.772467 27530 net.cpp:406] scale4e_branch2b <- res4e_branch2b
I0522 17:14:12.772471 27530 net.cpp:367] scale4e_branch2b -> res4e_branch2b (in-place)
I0522 17:14:12.772572 27530 layer_factory.hpp:77] Creating layer scale4e_branch2b
I0522 17:14:12.772783 27530 net.cpp:122] Setting up scale4e_branch2b
I0522 17:14:12.772789 27530 net.cpp:129] Top shape: 4 256 14 14 (200704)
I0522 17:14:12.772791 27530 net.cpp:137] Memory required for data: 830111760
I0522 17:14:12.772796 27530 layer_factory.hpp:77] Creating layer res4e_branch2b_relu
I0522 17:14:12.772801 27530 net.cpp:84] Creating Layer res4e_branch2b_relu
I0522 17:14:12.772804 27530 net.cpp:406] res4e_branch2b_relu <- res4e_branch2b
I0522 17:14:12.772809 27530 net.cpp:367] res4e_branch2b_relu -> res4e_branch2b (in-place)
I0522 17:14:12.773038 27530 net.cpp:122] Setting up res4e_branch2b_relu
I0522 17:14:12.773046 27530 net.cpp:129] Top shape: 4 256 14 14 (200704)
I0522 17:14:12.773048 27530 net.cpp:137] Memory required for data: 830914576
I0522 17:14:12.773052 27530 layer_factory.hpp:77] Creating layer res4e_branch2c
I0522 17:14:12.773059 27530 net.cpp:84] Creating Layer res4e_branch2c
I0522 17:14:12.773063 27530 net.cpp:406] res4e_branch2c <- res4e_branch2b
I0522 17:14:12.773067 27530 net.cpp:380] res4e_branch2c -> res4e_branch2c
I0522 17:14:12.776039 27530 net.cpp:122] Setting up res4e_branch2c
I0522 17:14:12.776053 27530 net.cpp:129] Top shape: 4 1024 14 14 (802816)
I0522 17:14:12.776057 27530 net.cpp:137] Memory required for data: 834125840
I0522 17:14:12.776062 27530 layer_factory.hpp:77] Creating layer bn4e_branch2c
I0522 17:14:12.776069 27530 net.cpp:84] Creating Layer bn4e_branch2c
I0522 17:14:12.776073 27530 net.cpp:406] bn4e_branch2c <- res4e_branch2c
I0522 17:14:12.776077 27530 net.cpp:367] bn4e_branch2c -> res4e_branch2c (in-place)
I0522 17:14:12.776326 27530 net.cpp:122] Setting up bn4e_branch2c
I0522 17:14:12.776343 27530 net.cpp:129] Top shape: 4 1024 14 14 (802816)
I0522 17:14:12.776346 27530 net.cpp:137] Memory required for data: 837337104
I0522 17:14:12.776352 27530 layer_factory.hpp:77] Creating layer scale4e_branch2c
I0522 17:14:12.776357 27530 net.cpp:84] Creating Layer scale4e_branch2c
I0522 17:14:12.776361 27530 net.cpp:406] scale4e_branch2c <- res4e_branch2c
I0522 17:14:12.776365 27530 net.cpp:367] scale4e_branch2c -> res4e_branch2c (in-place)
I0522 17:14:12.776409 27530 layer_factory.hpp:77] Creating layer scale4e_branch2c
I0522 17:14:12.776576 27530 net.cpp:122] Setting up scale4e_branch2c
I0522 17:14:12.776582 27530 net.cpp:129] Top shape: 4 1024 14 14 (802816)
I0522 17:14:12.776584 27530 net.cpp:137] Memory required for data: 840548368
I0522 17:14:12.776589 27530 layer_factory.hpp:77] Creating layer res4e
I0522 17:14:12.776594 27530 net.cpp:84] Creating Layer res4e
I0522 17:14:12.776598 27530 net.cpp:406] res4e <- res4d_res4d_relu_0_split_1
I0522 17:14:12.776602 27530 net.cpp:406] res4e <- res4e_branch2c
I0522 17:14:12.776607 27530 net.cpp:380] res4e -> res4e
I0522 17:14:12.776633 27530 net.cpp:122] Setting up res4e
I0522 17:14:12.776639 27530 net.cpp:129] Top shape: 4 1024 14 14 (802816)
I0522 17:14:12.776641 27530 net.cpp:137] Memory required for data: 843759632
I0522 17:14:12.776644 27530 layer_factory.hpp:77] Creating layer res4e_relu
I0522 17:14:12.776649 27530 net.cpp:84] Creating Layer res4e_relu
I0522 17:14:12.776652 27530 net.cpp:406] res4e_relu <- res4e
I0522 17:14:12.776656 27530 net.cpp:367] res4e_relu -> res4e (in-place)
I0522 17:14:12.776859 27530 net.cpp:122] Setting up res4e_relu
I0522 17:14:12.776866 27530 net.cpp:129] Top shape: 4 1024 14 14 (802816)
I0522 17:14:12.776870 27530 net.cpp:137] Memory required for data: 846970896
I0522 17:14:12.776872 27530 layer_factory.hpp:77] Creating layer res4e_res4e_relu_0_split
I0522 17:14:12.776877 27530 net.cpp:84] Creating Layer res4e_res4e_relu_0_split
I0522 17:14:12.776880 27530 net.cpp:406] res4e_res4e_relu_0_split <- res4e
I0522 17:14:12.776885 27530 net.cpp:380] res4e_res4e_relu_0_split -> res4e_res4e_relu_0_split_0
I0522 17:14:12.776890 27530 net.cpp:380] res4e_res4e_relu_0_split -> res4e_res4e_relu_0_split_1
I0522 17:14:12.776937 27530 net.cpp:122] Setting up res4e_res4e_relu_0_split
I0522 17:14:12.776942 27530 net.cpp:129] Top shape: 4 1024 14 14 (802816)
I0522 17:14:12.776947 27530 net.cpp:129] Top shape: 4 1024 14 14 (802816)
I0522 17:14:12.776949 27530 net.cpp:137] Memory required for data: 853393424
I0522 17:14:12.776952 27530 layer_factory.hpp:77] Creating layer res4f_branch2a
I0522 17:14:12.776959 27530 net.cpp:84] Creating Layer res4f_branch2a
I0522 17:14:12.776963 27530 net.cpp:406] res4f_branch2a <- res4e_res4e_relu_0_split_0
I0522 17:14:12.776968 27530 net.cpp:380] res4f_branch2a -> res4f_branch2a
I0522 17:14:12.779172 27530 net.cpp:122] Setting up res4f_branch2a
I0522 17:14:12.779184 27530 net.cpp:129] Top shape: 4 256 14 14 (200704)
I0522 17:14:12.779188 27530 net.cpp:137] Memory required for data: 854196240
I0522 17:14:12.779193 27530 layer_factory.hpp:77] Creating layer bn4f_branch2a
I0522 17:14:12.779199 27530 net.cpp:84] Creating Layer bn4f_branch2a
I0522 17:14:12.779202 27530 net.cpp:406] bn4f_branch2a <- res4f_branch2a
I0522 17:14:12.779207 27530 net.cpp:367] bn4f_branch2a -> res4f_branch2a (in-place)
I0522 17:14:12.779477 27530 net.cpp:122] Setting up bn4f_branch2a
I0522 17:14:12.779484 27530 net.cpp:129] Top shape: 4 256 14 14 (200704)
I0522 17:14:12.779487 27530 net.cpp:137] Memory required for data: 854999056
I0522 17:14:12.779495 27530 layer_factory.hpp:77] Creating layer scale4f_branch2a
I0522 17:14:12.779500 27530 net.cpp:84] Creating Layer scale4f_branch2a
I0522 17:14:12.779503 27530 net.cpp:406] scale4f_branch2a <- res4f_branch2a
I0522 17:14:12.779507 27530 net.cpp:367] scale4f_branch2a -> res4f_branch2a (in-place)
I0522 17:14:12.779552 27530 layer_factory.hpp:77] Creating layer scale4f_branch2a
I0522 17:14:12.779686 27530 net.cpp:122] Setting up scale4f_branch2a
I0522 17:14:12.779693 27530 net.cpp:129] Top shape: 4 256 14 14 (200704)
I0522 17:14:12.779706 27530 net.cpp:137] Memory required for data: 855801872
I0522 17:14:12.779712 27530 layer_factory.hpp:77] Creating layer res4f_branch2a_relu
I0522 17:14:12.779717 27530 net.cpp:84] Creating Layer res4f_branch2a_relu
I0522 17:14:12.779721 27530 net.cpp:406] res4f_branch2a_relu <- res4f_branch2a
I0522 17:14:12.779726 27530 net.cpp:367] res4f_branch2a_relu -> res4f_branch2a (in-place)
I0522 17:14:12.779922 27530 net.cpp:122] Setting up res4f_branch2a_relu
I0522 17:14:12.779929 27530 net.cpp:129] Top shape: 4 256 14 14 (200704)
I0522 17:14:12.779932 27530 net.cpp:137] Memory required for data: 856604688
I0522 17:14:12.779935 27530 layer_factory.hpp:77] Creating layer res4f_branch2b
I0522 17:14:12.779944 27530 net.cpp:84] Creating Layer res4f_branch2b
I0522 17:14:12.779948 27530 net.cpp:406] res4f_branch2b <- res4f_branch2a
I0522 17:14:12.779953 27530 net.cpp:380] res4f_branch2b -> res4f_branch2b
I0522 17:14:12.784595 27530 net.cpp:122] Setting up res4f_branch2b
I0522 17:14:12.784611 27530 net.cpp:129] Top shape: 4 256 14 14 (200704)
I0522 17:14:12.784615 27530 net.cpp:137] Memory required for data: 857407504
I0522 17:14:12.784636 27530 layer_factory.hpp:77] Creating layer bn4f_branch2b
I0522 17:14:12.784659 27530 net.cpp:84] Creating Layer bn4f_branch2b
I0522 17:14:12.784663 27530 net.cpp:406] bn4f_branch2b <- res4f_branch2b
I0522 17:14:12.784669 27530 net.cpp:367] bn4f_branch2b -> res4f_branch2b (in-place)
I0522 17:14:12.785003 27530 net.cpp:122] Setting up bn4f_branch2b
I0522 17:14:12.785009 27530 net.cpp:129] Top shape: 4 256 14 14 (200704)
I0522 17:14:12.785028 27530 net.cpp:137] Memory required for data: 858210320
I0522 17:14:12.785034 27530 layer_factory.hpp:77] Creating layer scale4f_branch2b
I0522 17:14:12.785054 27530 net.cpp:84] Creating Layer scale4f_branch2b
I0522 17:14:12.785058 27530 net.cpp:406] scale4f_branch2b <- res4f_branch2b
I0522 17:14:12.785063 27530 net.cpp:367] scale4f_branch2b -> res4f_branch2b (in-place)
I0522 17:14:12.785151 27530 layer_factory.hpp:77] Creating layer scale4f_branch2b
I0522 17:14:12.785377 27530 net.cpp:122] Setting up scale4f_branch2b
I0522 17:14:12.785384 27530 net.cpp:129] Top shape: 4 256 14 14 (200704)
I0522 17:14:12.785387 27530 net.cpp:137] Memory required for data: 859013136
I0522 17:14:12.785392 27530 layer_factory.hpp:77] Creating layer res4f_branch2b_relu
I0522 17:14:12.785396 27530 net.cpp:84] Creating Layer res4f_branch2b_relu
I0522 17:14:12.785399 27530 net.cpp:406] res4f_branch2b_relu <- res4f_branch2b
I0522 17:14:12.785403 27530 net.cpp:367] res4f_branch2b_relu -> res4f_branch2b (in-place)
I0522 17:14:12.785897 27530 net.cpp:122] Setting up res4f_branch2b_relu
I0522 17:14:12.785907 27530 net.cpp:129] Top shape: 4 256 14 14 (200704)
I0522 17:14:12.785909 27530 net.cpp:137] Memory required for data: 859815952
I0522 17:14:12.785913 27530 layer_factory.hpp:77] Creating layer res4f_branch2c
I0522 17:14:12.785920 27530 net.cpp:84] Creating Layer res4f_branch2c
I0522 17:14:12.785924 27530 net.cpp:406] res4f_branch2c <- res4f_branch2b
I0522 17:14:12.785950 27530 net.cpp:380] res4f_branch2c -> res4f_branch2c
I0522 17:14:12.789605 27530 net.cpp:122] Setting up res4f_branch2c
I0522 17:14:12.789628 27530 net.cpp:129] Top shape: 4 1024 14 14 (802816)
I0522 17:14:12.789630 27530 net.cpp:137] Memory required for data: 863027216
I0522 17:14:12.789638 27530 layer_factory.hpp:77] Creating layer bn4f_branch2c
I0522 17:14:12.789646 27530 net.cpp:84] Creating Layer bn4f_branch2c
I0522 17:14:12.789651 27530 net.cpp:406] bn4f_branch2c <- res4f_branch2c
I0522 17:14:12.789655 27530 net.cpp:367] bn4f_branch2c -> res4f_branch2c (in-place)
I0522 17:14:12.789988 27530 net.cpp:122] Setting up bn4f_branch2c
I0522 17:14:12.789995 27530 net.cpp:129] Top shape: 4 1024 14 14 (802816)
I0522 17:14:12.789997 27530 net.cpp:137] Memory required for data: 866238480
I0522 17:14:12.790019 27530 layer_factory.hpp:77] Creating layer scale4f_branch2c
I0522 17:14:12.790024 27530 net.cpp:84] Creating Layer scale4f_branch2c
I0522 17:14:12.790029 27530 net.cpp:406] scale4f_branch2c <- res4f_branch2c
I0522 17:14:12.790073 27530 net.cpp:367] scale4f_branch2c -> res4f_branch2c (in-place)
I0522 17:14:12.790161 27530 layer_factory.hpp:77] Creating layer scale4f_branch2c
I0522 17:14:12.790340 27530 net.cpp:122] Setting up scale4f_branch2c
I0522 17:14:12.790349 27530 net.cpp:129] Top shape: 4 1024 14 14 (802816)
I0522 17:14:12.790364 27530 net.cpp:137] Memory required for data: 869449744
I0522 17:14:12.790369 27530 layer_factory.hpp:77] Creating layer res4f
I0522 17:14:12.790374 27530 net.cpp:84] Creating Layer res4f
I0522 17:14:12.790379 27530 net.cpp:406] res4f <- res4e_res4e_relu_0_split_1
I0522 17:14:12.790382 27530 net.cpp:406] res4f <- res4f_branch2c
I0522 17:14:12.790387 27530 net.cpp:380] res4f -> res4f
I0522 17:14:12.790428 27530 net.cpp:122] Setting up res4f
I0522 17:14:12.790447 27530 net.cpp:129] Top shape: 4 1024 14 14 (802816)
I0522 17:14:12.790449 27530 net.cpp:137] Memory required for data: 872661008
I0522 17:14:12.790452 27530 layer_factory.hpp:77] Creating layer res4f_relu
I0522 17:14:12.790470 27530 net.cpp:84] Creating Layer res4f_relu
I0522 17:14:12.790474 27530 net.cpp:406] res4f_relu <- res4f
I0522 17:14:12.790478 27530 net.cpp:367] res4f_relu -> res4f (in-place)
I0522 17:14:12.790694 27530 net.cpp:122] Setting up res4f_relu
I0522 17:14:12.790701 27530 net.cpp:129] Top shape: 4 1024 14 14 (802816)
I0522 17:14:12.790719 27530 net.cpp:137] Memory required for data: 875872272
I0522 17:14:12.790722 27530 layer_factory.hpp:77] Creating layer res4f_res4f_relu_0_split
I0522 17:14:12.790727 27530 net.cpp:84] Creating Layer res4f_res4f_relu_0_split
I0522 17:14:12.790730 27530 net.cpp:406] res4f_res4f_relu_0_split <- res4f
I0522 17:14:12.790750 27530 net.cpp:380] res4f_res4f_relu_0_split -> res4f_res4f_relu_0_split_0
I0522 17:14:12.790788 27530 net.cpp:380] res4f_res4f_relu_0_split -> res4f_res4f_relu_0_split_1
I0522 17:14:12.790912 27530 net.cpp:122] Setting up res4f_res4f_relu_0_split
I0522 17:14:12.790920 27530 net.cpp:129] Top shape: 4 1024 14 14 (802816)
I0522 17:14:12.790946 27530 net.cpp:129] Top shape: 4 1024 14 14 (802816)
I0522 17:14:12.790948 27530 net.cpp:137] Memory required for data: 882294800
I0522 17:14:12.790951 27530 layer_factory.hpp:77] Creating layer res5a_branch1
I0522 17:14:12.790959 27530 net.cpp:84] Creating Layer res5a_branch1
I0522 17:14:12.790964 27530 net.cpp:406] res5a_branch1 <- res4f_res4f_relu_0_split_0
I0522 17:14:12.790969 27530 net.cpp:380] res5a_branch1 -> res5a_branch1
I0522 17:14:12.804020 27530 net.cpp:122] Setting up res5a_branch1
I0522 17:14:12.804042 27530 net.cpp:129] Top shape: 4 2048 7 7 (401408)
I0522 17:14:12.804046 27530 net.cpp:137] Memory required for data: 883900432
I0522 17:14:12.804055 27530 layer_factory.hpp:77] Creating layer bn5a_branch1
I0522 17:14:12.804064 27530 net.cpp:84] Creating Layer bn5a_branch1
I0522 17:14:12.804082 27530 net.cpp:406] bn5a_branch1 <- res5a_branch1
I0522 17:14:12.804090 27530 net.cpp:367] bn5a_branch1 -> res5a_branch1 (in-place)
I0522 17:14:12.804378 27530 net.cpp:122] Setting up bn5a_branch1
I0522 17:14:12.804385 27530 net.cpp:129] Top shape: 4 2048 7 7 (401408)
I0522 17:14:12.804388 27530 net.cpp:137] Memory required for data: 885506064
I0522 17:14:12.804394 27530 layer_factory.hpp:77] Creating layer scale5a_branch1
I0522 17:14:12.804400 27530 net.cpp:84] Creating Layer scale5a_branch1
I0522 17:14:12.804404 27530 net.cpp:406] scale5a_branch1 <- res5a_branch1
I0522 17:14:12.804427 27530 net.cpp:367] scale5a_branch1 -> res5a_branch1 (in-place)
I0522 17:14:12.804486 27530 layer_factory.hpp:77] Creating layer scale5a_branch1
I0522 17:14:12.804656 27530 net.cpp:122] Setting up scale5a_branch1
I0522 17:14:12.804661 27530 net.cpp:129] Top shape: 4 2048 7 7 (401408)
I0522 17:14:12.804682 27530 net.cpp:137] Memory required for data: 887111696
I0522 17:14:12.804688 27530 layer_factory.hpp:77] Creating layer res5a_branch2a
I0522 17:14:12.804697 27530 net.cpp:84] Creating Layer res5a_branch2a
I0522 17:14:12.804724 27530 net.cpp:406] res5a_branch2a <- res4f_res4f_relu_0_split_1
I0522 17:14:12.804734 27530 net.cpp:380] res5a_branch2a -> res5a_branch2a
I0522 17:14:12.809388 27530 net.cpp:122] Setting up res5a_branch2a
I0522 17:14:12.809412 27530 net.cpp:129] Top shape: 4 512 7 7 (100352)
I0522 17:14:12.809415 27530 net.cpp:137] Memory required for data: 887513104
I0522 17:14:12.809423 27530 layer_factory.hpp:77] Creating layer bn5a_branch2a
I0522 17:14:12.809432 27530 net.cpp:84] Creating Layer bn5a_branch2a
I0522 17:14:12.809437 27530 net.cpp:406] bn5a_branch2a <- res5a_branch2a
I0522 17:14:12.809442 27530 net.cpp:367] bn5a_branch2a -> res5a_branch2a (in-place)
I0522 17:14:12.809738 27530 net.cpp:122] Setting up bn5a_branch2a
I0522 17:14:12.809746 27530 net.cpp:129] Top shape: 4 512 7 7 (100352)
I0522 17:14:12.809748 27530 net.cpp:137] Memory required for data: 887914512
I0522 17:14:12.809769 27530 layer_factory.hpp:77] Creating layer scale5a_branch2a
I0522 17:14:12.809775 27530 net.cpp:84] Creating Layer scale5a_branch2a
I0522 17:14:12.809782 27530 net.cpp:406] scale5a_branch2a <- res5a_branch2a
I0522 17:14:12.809785 27530 net.cpp:367] scale5a_branch2a -> res5a_branch2a (in-place)
I0522 17:14:12.809829 27530 layer_factory.hpp:77] Creating layer scale5a_branch2a
I0522 17:14:12.810036 27530 net.cpp:122] Setting up scale5a_branch2a
I0522 17:14:12.810060 27530 net.cpp:129] Top shape: 4 512 7 7 (100352)
I0522 17:14:12.810073 27530 net.cpp:137] Memory required for data: 888315920
I0522 17:14:12.810081 27530 layer_factory.hpp:77] Creating layer res5a_branch2a_relu
I0522 17:14:12.810086 27530 net.cpp:84] Creating Layer res5a_branch2a_relu
I0522 17:14:12.810091 27530 net.cpp:406] res5a_branch2a_relu <- res5a_branch2a
I0522 17:14:12.810094 27530 net.cpp:367] res5a_branch2a_relu -> res5a_branch2a (in-place)
I0522 17:14:12.810295 27530 net.cpp:122] Setting up res5a_branch2a_relu
I0522 17:14:12.810303 27530 net.cpp:129] Top shape: 4 512 7 7 (100352)
I0522 17:14:12.810307 27530 net.cpp:137] Memory required for data: 888717328
I0522 17:14:12.810310 27530 layer_factory.hpp:77] Creating layer res5a_branch2b
I0522 17:14:12.810318 27530 net.cpp:84] Creating Layer res5a_branch2b
I0522 17:14:12.810322 27530 net.cpp:406] res5a_branch2b <- res5a_branch2a
I0522 17:14:12.810328 27530 net.cpp:380] res5a_branch2b -> res5a_branch2b
I0522 17:14:12.823942 27530 net.cpp:122] Setting up res5a_branch2b
I0522 17:14:12.823978 27530 net.cpp:129] Top shape: 4 512 7 7 (100352)
I0522 17:14:12.823982 27530 net.cpp:137] Memory required for data: 889118736
I0522 17:14:12.823992 27530 layer_factory.hpp:77] Creating layer bn5a_branch2b
I0522 17:14:12.824014 27530 net.cpp:84] Creating Layer bn5a_branch2b
I0522 17:14:12.824018 27530 net.cpp:406] bn5a_branch2b <- res5a_branch2b
I0522 17:14:12.824038 27530 net.cpp:367] bn5a_branch2b -> res5a_branch2b (in-place)
I0522 17:14:12.824343 27530 net.cpp:122] Setting up bn5a_branch2b
I0522 17:14:12.824350 27530 net.cpp:129] Top shape: 4 512 7 7 (100352)
I0522 17:14:12.824368 27530 net.cpp:137] Memory required for data: 889520144
I0522 17:14:12.824374 27530 layer_factory.hpp:77] Creating layer scale5a_branch2b
I0522 17:14:12.824394 27530 net.cpp:84] Creating Layer scale5a_branch2b
I0522 17:14:12.824399 27530 net.cpp:406] scale5a_branch2b <- res5a_branch2b
I0522 17:14:12.824419 27530 net.cpp:367] scale5a_branch2b -> res5a_branch2b (in-place)
I0522 17:14:12.824476 27530 layer_factory.hpp:77] Creating layer scale5a_branch2b
I0522 17:14:12.824687 27530 net.cpp:122] Setting up scale5a_branch2b
I0522 17:14:12.824707 27530 net.cpp:129] Top shape: 4 512 7 7 (100352)
I0522 17:14:12.824708 27530 net.cpp:137] Memory required for data: 889921552
I0522 17:14:12.824728 27530 layer_factory.hpp:77] Creating layer res5a_branch2b_relu
I0522 17:14:12.824733 27530 net.cpp:84] Creating Layer res5a_branch2b_relu
I0522 17:14:12.824735 27530 net.cpp:406] res5a_branch2b_relu <- res5a_branch2b
I0522 17:14:12.824753 27530 net.cpp:367] res5a_branch2b_relu -> res5a_branch2b (in-place)
I0522 17:14:12.825269 27530 net.cpp:122] Setting up res5a_branch2b_relu
I0522 17:14:12.825294 27530 net.cpp:129] Top shape: 4 512 7 7 (100352)
I0522 17:14:12.825297 27530 net.cpp:137] Memory required for data: 890322960
I0522 17:14:12.825327 27530 layer_factory.hpp:77] Creating layer res5a_branch2c
I0522 17:14:12.825350 27530 net.cpp:84] Creating Layer res5a_branch2c
I0522 17:14:12.825356 27530 net.cpp:406] res5a_branch2c <- res5a_branch2b
I0522 17:14:12.825361 27530 net.cpp:380] res5a_branch2c -> res5a_branch2c
I0522 17:14:12.832674 27530 net.cpp:122] Setting up res5a_branch2c
I0522 17:14:12.832708 27530 net.cpp:129] Top shape: 4 2048 7 7 (401408)
I0522 17:14:12.832713 27530 net.cpp:137] Memory required for data: 891928592
I0522 17:14:12.832722 27530 layer_factory.hpp:77] Creating layer bn5a_branch2c
I0522 17:14:12.832743 27530 net.cpp:84] Creating Layer bn5a_branch2c
I0522 17:14:12.832762 27530 net.cpp:406] bn5a_branch2c <- res5a_branch2c
I0522 17:14:12.832767 27530 net.cpp:367] bn5a_branch2c -> res5a_branch2c (in-place)
I0522 17:14:12.833096 27530 net.cpp:122] Setting up bn5a_branch2c
I0522 17:14:12.833104 27530 net.cpp:129] Top shape: 4 2048 7 7 (401408)
I0522 17:14:12.833120 27530 net.cpp:137] Memory required for data: 893534224
I0522 17:14:12.833142 27530 layer_factory.hpp:77] Creating layer scale5a_branch2c
I0522 17:14:12.833148 27530 net.cpp:84] Creating Layer scale5a_branch2c
I0522 17:14:12.833151 27530 net.cpp:406] scale5a_branch2c <- res5a_branch2c
I0522 17:14:12.833156 27530 net.cpp:367] scale5a_branch2c -> res5a_branch2c (in-place)
I0522 17:14:12.833230 27530 layer_factory.hpp:77] Creating layer scale5a_branch2c
I0522 17:14:12.833393 27530 net.cpp:122] Setting up scale5a_branch2c
I0522 17:14:12.833400 27530 net.cpp:129] Top shape: 4 2048 7 7 (401408)
I0522 17:14:12.833417 27530 net.cpp:137] Memory required for data: 895139856
I0522 17:14:12.833423 27530 layer_factory.hpp:77] Creating layer res5a
I0522 17:14:12.833429 27530 net.cpp:84] Creating Layer res5a
I0522 17:14:12.833432 27530 net.cpp:406] res5a <- res5a_branch1
I0522 17:14:12.833436 27530 net.cpp:406] res5a <- res5a_branch2c
I0522 17:14:12.833441 27530 net.cpp:380] res5a -> res5a
I0522 17:14:12.833470 27530 net.cpp:122] Setting up res5a
I0522 17:14:12.833475 27530 net.cpp:129] Top shape: 4 2048 7 7 (401408)
I0522 17:14:12.833477 27530 net.cpp:137] Memory required for data: 896745488
I0522 17:14:12.833482 27530 layer_factory.hpp:77] Creating layer res5a_relu
I0522 17:14:12.833485 27530 net.cpp:84] Creating Layer res5a_relu
I0522 17:14:12.833489 27530 net.cpp:406] res5a_relu <- res5a
I0522 17:14:12.833492 27530 net.cpp:367] res5a_relu -> res5a (in-place)
I0522 17:14:12.833693 27530 net.cpp:122] Setting up res5a_relu
I0522 17:14:12.833703 27530 net.cpp:129] Top shape: 4 2048 7 7 (401408)
I0522 17:14:12.833719 27530 net.cpp:137] Memory required for data: 898351120
I0522 17:14:12.833721 27530 layer_factory.hpp:77] Creating layer res5a_res5a_relu_0_split
I0522 17:14:12.833727 27530 net.cpp:84] Creating Layer res5a_res5a_relu_0_split
I0522 17:14:12.833730 27530 net.cpp:406] res5a_res5a_relu_0_split <- res5a
I0522 17:14:12.833735 27530 net.cpp:380] res5a_res5a_relu_0_split -> res5a_res5a_relu_0_split_0
I0522 17:14:12.833741 27530 net.cpp:380] res5a_res5a_relu_0_split -> res5a_res5a_relu_0_split_1
I0522 17:14:12.833792 27530 net.cpp:122] Setting up res5a_res5a_relu_0_split
I0522 17:14:12.833798 27530 net.cpp:129] Top shape: 4 2048 7 7 (401408)
I0522 17:14:12.833802 27530 net.cpp:129] Top shape: 4 2048 7 7 (401408)
I0522 17:14:12.833806 27530 net.cpp:137] Memory required for data: 901562384
I0522 17:14:12.833809 27530 layer_factory.hpp:77] Creating layer res5b_branch2a
I0522 17:14:12.833817 27530 net.cpp:84] Creating Layer res5b_branch2a
I0522 17:14:12.833820 27530 net.cpp:406] res5b_branch2a <- res5a_res5a_relu_0_split_0
I0522 17:14:12.833825 27530 net.cpp:380] res5b_branch2a -> res5b_branch2a
I0522 17:14:12.840667 27530 net.cpp:122] Setting up res5b_branch2a
I0522 17:14:12.840690 27530 net.cpp:129] Top shape: 4 512 7 7 (100352)
I0522 17:14:12.840693 27530 net.cpp:137] Memory required for data: 901963792
I0522 17:14:12.840716 27530 layer_factory.hpp:77] Creating layer bn5b_branch2a
I0522 17:14:12.840740 27530 net.cpp:84] Creating Layer bn5b_branch2a
I0522 17:14:12.840770 27530 net.cpp:406] bn5b_branch2a <- res5b_branch2a
I0522 17:14:12.840790 27530 net.cpp:367] bn5b_branch2a -> res5b_branch2a (in-place)
I0522 17:14:12.841080 27530 net.cpp:122] Setting up bn5b_branch2a
I0522 17:14:12.841087 27530 net.cpp:129] Top shape: 4 512 7 7 (100352)
I0522 17:14:12.841090 27530 net.cpp:137] Memory required for data: 902365200
I0522 17:14:12.841111 27530 layer_factory.hpp:77] Creating layer scale5b_branch2a
I0522 17:14:12.841135 27530 net.cpp:84] Creating Layer scale5b_branch2a
I0522 17:14:12.841140 27530 net.cpp:406] scale5b_branch2a <- res5b_branch2a
I0522 17:14:12.841157 27530 net.cpp:367] scale5b_branch2a -> res5b_branch2a (in-place)
I0522 17:14:12.841259 27530 layer_factory.hpp:77] Creating layer scale5b_branch2a
I0522 17:14:12.841431 27530 net.cpp:122] Setting up scale5b_branch2a
I0522 17:14:12.841439 27530 net.cpp:129] Top shape: 4 512 7 7 (100352)
I0522 17:14:12.841456 27530 net.cpp:137] Memory required for data: 902766608
I0522 17:14:12.841461 27530 layer_factory.hpp:77] Creating layer res5b_branch2a_relu
I0522 17:14:12.841466 27530 net.cpp:84] Creating Layer res5b_branch2a_relu
I0522 17:14:12.841471 27530 net.cpp:406] res5b_branch2a_relu <- res5b_branch2a
I0522 17:14:12.841475 27530 net.cpp:367] res5b_branch2a_relu -> res5b_branch2a (in-place)
I0522 17:14:12.841675 27530 net.cpp:122] Setting up res5b_branch2a_relu
I0522 17:14:12.841682 27530 net.cpp:129] Top shape: 4 512 7 7 (100352)
I0522 17:14:12.841699 27530 net.cpp:137] Memory required for data: 903168016
I0522 17:14:12.841702 27530 layer_factory.hpp:77] Creating layer res5b_branch2b
I0522 17:14:12.841724 27530 net.cpp:84] Creating Layer res5b_branch2b
I0522 17:14:12.841728 27530 net.cpp:406] res5b_branch2b <- res5b_branch2a
I0522 17:14:12.841747 27530 net.cpp:380] res5b_branch2b -> res5b_branch2b
I0522 17:14:12.856047 27530 net.cpp:122] Setting up res5b_branch2b
I0522 17:14:12.856097 27530 net.cpp:129] Top shape: 4 512 7 7 (100352)
I0522 17:14:12.856101 27530 net.cpp:137] Memory required for data: 903569424
I0522 17:14:12.856112 27530 layer_factory.hpp:77] Creating layer bn5b_branch2b
I0522 17:14:12.856137 27530 net.cpp:84] Creating Layer bn5b_branch2b
I0522 17:14:12.856142 27530 net.cpp:406] bn5b_branch2b <- res5b_branch2b
I0522 17:14:12.856158 27530 net.cpp:367] bn5b_branch2b -> res5b_branch2b (in-place)
I0522 17:14:12.856482 27530 net.cpp:122] Setting up bn5b_branch2b
I0522 17:14:12.856505 27530 net.cpp:129] Top shape: 4 512 7 7 (100352)
I0522 17:14:12.856508 27530 net.cpp:137] Memory required for data: 903970832
I0522 17:14:12.856528 27530 layer_factory.hpp:77] Creating layer scale5b_branch2b
I0522 17:14:12.856534 27530 net.cpp:84] Creating Layer scale5b_branch2b
I0522 17:14:12.856537 27530 net.cpp:406] scale5b_branch2b <- res5b_branch2b
I0522 17:14:12.856542 27530 net.cpp:367] scale5b_branch2b -> res5b_branch2b (in-place)
I0522 17:14:12.856631 27530 layer_factory.hpp:77] Creating layer scale5b_branch2b
I0522 17:14:12.856853 27530 net.cpp:122] Setting up scale5b_branch2b
I0522 17:14:12.856879 27530 net.cpp:129] Top shape: 4 512 7 7 (100352)
I0522 17:14:12.856894 27530 net.cpp:137] Memory required for data: 904372240
I0522 17:14:12.856909 27530 layer_factory.hpp:77] Creating layer res5b_branch2b_relu
I0522 17:14:12.856925 27530 net.cpp:84] Creating Layer res5b_branch2b_relu
I0522 17:14:12.856937 27530 net.cpp:406] res5b_branch2b_relu <- res5b_branch2b
I0522 17:14:12.856950 27530 net.cpp:367] res5b_branch2b_relu -> res5b_branch2b (in-place)
I0522 17:14:12.857903 27530 net.cpp:122] Setting up res5b_branch2b_relu
I0522 17:14:12.857918 27530 net.cpp:129] Top shape: 4 512 7 7 (100352)
I0522 17:14:12.857920 27530 net.cpp:137] Memory required for data: 904773648
I0522 17:14:12.857924 27530 layer_factory.hpp:77] Creating layer res5b_branch2c
I0522 17:14:12.857933 27530 net.cpp:84] Creating Layer res5b_branch2c
I0522 17:14:12.857939 27530 net.cpp:406] res5b_branch2c <- res5b_branch2b
I0522 17:14:12.857944 27530 net.cpp:380] res5b_branch2c -> res5b_branch2c
I0522 17:14:12.865546 27530 net.cpp:122] Setting up res5b_branch2c
I0522 17:14:12.865583 27530 net.cpp:129] Top shape: 4 2048 7 7 (401408)
I0522 17:14:12.865587 27530 net.cpp:137] Memory required for data: 906379280
I0522 17:14:12.865597 27530 layer_factory.hpp:77] Creating layer bn5b_branch2c
I0522 17:14:12.865604 27530 net.cpp:84] Creating Layer bn5b_branch2c
I0522 17:14:12.865610 27530 net.cpp:406] bn5b_branch2c <- res5b_branch2c
I0522 17:14:12.865638 27530 net.cpp:367] bn5b_branch2c -> res5b_branch2c (in-place)
I0522 17:14:12.865942 27530 net.cpp:122] Setting up bn5b_branch2c
I0522 17:14:12.865950 27530 net.cpp:129] Top shape: 4 2048 7 7 (401408)
I0522 17:14:12.865953 27530 net.cpp:137] Memory required for data: 907984912
I0522 17:14:12.865960 27530 layer_factory.hpp:77] Creating layer scale5b_branch2c
I0522 17:14:12.865967 27530 net.cpp:84] Creating Layer scale5b_branch2c
I0522 17:14:12.865970 27530 net.cpp:406] scale5b_branch2c <- res5b_branch2c
I0522 17:14:12.865974 27530 net.cpp:367] scale5b_branch2c -> res5b_branch2c (in-place)
I0522 17:14:12.866055 27530 layer_factory.hpp:77] Creating layer scale5b_branch2c
I0522 17:14:12.866235 27530 net.cpp:122] Setting up scale5b_branch2c
I0522 17:14:12.866242 27530 net.cpp:129] Top shape: 4 2048 7 7 (401408)
I0522 17:14:12.866245 27530 net.cpp:137] Memory required for data: 909590544
I0522 17:14:12.866250 27530 layer_factory.hpp:77] Creating layer res5b
I0522 17:14:12.866255 27530 net.cpp:84] Creating Layer res5b
I0522 17:14:12.866259 27530 net.cpp:406] res5b <- res5a_res5a_relu_0_split_1
I0522 17:14:12.866263 27530 net.cpp:406] res5b <- res5b_branch2c
I0522 17:14:12.866268 27530 net.cpp:380] res5b -> res5b
I0522 17:14:12.866309 27530 net.cpp:122] Setting up res5b
I0522 17:14:12.866315 27530 net.cpp:129] Top shape: 4 2048 7 7 (401408)
I0522 17:14:12.866330 27530 net.cpp:137] Memory required for data: 911196176
I0522 17:14:12.866333 27530 layer_factory.hpp:77] Creating layer res5b_relu
I0522 17:14:12.866338 27530 net.cpp:84] Creating Layer res5b_relu
I0522 17:14:12.866355 27530 net.cpp:406] res5b_relu <- res5b
I0522 17:14:12.866359 27530 net.cpp:367] res5b_relu -> res5b (in-place)
I0522 17:14:12.866631 27530 net.cpp:122] Setting up res5b_relu
I0522 17:14:12.866658 27530 net.cpp:129] Top shape: 4 2048 7 7 (401408)
I0522 17:14:12.866672 27530 net.cpp:137] Memory required for data: 912801808
I0522 17:14:12.866683 27530 layer_factory.hpp:77] Creating layer res5b_res5b_relu_0_split
I0522 17:14:12.866698 27530 net.cpp:84] Creating Layer res5b_res5b_relu_0_split
I0522 17:14:12.866708 27530 net.cpp:406] res5b_res5b_relu_0_split <- res5b
I0522 17:14:12.866721 27530 net.cpp:380] res5b_res5b_relu_0_split -> res5b_res5b_relu_0_split_0
I0522 17:14:12.866736 27530 net.cpp:380] res5b_res5b_relu_0_split -> res5b_res5b_relu_0_split_1
I0522 17:14:12.866837 27530 net.cpp:122] Setting up res5b_res5b_relu_0_split
I0522 17:14:12.866847 27530 net.cpp:129] Top shape: 4 2048 7 7 (401408)
I0522 17:14:12.866850 27530 net.cpp:129] Top shape: 4 2048 7 7 (401408)
I0522 17:14:12.866853 27530 net.cpp:137] Memory required for data: 916013072
I0522 17:14:12.866858 27530 layer_factory.hpp:77] Creating layer res5c_branch2a
I0522 17:14:12.866868 27530 net.cpp:84] Creating Layer res5c_branch2a
I0522 17:14:12.866873 27530 net.cpp:406] res5c_branch2a <- res5b_res5b_relu_0_split_0
I0522 17:14:12.866878 27530 net.cpp:380] res5c_branch2a -> res5c_branch2a
I0522 17:14:12.874408 27530 net.cpp:122] Setting up res5c_branch2a
I0522 17:14:12.874433 27530 net.cpp:129] Top shape: 4 512 7 7 (100352)
I0522 17:14:12.874436 27530 net.cpp:137] Memory required for data: 916414480
I0522 17:14:12.874445 27530 layer_factory.hpp:77] Creating layer bn5c_branch2a
I0522 17:14:12.874456 27530 net.cpp:84] Creating Layer bn5c_branch2a
I0522 17:14:12.874461 27530 net.cpp:406] bn5c_branch2a <- res5c_branch2a
I0522 17:14:12.874466 27530 net.cpp:367] bn5c_branch2a -> res5c_branch2a (in-place)
I0522 17:14:12.874768 27530 net.cpp:122] Setting up bn5c_branch2a
I0522 17:14:12.874776 27530 net.cpp:129] Top shape: 4 512 7 7 (100352)
I0522 17:14:12.874779 27530 net.cpp:137] Memory required for data: 916815888
I0522 17:14:12.874796 27530 layer_factory.hpp:77] Creating layer scale5c_branch2a
I0522 17:14:12.874802 27530 net.cpp:84] Creating Layer scale5c_branch2a
I0522 17:14:12.874806 27530 net.cpp:406] scale5c_branch2a <- res5c_branch2a
I0522 17:14:12.874810 27530 net.cpp:367] scale5c_branch2a -> res5c_branch2a (in-place)
I0522 17:14:12.874871 27530 layer_factory.hpp:77] Creating layer scale5c_branch2a
I0522 17:14:12.875098 27530 net.cpp:122] Setting up scale5c_branch2a
I0522 17:14:12.875105 27530 net.cpp:129] Top shape: 4 512 7 7 (100352)
I0522 17:14:12.875108 27530 net.cpp:137] Memory required for data: 917217296
I0522 17:14:12.875113 27530 layer_factory.hpp:77] Creating layer res5c_branch2a_relu
I0522 17:14:12.875118 27530 net.cpp:84] Creating Layer res5c_branch2a_relu
I0522 17:14:12.875123 27530 net.cpp:406] res5c_branch2a_relu <- res5c_branch2a
I0522 17:14:12.875126 27530 net.cpp:367] res5c_branch2a_relu -> res5c_branch2a (in-place)
I0522 17:14:12.875341 27530 net.cpp:122] Setting up res5c_branch2a_relu
I0522 17:14:12.875349 27530 net.cpp:129] Top shape: 4 512 7 7 (100352)
I0522 17:14:12.875352 27530 net.cpp:137] Memory required for data: 917618704
I0522 17:14:12.875355 27530 layer_factory.hpp:77] Creating layer res5c_branch2b
I0522 17:14:12.875362 27530 net.cpp:84] Creating Layer res5c_branch2b
I0522 17:14:12.875366 27530 net.cpp:406] res5c_branch2b <- res5c_branch2a
I0522 17:14:12.875371 27530 net.cpp:380] res5c_branch2b -> res5c_branch2b
I0522 17:14:12.888739 27530 net.cpp:122] Setting up res5c_branch2b
I0522 17:14:12.888761 27530 net.cpp:129] Top shape: 4 512 7 7 (100352)
I0522 17:14:12.888765 27530 net.cpp:137] Memory required for data: 918020112
I0522 17:14:12.888773 27530 layer_factory.hpp:77] Creating layer bn5c_branch2b
I0522 17:14:12.888782 27530 net.cpp:84] Creating Layer bn5c_branch2b
I0522 17:14:12.888787 27530 net.cpp:406] bn5c_branch2b <- res5c_branch2b
I0522 17:14:12.888792 27530 net.cpp:367] bn5c_branch2b -> res5c_branch2b (in-place)
I0522 17:14:12.889122 27530 net.cpp:122] Setting up bn5c_branch2b
I0522 17:14:12.889129 27530 net.cpp:129] Top shape: 4 512 7 7 (100352)
I0522 17:14:12.889132 27530 net.cpp:137] Memory required for data: 918421520
I0522 17:14:12.889138 27530 layer_factory.hpp:77] Creating layer scale5c_branch2b
I0522 17:14:12.889144 27530 net.cpp:84] Creating Layer scale5c_branch2b
I0522 17:14:12.889147 27530 net.cpp:406] scale5c_branch2b <- res5c_branch2b
I0522 17:14:12.889152 27530 net.cpp:367] scale5c_branch2b -> res5c_branch2b (in-place)
I0522 17:14:12.889240 27530 layer_factory.hpp:77] Creating layer scale5c_branch2b
I0522 17:14:12.889446 27530 net.cpp:122] Setting up scale5c_branch2b
I0522 17:14:12.889451 27530 net.cpp:129] Top shape: 4 512 7 7 (100352)
I0522 17:14:12.889454 27530 net.cpp:137] Memory required for data: 918822928
I0522 17:14:12.889458 27530 layer_factory.hpp:77] Creating layer res5c_branch2b_relu
I0522 17:14:12.889464 27530 net.cpp:84] Creating Layer res5c_branch2b_relu
I0522 17:14:12.889467 27530 net.cpp:406] res5c_branch2b_relu <- res5c_branch2b
I0522 17:14:12.889472 27530 net.cpp:367] res5c_branch2b_relu -> res5c_branch2b (in-place)
I0522 17:14:12.889698 27530 net.cpp:122] Setting up res5c_branch2b_relu
I0522 17:14:12.889708 27530 net.cpp:129] Top shape: 4 512 7 7 (100352)
I0522 17:14:12.889709 27530 net.cpp:137] Memory required for data: 919224336
I0522 17:14:12.889713 27530 layer_factory.hpp:77] Creating layer res5c_branch2c
I0522 17:14:12.889719 27530 net.cpp:84] Creating Layer res5c_branch2c
I0522 17:14:12.889724 27530 net.cpp:406] res5c_branch2c <- res5c_branch2b
I0522 17:14:12.889729 27530 net.cpp:380] res5c_branch2c -> res5c_branch2c
I0522 17:14:12.896399 27530 net.cpp:122] Setting up res5c_branch2c
I0522 17:14:12.896436 27530 net.cpp:129] Top shape: 4 2048 7 7 (401408)
I0522 17:14:12.896440 27530 net.cpp:137] Memory required for data: 920829968
I0522 17:14:12.896450 27530 layer_factory.hpp:77] Creating layer bn5c_branch2c
I0522 17:14:12.896473 27530 net.cpp:84] Creating Layer bn5c_branch2c
I0522 17:14:12.896477 27530 net.cpp:406] bn5c_branch2c <- res5c_branch2c
I0522 17:14:12.896495 27530 net.cpp:367] bn5c_branch2c -> res5c_branch2c (in-place)
I0522 17:14:12.896826 27530 net.cpp:122] Setting up bn5c_branch2c
I0522 17:14:12.896833 27530 net.cpp:129] Top shape: 4 2048 7 7 (401408)
I0522 17:14:12.896849 27530 net.cpp:137] Memory required for data: 922435600
I0522 17:14:12.896857 27530 layer_factory.hpp:77] Creating layer scale5c_branch2c
I0522 17:14:12.896876 27530 net.cpp:84] Creating Layer scale5c_branch2c
I0522 17:14:12.896879 27530 net.cpp:406] scale5c_branch2c <- res5c_branch2c
I0522 17:14:12.896883 27530 net.cpp:367] scale5c_branch2c -> res5c_branch2c (in-place)
I0522 17:14:12.896946 27530 layer_factory.hpp:77] Creating layer scale5c_branch2c
I0522 17:14:12.897893 27530 net.cpp:122] Setting up scale5c_branch2c
I0522 17:14:12.897905 27530 net.cpp:129] Top shape: 4 2048 7 7 (401408)
I0522 17:14:12.897908 27530 net.cpp:137] Memory required for data: 924041232
I0522 17:14:12.897914 27530 layer_factory.hpp:77] Creating layer res5c
I0522 17:14:12.897920 27530 net.cpp:84] Creating Layer res5c
I0522 17:14:12.897923 27530 net.cpp:406] res5c <- res5b_res5b_relu_0_split_1
I0522 17:14:12.897928 27530 net.cpp:406] res5c <- res5c_branch2c
I0522 17:14:12.897933 27530 net.cpp:380] res5c -> res5c
I0522 17:14:12.897982 27530 net.cpp:122] Setting up res5c
I0522 17:14:12.897989 27530 net.cpp:129] Top shape: 4 2048 7 7 (401408)
I0522 17:14:12.897991 27530 net.cpp:137] Memory required for data: 925646864
I0522 17:14:12.897995 27530 layer_factory.hpp:77] Creating layer res5c_relu
I0522 17:14:12.898000 27530 net.cpp:84] Creating Layer res5c_relu
I0522 17:14:12.898003 27530 net.cpp:406] res5c_relu <- res5c
I0522 17:14:12.898007 27530 net.cpp:367] res5c_relu -> res5c (in-place)
I0522 17:14:12.898650 27530 net.cpp:122] Setting up res5c_relu
I0522 17:14:12.898689 27530 net.cpp:129] Top shape: 4 2048 7 7 (401408)
I0522 17:14:12.898691 27530 net.cpp:137] Memory required for data: 927252496
I0522 17:14:12.898695 27530 layer_factory.hpp:77] Creating layer pool5
I0522 17:14:12.898701 27530 net.cpp:84] Creating Layer pool5
I0522 17:14:12.898705 27530 net.cpp:406] pool5 <- res5c
I0522 17:14:12.898710 27530 net.cpp:380] pool5 -> pool5
I0522 17:14:12.899077 27530 net.cpp:122] Setting up pool5
I0522 17:14:12.899103 27530 net.cpp:129] Top shape: 4 2048 1 1 (8192)
I0522 17:14:12.899106 27530 net.cpp:137] Memory required for data: 927285264
I0522 17:14:12.899109 27530 layer_factory.hpp:77] Creating layer fc1000
I0522 17:14:12.899116 27530 net.cpp:84] Creating Layer fc1000
I0522 17:14:12.899134 27530 net.cpp:406] fc1000 <- pool5
I0522 17:14:12.899139 27530 net.cpp:380] fc1000 -> fc1000
I0522 17:14:12.899335 27530 net.cpp:122] Setting up fc1000
I0522 17:14:12.899341 27530 net.cpp:129] Top shape: 4 4 (16)
I0522 17:14:12.899358 27530 net.cpp:137] Memory required for data: 927285328
I0522 17:14:12.899364 27530 layer_factory.hpp:77] Creating layer probt
I0522 17:14:12.899384 27530 net.cpp:84] Creating Layer probt
I0522 17:14:12.899389 27530 net.cpp:406] probt <- fc1000
I0522 17:14:12.899394 27530 net.cpp:380] probt -> probt
I0522 17:14:12.899631 27530 net.cpp:122] Setting up probt
I0522 17:14:12.899639 27530 net.cpp:129] Top shape: 4 4 (16)
I0522 17:14:12.899642 27530 net.cpp:137] Memory required for data: 927285392
I0522 17:14:12.899646 27530 net.cpp:200] probt does not need backward computation.
I0522 17:14:12.899649 27530 net.cpp:200] fc1000 does not need backward computation.
I0522 17:14:12.899652 27530 net.cpp:200] pool5 does not need backward computation.
I0522 17:14:12.899654 27530 net.cpp:200] res5c_relu does not need backward computation.
…
