…
I0526 18:18:36.255081  1208 net.cpp:294] The NetState phase (0) differed from the phase (1) specified by a rule in layer probt
I0526 18:18:36.255812  1208 net.cpp:51] Initializing net from parameters: 
name: "ResNet-50"
state {
  phase: TRAIN
  level: 0
  stage: ""
}
layer {
  name: "resnet_50"
  type: "Data"
  top: "data"
  top: "label"
  include {
    phase: TRAIN
  }
  transform_param {
    mirror: true
    crop_size: 224
    mean_file: "/home/kapitan/Desktop/caffe/data/mammo/mammogram_mean.binaryproto"
  }
  data_param {
    source: "/home/kapitan/Desktop/caffe/data/mammo/train_lmdb"
    batch_size: 16
    backend: LMDB
  }
}
layer {
  name: "conv1"
  type: "Convolution"
  bottom: "data"
  top: "conv1"
  convolution_param {
    num_output: 64
    pad: 3
    kernel_size: 7
    stride: 2
    weight_filler {
      type: "xavier"
    }
    bias_filler {
      type: "constant"
      value: 0.2
    }
  }
}
layer {
  name: "bn_conv1"
  type: "BatchNorm"
  bottom: "conv1"
  top: "conv1"
  batch_norm_param {
  }
}
layer {
  name: "scale_conv1"
  type: "Scale"
  bottom: "conv1"
  top: "conv1"
  scale_param {
    bias_term: true
  }
}
layer {
  name: "conv1_relu"
  type: "ReLU"
  bottom: "conv1"
  top: "conv1"
}
layer {
  name: "pool1"
  type: "Pooling"
  bottom: "conv1"
  top: "pool1"
  pooling_param {
    pool: MAX
    kernel_size: 3
    stride: 2
  }
}
layer {
  name: "res2a_branch1"
  type: "Convolution"
  bottom: "pool1"
  top: "res2a_branch1"
  convolution_param {
    num_output: 256
    bias_term: false
    pad: 0
    kernel_size: 1
    stride: 1
    weight_filler {
      type: "xavier"
    }
    bias_filler {
      type: "constant"
      value: 0.2
    }
  }
}
layer {
  name: "bn2a_branch1"
  type: "BatchNorm"
  bottom: "res2a_branch1"
  top: "res2a_branch1"
  batch_norm_param {
  }
}
layer {
  name: "scale2a_branch1"
  type: "Scale"
  bottom: "res2a_branch1"
  top: "res2a_branch1"
  scale_param {
    bias_term: true
  }
}
layer {
  name: "res2a_branch2a"
  type: "Convolution"
  bottom: "pool1"
  top: "res2a_branch2a"
  convolution_param {
    num_output: 64
    bias_term: false
    pad: 0
    kernel_size: 1
    stride: 1
    weight_filler {
      type: "xavier"
    }
    bias_filler {
      type: "constant"
      value: 0.2
    }
  }
}
layer {
  name: "bn2a_branch2a"
  type: "BatchNorm"
  bottom: "res2a_branch2a"
  top: "res2a_branch2a"
  batch_norm_param {
  }
}
layer {
  name: "scale2a_branch2a"
  type: "Scale"
  bottom: "res2a_branch2a"
  top: "res2a_branch2a"
  scale_param {
    bias_term: true
  }
}
layer {
  name: "res2a_branch2a_relu"
  type: "ReLU"
  bottom: "res2a_branch2a"
  top: "res2a_branch2a"
}
layer {
  name: "res2a_branch2b"
  type: "Convolution"
  bottom: "res2a_branch2a"
  top: "res2a_branch2b"
  convolution_param {
    num_output: 64
    bias_term: false
    pad: 1
    kernel_size: 3
    stride: 1
    weight_filler {
      type: "xavier"
    }
    bias_filler {
      type: "constant"
      value: 0.2
    }
  }
}
layer {
  name: "bn2a_branch2b"
  type: "BatchNorm"
  bottom: "res2a_branch2b"
  top: "res2a_branch2b"
  batch_norm_param {
  }
}
layer {
  name: "scale2a_branch2b"
  type: "Scale"
  bottom: "res2a_branch2b"
  top: "res2a_branch2b"
  scale_param {
    bias_term: true
  }
}
layer {
  name: "res2a_branch2b_relu"
  type: "ReLU"
  bottom: "res2a_branch2b"
  top: "res2a_branch2b"
}
layer {
  name: "res2a_branch2c"
  type: "Convolution"
  bottom: "res2a_branch2b"
  top: "res2a_branch2c"
  convolution_param {
    num_output: 256
    bias_term: false
    pad: 0
    kernel_size: 1
    stride: 1
    weight_filler {
      type: "xavier"
    }
    bias_filler {
      type: "constant"
      value: 0.2
    }
  }
}
layer {
  name: "bn2a_branch2c"
  type: "BatchNorm"
  bottom: "res2a_branch2c"
  top: "res2a_branch2c"
  batch_norm_param {
  }
}
layer {
  name: "scale2a_branch2c"
  type: "Scale"
  bottom: "res2a_branch2c"
  top: "res2a_branch2c"
  scale_param {
    bias_term: true
  }
}
layer {
  name: "res2a"
  type: "Eltwise"
  bottom: "res2a_branch1"
  bottom: "res2a_branch2c"
  top: "res2a"
}
layer {
  name: "res2a_relu"
  type: "ReLU"
  bottom: "res2a"
  top: "res2a"
}
layer {
  name: "res2b_branch2a"
  type: "Convolution"
  bottom: "res2a"
  top: "res2b_branch2a"
  convolution_param {
    num_output: 64
    bias_term: false
    pad: 0
    kernel_size: 1
    stride: 1
    weight_filler {
      type: "xavier"
    }
    bias_filler {
      type: "constant"
      value: 0.2
    }
  }
}
layer {
  name: "bn2b_branch2a"
  type: "BatchNorm"
  bottom: "res2b_branch2a"
  top: "res2b_branch2a"
  batch_norm_param {
  }
}
layer {
  name: "scale2b_branch2a"
  type: "Scale"
  bottom: "res2b_branch2a"
  top: "res2b_branch2a"
  scale_param {
    bias_term: true
  }
}
layer {
  name: "res2b_branch2a_relu"
  type: "ReLU"
  bottom: "res2b_branch2a"
  top: "res2b_branch2a"
}
layer {
  name: "res2b_branch2b"
  type: "Convolution"
  bottom: "res2b_branch2a"
  top: "res2b_branch2b"
  convolution_param {
    num_output: 64
    bias_term: false
    pad: 1
    kernel_size: 3
    stride: 1
    weight_filler {
      type: "xavier"
    }
    bias_filler {
      type: "constant"
      value: 0.2
    }
  }
}
layer {
  name: "bn2b_branch2b"
  type: "BatchNorm"
  bottom: "res2b_branch2b"
  top: "res2b_branch2b"
  batch_norm_param {
  }
}
layer {
  name: "scale2b_branch2b"
  type: "Scale"
  bottom: "res2b_branch2b"
  top: "res2b_branch2b"
  scale_param {
    bias_term: true
  }
}
layer {
  name: "res2b_branch2b_relu"
  type: "ReLU"
  bottom: "res2b_branch2b"
  top: "res2b_branch2b"
}
layer {
  name: "res2b_branch2c"
  type: "Convolution"
  bottom: "res2b_branch2b"
  top: "res2b_branch2c"
  convolution_param {
    num_output: 256
    bias_term: false
    pad: 0
    kernel_size: 1
    stride: 1
    weight_filler {
      type: "xavier"
    }
    bias_filler {
      type: "constant"
      value: 0.2
    }
  }
}
layer {
  name: "bn2b_branch2c"
  type: "BatchNorm"
  bottom: "res2b_branch2c"
  top: "res2b_branch2c"
  batch_norm_param {
  }
}
layer {
  name: "scale2b_branch2c"
  type: "Scale"
  bottom: "res2b_branch2c"
  top: "res2b_branch2c"
  scale_param {
    bias_term: true
  }
}
layer {
  name: "res2b"
  type: "Eltwise"
  bottom: "res2a"
  bottom: "res2b_branch2c"
  top: "res2b"
}
layer {
  name: "res2b_relu"
  type: "ReLU"
  bottom: "res2b"
  top: "res2b"
}
layer {
  name: "res2c_branch2a"
  type: "Convolution"
  bottom: "res2b"
  top: "res2c_branch2a"
  convolution_param {
    num_output: 64
    bias_term: false
    pad: 0
    kernel_size: 1
    stride: 1
    weight_filler {
      type: "xavier"
    }
    bias_filler {
      type: "constant"
      value: 0.2
    }
  }
}
layer {
  name: "bn2c_branch2a"
  type: "BatchNorm"
  bottom: "res2c_branch2a"
  top: "res2c_branch2a"
  batch_norm_param {
  }
}
layer {
  name: "scale2c_branch2a"
  type: "Scale"
  bottom: "res2c_branch2a"
  top: "res2c_branch2a"
  scale_param {
    bias_term: true
  }
}
layer {
  name: "res2c_branch2a_relu"
  type: "ReLU"
  bottom: "res2c_branch2a"
  top: "res2c_branch2a"
}
layer {
  name: "res2c_branch2b"
  type: "Convolution"
  bottom: "res2c_branch2a"
  top: "res2c_branch2b"
  convolution_param {
    num_output: 64
    bias_term: false
    pad: 1
    kernel_size: 3
    stride: 1
    weight_filler {
      type: "xavier"
    }
    bias_filler {
      type: "constant"
      value: 0.2
    }
  }
}
layer {
  name: "bn2c_branch2b"
  type: "BatchNorm"
  bottom: "res2c_branch2b"
  top: "res2c_branch2b"
  batch_norm_param {
  }
}
layer {
  name: "scale2c_branch2b"
  type: "Scale"
  bottom: "res2c_branch2b"
  top: "res2c_branch2b"
  scale_param {
    bias_term: true
  }
}
layer {
  name: "res2c_branch2b_relu"
  type: "ReLU"
  bottom: "res2c_branch2b"
  top: "res2c_branch2b"
}
layer {
  name: "res2c_branch2c"
  type: "Convolution"
  bottom: "res2c_branch2b"
  top: "res2c_branch2c"
  convolution_param {
    num_output: 256
    bias_term: false
    pad: 0
    kernel_size: 1
    stride: 1
    weight_filler {
      type: "xavier"
    }
    bias_filler {
      type: "constant"
      value: 0.2
    }
  }
}
layer {
  name: "bn2c_branch2c"
  type: "BatchNorm"
  bottom: "res2c_branch2c"
  top: "res2c_branch2c"
  batch_norm_param {
  }
}
layer {
  name: "scale2c_branch2c"
  type: "Scale"
  bottom: "res2c_branch2c"
  top: "res2c_branch2c"
  scale_param {
    bias_term: true
  }
}
layer {
  name: "res2c"
  type: "Eltwise"
  bottom: "res2b"
  bottom: "res2c_branch2c"
  top: "res2c"
}
layer {
  name: "res2c_relu"
  type: "ReLU"
  bottom: "res2c"
  top: "res2c"
}
layer {
  name: "res3a_branch1"
  type: "Convolution"
  bottom: "res2c"
  top: "res3a_branch1"
  convolution_param {
    num_output: 512
    bias_term: false
    pad: 0
    kernel_size: 1
    stride: 2
    weight_filler {
      type: "xavier"
    }
    bias_filler {
      type: "constant"
      value: 0.2
    }
  }
}
layer {
  name: "bn3a_branch1"
  type: "BatchNorm"
  bottom: "res3a_branch1"
  top: "res3a_branch1"
  batch_norm_param {
  }
}
layer {
  name: "scale3a_branch1"
  type: "Scale"
  bottom: "res3a_branch1"
  top: "res3a_branch1"
  scale_param {
    bias_term: true
  }
}
layer {
  name: "res3a_branch2a"
  type: "Convolution"
  bottom: "res2c"
  top: "res3a_branch2a"
  convolution_param {
    num_output: 128
    bias_term: false
    pad: 0
    kernel_size: 1
    stride: 2
    weight_filler {
      type: "xavier"
    }
    bias_filler {
      type: "constant"
      value: 0.2
    }
  }
}
layer {
  name: "bn3a_branch2a"
  type: "BatchNorm"
  bottom: "res3a_branch2a"
  top: "res3a_branch2a"
  batch_norm_param {
  }
}
layer {
  name: "scale3a_branch2a"
  type: "Scale"
  bottom: "res3a_branch2a"
  top: "res3a_branch2a"
  scale_param {
    bias_term: true
  }
}
layer {
  name: "res3a_branch2a_relu"
  type: "ReLU"
  bottom: "res3a_branch2a"
  top: "res3a_branch2a"
}
layer {
  name: "res3a_branch2b"
  type: "Convolution"
  bottom: "res3a_branch2a"
  top: "res3a_branch2b"
  convolution_param {
    num_output: 128
    bias_term: false
    pad: 1
    kernel_size: 3
    stride: 1
    weight_filler {
      type: "xavier"
    }
    bias_filler {
      type: "constant"
      value: 0.2
    }
  }
}
layer {
  name: "bn3a_branch2b"
  type: "BatchNorm"
  bottom: "res3a_branch2b"
  top: "res3a_branch2b"
  batch_norm_param {
  }
}
layer {
  name: "scale3a_branch2b"
  type: "Scale"
  bottom: "res3a_branch2b"
  top: "res3a_branch2b"
  scale_param {
    bias_term: true
  }
}
layer {
  name: "res3a_branch2b_relu"
  type: "ReLU"
  bottom: "res3a_branch2b"
  top: "res3a_branch2b"
}
layer {
  name: "res3a_branch2c"
  type: "Convolution"
  bottom: "res3a_branch2b"
  top: "res3a_branch2c"
  convolution_param {
    num_output: 512
    bias_term: false
    pad: 0
    kernel_size: 1
    stride: 1
    weight_filler {
      type: "xavier"
    }
    bias_filler {
      type: "constant"
      value: 0.2
    }
  }
}
layer {
  name: "bn3a_branch2c"
  type: "BatchNorm"
  bottom: "res3a_branch2c"
  top: "res3a_branch2c"
  batch_norm_param {
  }
}
layer {
  name: "scale3a_branch2c"
  type: "Scale"
  bottom: "res3a_branch2c"
  top: "res3a_branch2c"
  scale_param {
    bias_term: true
  }
}
layer {
  name: "res3a"
  type: "Eltwise"
  bottom: "res3a_branch1"
  bottom: "res3a_branch2c"
  top: "res3a"
}
layer {
  name: "res3a_relu"
  type: "ReLU"
  bottom: "res3a"
  top: "res3a"
}
layer {
  name: "res3b_branch2a"
  type: "Convolution"
  bottom: "res3a"
  top: "res3b_branch2a"
  convolution_param {
    num_output: 128
    bias_term: false
    pad: 0
    kernel_size: 1
    stride: 1
    weight_filler {
      type: "xavier"
    }
    bias_filler {
      type: "constant"
      value: 0.2
    }
  }
}
layer {
  name: "bn3b_branch2a"
  type: "BatchNorm"
  bottom: "res3b_branch2a"
  top: "res3b_branch2a"
  batch_norm_param {
  }
}
layer {
  name: "scale3b_branch2a"
  type: "Scale"
  bottom: "res3b_branch2a"
  top: "res3b_branch2a"
  scale_param {
    bias_term: true
  }
}
layer {
  name: "res3b_branch2a_relu"
  type: "ReLU"
  bottom: "res3b_branch2a"
  top: "res3b_branch2a"
}
layer {
  name: "res3b_branch2b"
  type: "Convolution"
  bottom: "res3b_branch2a"
  top: "res3b_branch2b"
  convolution_param {
    num_output: 128
    bias_term: false
    pad: 1
    kernel_size: 3
    stride: 1
    weight_filler {
      type: "xavier"
    }
    bias_filler {
      type: "constant"
      value: 0.2
    }
  }
}
layer {
  name: "bn3b_branch2b"
  type: "BatchNorm"
  bottom: "res3b_branch2b"
  top: "res3b_branch2b"
  batch_norm_param {
  }
}
layer {
  name: "scale3b_branch2b"
  type: "Scale"
  bottom: "res3b_branch2b"
  top: "res3b_branch2b"
  scale_param {
    bias_term: true
  }
}
layer {
  name: "res3b_branch2b_relu"
  type: "ReLU"
  bottom: "res3b_branch2b"
  top: "res3b_branch2b"
}
layer {
  name: "res3b_branch2c"
  type: "Convolution"
  bottom: "res3b_branch2b"
  top: "res3b_branch2c"
  convolution_param {
    num_output: 512
    bias_term: false
    pad: 0
    kernel_size: 1
    stride: 1
    weight_filler {
      type: "xavier"
    }
    bias_filler {
      type: "constant"
      value: 0.2
    }
  }
}
layer {
  name: "bn3b_branch2c"
  type: "BatchNorm"
  bottom: "res3b_branch2c"
  top: "res3b_branch2c"
  batch_norm_param {
  }
}
layer {
  name: "scale3b_branch2c"
  type: "Scale"
  bottom: "res3b_branch2c"
  top: "res3b_branch2c"
  scale_param {
    bias_term: true
  }
}
layer {
  name: "res3b"
  type: "Eltwise"
  bottom: "res3a"
  bottom: "res3b_branch2c"
  top: "res3b"
}
layer {
  name: "res3b_relu"
  type: "ReLU"
  bottom: "res3b"
  top: "res3b"
}
layer {
  name: "res3c_branch2a"
  type: "Convolution"
  bottom: "res3b"
  top: "res3c_branch2a"
  convolution_param {
    num_output: 128
    bias_term: false
    pad: 0
    kernel_size: 1
    stride: 1
    weight_filler {
      type: "xavier"
    }
    bias_filler {
      type: "constant"
      value: 0.2
    }
  }
}
layer {
  name: "bn3c_branch2a"
  type: "BatchNorm"
  bottom: "res3c_branch2a"
  top: "res3c_branch2a"
  batch_norm_param {
  }
}
layer {
  name: "scale3c_branch2a"
  type: "Scale"
  bottom: "res3c_branch2a"
  top: "res3c_branch2a"
  scale_param {
    bias_term: true
  }
}
layer {
  name: "res3c_branch2a_relu"
  type: "ReLU"
  bottom: "res3c_branch2a"
  top: "res3c_branch2a"
}
layer {
  name: "res3c_branch2b"
  type: "Convolution"
  bottom: "res3c_branch2a"
  top: "res3c_branch2b"
  convolution_param {
    num_output: 128
    bias_term: false
    pad: 1
    kernel_size: 3
    stride: 1
    weight_filler {
      type: "xavier"
    }
    bias_filler {
      type: "constant"
      value: 0.2
    }
  }
}
layer {
  name: "bn3c_branch2b"
  type: "BatchNorm"
  bottom: "res3c_branch2b"
  top: "res3c_branch2b"
  batch_norm_param {
  }
}
layer {
  name: "scale3c_branch2b"
  type: "Scale"
  bottom: "res3c_branch2b"
  top: "res3c_branch2b"
  scale_param {
    bias_term: true
  }
}
layer {
  name: "res3c_branch2b_relu"
  type: "ReLU"
  bottom: "res3c_branch2b"
  top: "res3c_branch2b"
}
layer {
  name: "res3c_branch2c"
  type: "Convolution"
  bottom: "res3c_branch2b"
  top: "res3c_branch2c"
  convolution_param {
    num_output: 512
    bias_term: false
    pad: 0
    kernel_size: 1
    stride: 1
    weight_filler {
      type: "xavier"
    }
    bias_filler {
      type: "constant"
      value: 0.2
    }
  }
}
layer {
  name: "bn3c_branch2c"
  type: "BatchNorm"
  bottom: "res3c_branch2c"
  top: "res3c_branch2c"
  batch_norm_param {
  }
}
layer {
  name: "scale3c_branch2c"
  type: "Scale"
  bottom: "res3c_branch2c"
  top: "res3c_branch2c"
  scale_param {
    bias_term: true
  }
}
layer {
  name: "res3c"
  type: "Eltwise"
  bottom: "res3b"
  bottom: "res3c_branch2c"
  top: "res3c"
}
layer {
  name: "res3c_relu"
  type: "ReLU"
  bottom: "res3c"
  top: "res3c"
}
layer {
  name: "res3d_branch2a"
  type: "Convolution"
  bottom: "res3c"
  top: "res3d_branch2a"
  convolution_param {
    num_output: 128
    bias_term: false
    pad: 0
    kernel_size: 1
    stride: 1
    weight_filler {
      type: "xavier"
    }
    bias_filler {
      type: "constant"
      value: 0.2
    }
  }
}
layer {
  name: "bn3d_branch2a"
  type: "BatchNorm"
  bottom: "res3d_branch2a"
  top: "res3d_branch2a"
  batch_norm_param {
  }
}
layer {
  name: "scale3d_branch2a"
  type: "Scale"
  bottom: "res3d_branch2a"
  top: "res3d_branch2a"
  scale_param {
    bias_term: true
  }
}
layer {
  name: "res3d_branch2a_relu"
  type: "ReLU"
  bottom: "res3d_branch2a"
  top: "res3d_branch2a"
}
layer {
  name: "res3d_branch2b"
  type: "Convolution"
  bottom: "res3d_branch2a"
  top: "res3d_branch2b"
  convolution_param {
    num_output: 128
    bias_term: false
    pad: 1
    kernel_size: 3
    stride: 1
    weight_filler {
      type: "xavier"
    }
    bias_filler {
      type: "constant"
      value: 0.2
    }
  }
}
layer {
  name: "bn3d_branch2b"
  type: "BatchNorm"
  bottom: "res3d_branch2b"
  top: "res3d_branch2b"
  batch_norm_param {
  }
}
layer {
  name: "scale3d_branch2b"
  type: "Scale"
  bottom: "res3d_branch2b"
  top: "res3d_branch2b"
  scale_param {
    bias_term: true
  }
}
layer {
  name: "res3d_branch2b_relu"
  type: "ReLU"
  bottom: "res3d_branch2b"
  top: "res3d_branch2b"
}
layer {
  name: "res3d_branch2c"
  type: "Convolution"
  bottom: "res3d_branch2b"
  top: "res3d_branch2c"
  convolution_param {
    num_output: 512
    bias_term: false
    pad: 0
    kernel_size: 1
    stride: 1
    weight_filler {
      type: "xavier"
    }
    bias_filler {
      type: "constant"
      value: 0.2
    }
  }
}
layer {
  name: "bn3d_branch2c"
  type: "BatchNorm"
  bottom: "res3d_branch2c"
  top: "res3d_branch2c"
  batch_norm_param {
  }
}
layer {
  name: "scale3d_branch2c"
  type: "Scale"
  bottom: "res3d_branch2c"
  top: "res3d_branch2c"
  scale_param {
    bias_term: true
  }
}
layer {
  name: "res3d"
  type: "Eltwise"
  bottom: "res3c"
  bottom: "res3d_branch2c"
  top: "res3d"
}
layer {
  name: "res3d_relu"
  type: "ReLU"
  bottom: "res3d"
  top: "res3d"
}
layer {
  name: "res4a_branch1"
  type: "Convolution"
  bottom: "res3d"
  top: "res4a_branch1"
  convolution_param {
    num_output: 1024
    bias_term: false
    pad: 0
    kernel_size: 1
    stride: 2
    weight_filler {
      type: "xavier"
    }
    bias_filler {
      type: "constant"
      value: 0.2
    }
  }
}
layer {
  name: "bn4a_branch1"
  type: "BatchNorm"
  bottom: "res4a_branch1"
  top: "res4a_branch1"
  batch_norm_param {
  }
}
layer {
  name: "scale4a_branch1"
  type: "Scale"
  bottom: "res4a_branch1"
  top: "res4a_branch1"
  scale_param {
    bias_term: true
  }
}
layer {
  name: "res4a_branch2a"
  type: "Convolution"
  bottom: "res3d"
  top: "res4a_branch2a"
  convolution_param {
    num_output: 256
    bias_term: false
    pad: 0
    kernel_size: 1
    stride: 2
    weight_filler {
      type: "xavier"
    }
    bias_filler {
      type: "constant"
      value: 0.2
    }
  }
}
layer {
  name: "bn4a_branch2a"
  type: "BatchNorm"
  bottom: "res4a_branch2a"
  top: "res4a_branch2a"
  batch_norm_param {
  }
}
layer {
  name: "scale4a_branch2a"
  type: "Scale"
  bottom: "res4a_branch2a"
  top: "res4a_branch2a"
  scale_param {
    bias_term: true
  }
}
layer {
  name: "res4a_branch2a_relu"
  type: "ReLU"
  bottom: "res4a_branch2a"
  top: "res4a_branch2a"
}
layer {
  name: "res4a_branch2b"
  type: "Convolution"
  bottom: "res4a_branch2a"
  top: "res4a_branch2b"
  convolution_param {
    num_output: 256
    bias_term: false
    pad: 1
    kernel_size: 3
    stride: 1
    weight_filler {
      type: "xavier"
    }
    bias_filler {
      type: "constant"
      value: 0.2
    }
  }
}
layer {
  name: "bn4a_branch2b"
  type: "BatchNorm"
  bottom: "res4a_branch2b"
  top: "res4a_branch2b"
  batch_norm_param {
  }
}
layer {
  name: "scale4a_branch2b"
  type: "Scale"
  bottom: "res4a_branch2b"
  top: "res4a_branch2b"
  scale_param {
    bias_term: true
  }
}
layer {
  name: "res4a_branch2b_relu"
  type: "ReLU"
  bottom: "res4a_branch2b"
  top: "res4a_branch2b"
}
layer {
  name: "res4a_branch2c"
  type: "Convolution"
  bottom: "res4a_branch2b"
  top: "res4a_branch2c"
  convolution_param {
    num_output: 1024
    bias_term: false
    pad: 0
    kernel_size: 1
    stride: 1
    weight_filler {
      type: "xavier"
    }
    bias_filler {
      type: "constant"
      value: 0.2
    }
  }
}
layer {
  name: "bn4a_branch2c"
  type: "BatchNorm"
  bottom: "res4a_branch2c"
  top: "res4a_branch2c"
  batch_norm_param {
  }
}
layer {
  name: "scale4a_branch2c"
  type: "Scale"
  bottom: "res4a_branch2c"
  top: "res4a_branch2c"
  scale_param {
    bias_term: true
  }
}
layer {
  name: "res4a"
  type: "Eltwise"
  bottom: "res4a_branch1"
  bottom: "res4a_branch2c"
  top: "res4a"
}
layer {
  name: "res4a_relu"
  type: "ReLU"
  bottom: "res4a"
  top: "res4a"
}
layer {
  name: "res4b_branch2a"
  type: "Convolution"
  bottom: "res4a"
  top: "res4b_branch2a"
  convolution_param {
    num_output: 256
    bias_term: false
    pad: 0
    kernel_size: 1
    stride: 1
    weight_filler {
      type: "xavier"
    }
    bias_filler {
      type: "constant"
      value: 0.2
    }
  }
}
layer {
  name: "bn4b_branch2a"
  type: "BatchNorm"
  bottom: "res4b_branch2a"
  top: "res4b_branch2a"
  batch_norm_param {
  }
}
layer {
  name: "scale4b_branch2a"
  type: "Scale"
  bottom: "res4b_branch2a"
  top: "res4b_branch2a"
  scale_param {
    bias_term: true
  }
}
layer {
  name: "res4b_branch2a_relu"
  type: "ReLU"
  bottom: "res4b_branch2a"
  top: "res4b_branch2a"
}
layer {
  name: "res4b_branch2b"
  type: "Convolution"
  bottom: "res4b_branch2a"
  top: "res4b_branch2b"
  convolution_param {
    num_output: 256
    bias_term: false
    pad: 1
    kernel_size: 3
    stride: 1
    weight_filler {
      type: "xavier"
    }
    bias_filler {
      type: "constant"
      value: 0.2
    }
  }
}
layer {
  name: "bn4b_branch2b"
  type: "BatchNorm"
  bottom: "res4b_branch2b"
  top: "res4b_branch2b"
  batch_norm_param {
  }
}
layer {
  name: "scale4b_branch2b"
  type: "Scale"
  bottom: "res4b_branch2b"
  top: "res4b_branch2b"
  scale_param {
    bias_term: true
  }
}
layer {
  name: "res4b_branch2b_relu"
  type: "ReLU"
  bottom: "res4b_branch2b"
  top: "res4b_branch2b"
}
layer {
  name: "res4b_branch2c"
  type: "Convolution"
  bottom: "res4b_branch2b"
  top: "res4b_branch2c"
  convolution_param {
    num_output: 1024
    bias_term: false
    pad: 0
    kernel_size: 1
    stride: 1
    weight_filler {
      type: "xavier"
    }
    bias_filler {
      type: "constant"
      value: 0.2
    }
  }
}
layer {
  name: "bn4b_branch2c"
  type: "BatchNorm"
  bottom: "res4b_branch2c"
  top: "res4b_branch2c"
  batch_norm_param {
  }
}
layer {
  name: "scale4b_branch2c"
  type: "Scale"
  bottom: "res4b_branch2c"
  top: "res4b_branch2c"
  scale_param {
    bias_term: true
  }
}
layer {
  name: "res4b"
  type: "Eltwise"
  bottom: "res4a"
  bottom: "res4b_branch2c"
  top: "res4b"
}
layer {
  name: "res4b_relu"
  type: "ReLU"
  bottom: "res4b"
  top: "res4b"
}
layer {
  name: "res4c_branch2a"
  type: "Convolution"
  bottom: "res4b"
  top: "res4c_branch2a"
  convolution_param {
    num_output: 256
    bias_term: false
    pad: 0
    kernel_size: 1
    stride: 1
    weight_filler {
      type: "xavier"
    }
    bias_filler {
      type: "constant"
      value: 0.2
    }
  }
}
layer {
  name: "bn4c_branch2a"
  type: "BatchNorm"
  bottom: "res4c_branch2a"
  top: "res4c_branch2a"
  batch_norm_param {
  }
}
layer {
  name: "scale4c_branch2a"
  type: "Scale"
  bottom: "res4c_branch2a"
  top: "res4c_branch2a"
  scale_param {
    bias_term: true
  }
}
layer {
  name: "res4c_branch2a_relu"
  type: "ReLU"
  bottom: "res4c_branch2a"
  top: "res4c_branch2a"
}
layer {
  name: "res4c_branch2b"
  type: "Convolution"
  bottom: "res4c_branch2a"
  top: "res4c_branch2b"
  convolution_param {
    num_output: 256
    bias_term: false
    pad: 1
    kernel_size: 3
    stride: 1
    weight_filler {
      type: "xavier"
    }
    bias_filler {
      type: "constant"
      value: 0.2
    }
  }
}
layer {
  name: "bn4c_branch2b"
  type: "BatchNorm"
  bottom: "res4c_branch2b"
  top: "res4c_branch2b"
  batch_norm_param {
  }
}
layer {
  name: "scale4c_branch2b"
  type: "Scale"
  bottom: "res4c_branch2b"
  top: "res4c_branch2b"
  scale_param {
    bias_term: true
  }
}
layer {
  name: "res4c_branch2b_relu"
  type: "ReLU"
  bottom: "res4c_branch2b"
  top: "res4c_branch2b"
}
layer {
  name: "res4c_branch2c"
  type: "Convolution"
  bottom: "res4c_branch2b"
  top: "res4c_branch2c"
  convolution_param {
    num_output: 1024
    bias_term: false
    pad: 0
    kernel_size: 1
    stride: 1
    weight_filler {
      type: "xavier"
    }
    bias_filler {
      type: "constant"
      value: 0.2
    }
  }
}
layer {
  name: "bn4c_branch2c"
  type: "BatchNorm"
  bottom: "res4c_branch2c"
  top: "res4c_branch2c"
  batch_norm_param {
  }
}
layer {
  name: "scale4c_branch2c"
  type: "Scale"
  bottom: "res4c_branch2c"
  top: "res4c_branch2c"
  scale_param {
    bias_term: true
  }
}
layer {
  name: "res4c"
  type: "Eltwise"
  bottom: "res4b"
  bottom: "res4c_branch2c"
  top: "res4c"
}
layer {
  name: "res4c_relu"
  type: "ReLU"
  bottom: "res4c"
  top: "res4c"
}
layer {
  name: "res4d_branch2a"
  type: "Convolution"
  bottom: "res4c"
  top: "res4d_branch2a"
  convolution_param {
    num_output: 256
    bias_term: false
    pad: 0
    kernel_size: 1
    stride: 1
    weight_filler {
      type: "xavier"
    }
    bias_filler {
      type: "constant"
      value: 0.2
    }
  }
}
layer {
  name: "bn4d_branch2a"
  type: "BatchNorm"
  bottom: "res4d_branch2a"
  top: "res4d_branch2a"
  batch_norm_param {
  }
}
layer {
  name: "scale4d_branch2a"
  type: "Scale"
  bottom: "res4d_branch2a"
  top: "res4d_branch2a"
  scale_param {
    bias_term: true
  }
}
layer {
  name: "res4d_branch2a_relu"
  type: "ReLU"
  bottom: "res4d_branch2a"
  top: "res4d_branch2a"
}
layer {
  name: "res4d_branch2b"
  type: "Convolution"
  bottom: "res4d_branch2a"
  top: "res4d_branch2b"
  convolution_param {
    num_output: 256
    bias_term: false
    pad: 1
    kernel_size: 3
    stride: 1
    weight_filler {
      type: "xavier"
    }
    bias_filler {
      type: "constant"
      value: 0.2
    }
  }
}
layer {
  name: "bn4d_branch2b"
  type: "BatchNorm"
  bottom: "res4d_branch2b"
  top: "res4d_branch2b"
  batch_norm_param {
  }
}
layer {
  name: "scale4d_branch2b"
  type: "Scale"
  bottom: "res4d_branch2b"
  top: "res4d_branch2b"
  scale_param {
    bias_term: true
  }
}
layer {
  name: "res4d_branch2b_relu"
  type: "ReLU"
  bottom: "res4d_branch2b"
  top: "res4d_branch2b"
}
layer {
  name: "res4d_branch2c"
  type: "Convolution"
  bottom: "res4d_branch2b"
  top: "res4d_branch2c"
  convolution_param {
    num_output: 1024
    bias_term: false
    pad: 0
    kernel_size: 1
    stride: 1
    weight_filler {
      type: "xavier"
    }
    bias_filler {
      type: "constant"
      value: 0.2
    }
  }
}
layer {
  name: "bn4d_branch2c"
  type: "BatchNorm"
  bottom: "res4d_branch2c"
  top: "res4d_branch2c"
  batch_norm_param {
  }
}
layer {
  name: "scale4d_branch2c"
  type: "Scale"
  bottom: "res4d_branch2c"
  top: "res4d_branch2c"
  scale_param {
    bias_term: true
  }
}
layer {
  name: "res4d"
  type: "Eltwise"
  bottom: "res4c"
  bottom: "res4d_branch2c"
  top: "res4d"
}
layer {
  name: "res4d_relu"
  type: "ReLU"
  bottom: "res4d"
  top: "res4d"
}
layer {
  name: "res4e_branch2a"
  type: "Convolution"
  bottom: "res4d"
  top: "res4e_branch2a"
  convolution_param {
    num_output: 256
    bias_term: false
    pad: 0
    kernel_size: 1
    stride: 1
    weight_filler {
      type: "xavier"
    }
    bias_filler {
      type: "constant"
      value: 0.2
    }
  }
}
layer {
  name: "bn4e_branch2a"
  type: "BatchNorm"
  bottom: "res4e_branch2a"
  top: "res4e_branch2a"
  batch_norm_param {
  }
}
layer {
  name: "scale4e_branch2a"
  type: "Scale"
  bottom: "res4e_branch2a"
  top: "res4e_branch2a"
  scale_param {
    bias_term: true
  }
}
layer {
  name: "res4e_branch2a_relu"
  type: "ReLU"
  bottom: "res4e_branch2a"
  top: "res4e_branch2a"
}
layer {
  name: "res4e_branch2b"
  type: "Convolution"
  bottom: "res4e_branch2a"
  top: "res4e_branch2b"
  convolution_param {
    num_output: 256
    bias_term: false
    pad: 1
    kernel_size: 3
    stride: 1
    weight_filler {
      type: "xavier"
    }
    bias_filler {
      type: "constant"
      value: 0.2
    }
  }
}
layer {
  name: "bn4e_branch2b"
  type: "BatchNorm"
  bottom: "res4e_branch2b"
  top: "res4e_branch2b"
  batch_norm_param {
  }
}
layer {
  name: "scale4e_branch2b"
  type: "Scale"
  bottom: "res4e_branch2b"
  top: "res4e_branch2b"
  scale_param {
    bias_term: true
  }
}
layer {
  name: "res4e_branch2b_relu"
  type: "ReLU"
  bottom: "res4e_branch2b"
  top: "res4e_branch2b"
}
layer {
  name: "res4e_branch2c"
  type: "Convolution"
  bottom: "res4e_branch2b"
  top: "res4e_branch2c"
  convolution_param {
    num_output: 1024
    bias_term: false
    pad: 0
    kernel_size: 1
    stride: 1
    weight_filler {
      type: "xavier"
    }
    bias_filler {
      type: "constant"
      value: 0.2
    }
  }
}
layer {
  name: "bn4e_branch2c"
  type: "BatchNorm"
  bottom: "res4e_branch2c"
  top: "res4e_branch2c"
  batch_norm_param {
  }
}
layer {
  name: "scale4e_branch2c"
  type: "Scale"
  bottom: "res4e_branch2c"
  top: "res4e_branch2c"
  scale_param {
    bias_term: true
  }
}
layer {
  name: "res4e"
  type: "Eltwise"
  bottom: "res4d"
  bottom: "res4e_branch2c"
  top: "res4e"
}
layer {
  name: "res4e_relu"
  type: "ReLU"
  bottom: "res4e"
  top: "res4e"
}
layer {
  name: "res4f_branch2a"
  type: "Convolution"
  bottom: "res4e"
  top: "res4f_branch2a"
  convolution_param {
    num_output: 256
    bias_term: false
    pad: 0
    kernel_size: 1
    stride: 1
    weight_filler {
      type: "xavier"
    }
    bias_filler {
      type: "constant"
      value: 0.2
    }
  }
}
layer {
  name: "bn4f_branch2a"
  type: "BatchNorm"
  bottom: "res4f_branch2a"
  top: "res4f_branch2a"
  batch_norm_param {
  }
}
layer {
  name: "scale4f_branch2a"
  type: "Scale"
  bottom: "res4f_branch2a"
  top: "res4f_branch2a"
  scale_param {
    bias_term: true
  }
I0526 18:18:36.256567  1208 layer_factory.hpp:77] Creating layer resnet_50
I0526 18:18:36.256659  1208 db_lmdb.cpp:35] Opened lmdb /home/kapitan/Desktop/caffe/data/mammo/train_lmdb
I0526 18:18:36.256711  1208 net.cpp:84] Creating Layer resnet_50
I0526 18:18:36.256718  1208 net.cpp:380] resnet_50 -> data
I0526 18:18:36.256737  1208 net.cpp:380] resnet_50 -> label
I0526 18:18:36.256755  1208 data_transformer.cpp:25] Loading mean file from: /home/kapitan/Desktop/caffe/data/mammo/mammogram_mean.binaryproto
I0526 18:18:36.259593  1208 data_layer.cpp:45] output data size: 16,3,224,224
I0526 18:18:36.277878  1208 net.cpp:122] Setting up resnet_50
I0526 18:18:36.277921  1208 net.cpp:129] Top shape: 16 3 224 224 (2408448)
I0526 18:18:36.277925  1208 net.cpp:129] Top shape: 16 (16)
I0526 18:18:36.277930  1208 net.cpp:137] Memory required for data: 9633856
I0526 18:18:36.277953  1208 layer_factory.hpp:77] Creating layer conv1
I0526 18:18:36.277971  1208 net.cpp:84] Creating Layer conv1
I0526 18:18:36.277981  1208 net.cpp:406] conv1 <- data
I0526 18:18:36.278007  1208 net.cpp:380] conv1 -> conv1
I0526 18:18:36.684944  1208 net.cpp:122] Setting up conv1
I0526 18:18:36.684983  1208 net.cpp:129] Top shape: 16 64 112 112 (12845056)
I0526 18:18:36.684986  1208 net.cpp:137] Memory required for data: 61014080
I0526 18:18:36.685021  1208 layer_factory.hpp:77] Creating layer bn_conv1
I0526 18:18:36.685051  1208 net.cpp:84] Creating Layer bn_conv1
I0526 18:18:36.685060  1208 net.cpp:406] bn_conv1 <- conv1
I0526 18:18:36.685065  1208 net.cpp:367] bn_conv1 -> conv1 (in-place)
I0526 18:18:36.685240  1208 net.cpp:122] Setting up bn_conv1
I0526 18:18:36.685271  1208 net.cpp:129] Top shape: 16 64 112 112 (12845056)
I0526 18:18:36.685276  1208 net.cpp:137] Memory required for data: 112394304
I0526 18:18:36.685299  1208 layer_factory.hpp:77] Creating layer scale_conv1
I0526 18:18:36.685305  1208 net.cpp:84] Creating Layer scale_conv1
I0526 18:18:36.685328  1208 net.cpp:406] scale_conv1 <- conv1
I0526 18:18:36.685333  1208 net.cpp:367] scale_conv1 -> conv1 (in-place)
I0526 18:18:36.685380  1208 layer_factory.hpp:77] Creating layer scale_conv1
I0526 18:18:36.685542  1208 net.cpp:122] Setting up scale_conv1
I0526 18:18:36.685549  1208 net.cpp:129] Top shape: 16 64 112 112 (12845056)
I0526 18:18:36.685551  1208 net.cpp:137] Memory required for data: 163774528
I0526 18:18:36.685556  1208 layer_factory.hpp:77] Creating layer conv1_relu
I0526 18:18:36.685561  1208 net.cpp:84] Creating Layer conv1_relu
I0526 18:18:36.685564  1208 net.cpp:406] conv1_relu <- conv1
I0526 18:18:36.685569  1208 net.cpp:367] conv1_relu -> conv1 (in-place)
I0526 18:18:36.685788  1208 net.cpp:122] Setting up conv1_relu
I0526 18:18:36.685796  1208 net.cpp:129] Top shape: 16 64 112 112 (12845056)
I0526 18:18:36.685813  1208 net.cpp:137] Memory required for data: 215154752
I0526 18:18:36.685817  1208 layer_factory.hpp:77] Creating layer pool1
I0526 18:18:36.685822  1208 net.cpp:84] Creating Layer pool1
I0526 18:18:36.685838  1208 net.cpp:406] pool1 <- conv1
I0526 18:18:36.685842  1208 net.cpp:380] pool1 -> pool1
I0526 18:18:36.685907  1208 net.cpp:122] Setting up pool1
I0526 18:18:36.685925  1208 net.cpp:129] Top shape: 16 64 56 56 (3211264)
I0526 18:18:36.685928  1208 net.cpp:137] Memory required for data: 227999808
I0526 18:18:36.685931  1208 layer_factory.hpp:77] Creating layer pool1_pool1_0_split
I0526 18:18:36.685950  1208 net.cpp:84] Creating Layer pool1_pool1_0_split
I0526 18:18:36.685953  1208 net.cpp:406] pool1_pool1_0_split <- pool1
I0526 18:18:36.685957  1208 net.cpp:380] pool1_pool1_0_split -> pool1_pool1_0_split_0
I0526 18:18:36.685978  1208 net.cpp:380] pool1_pool1_0_split -> pool1_pool1_0_split_1
I0526 18:18:36.686018  1208 net.cpp:122] Setting up pool1_pool1_0_split
I0526 18:18:36.686036  1208 net.cpp:129] Top shape: 16 64 56 56 (3211264)
I0526 18:18:36.686040  1208 net.cpp:129] Top shape: 16 64 56 56 (3211264)
I0526 18:18:36.686043  1208 net.cpp:137] Memory required for data: 253689920
I0526 18:18:36.686059  1208 layer_factory.hpp:77] Creating layer res2a_branch1
I0526 18:18:36.686067  1208 net.cpp:84] Creating Layer res2a_branch1
I0526 18:18:36.686084  1208 net.cpp:406] res2a_branch1 <- pool1_pool1_0_split_0
I0526 18:18:36.686089  1208 net.cpp:380] res2a_branch1 -> res2a_branch1
I0526 18:18:36.687019  1208 net.cpp:122] Setting up res2a_branch1
I0526 18:18:36.687031  1208 net.cpp:129] Top shape: 16 256 56 56 (12845056)
I0526 18:18:36.687052  1208 net.cpp:137] Memory required for data: 305070144
I0526 18:18:36.687057  1208 layer_factory.hpp:77] Creating layer bn2a_branch1
I0526 18:18:36.687077  1208 net.cpp:84] Creating Layer bn2a_branch1
I0526 18:18:36.687081  1208 net.cpp:406] bn2a_branch1 <- res2a_branch1
I0526 18:18:36.687103  1208 net.cpp:367] bn2a_branch1 -> res2a_branch1 (in-place)
I0526 18:18:36.687901  1208 net.cpp:122] Setting up bn2a_branch1
I0526 18:18:36.687927  1208 net.cpp:129] Top shape: 16 256 56 56 (12845056)
I0526 18:18:36.687929  1208 net.cpp:137] Memory required for data: 356450368
I0526 18:18:36.687939  1208 layer_factory.hpp:77] Creating layer scale2a_branch1
I0526 18:18:36.687961  1208 net.cpp:84] Creating Layer scale2a_branch1
I0526 18:18:36.687980  1208 net.cpp:406] scale2a_branch1 <- res2a_branch1
I0526 18:18:36.687984  1208 net.cpp:367] scale2a_branch1 -> res2a_branch1 (in-place)
I0526 18:18:36.688032  1208 layer_factory.hpp:77] Creating layer scale2a_branch1
I0526 18:18:36.688189  1208 net.cpp:122] Setting up scale2a_branch1
I0526 18:18:36.688196  1208 net.cpp:129] Top shape: 16 256 56 56 (12845056)
I0526 18:18:36.688199  1208 net.cpp:137] Memory required for data: 407830592
I0526 18:18:36.688204  1208 layer_factory.hpp:77] Creating layer res2a_branch2a
I0526 18:18:36.688220  1208 net.cpp:84] Creating Layer res2a_branch2a
I0526 18:18:36.688225  1208 net.cpp:406] res2a_branch2a <- pool1_pool1_0_split_1
I0526 18:18:36.688230  1208 net.cpp:380] res2a_branch2a -> res2a_branch2a
I0526 18:18:36.689182  1208 net.cpp:122] Setting up res2a_branch2a
I0526 18:18:36.689208  1208 net.cpp:129] Top shape: 16 64 56 56 (3211264)
I0526 18:18:36.689211  1208 net.cpp:137] Memory required for data: 420675648
I0526 18:18:36.689216  1208 layer_factory.hpp:77] Creating layer bn2a_branch2a
I0526 18:18:36.689236  1208 net.cpp:84] Creating Layer bn2a_branch2a
I0526 18:18:36.689241  1208 net.cpp:406] bn2a_branch2a <- res2a_branch2a
I0526 18:18:36.689261  1208 net.cpp:367] bn2a_branch2a -> res2a_branch2a (in-place)
I0526 18:18:36.689440  1208 net.cpp:122] Setting up bn2a_branch2a
I0526 18:18:36.689445  1208 net.cpp:129] Top shape: 16 64 56 56 (3211264)
I0526 18:18:36.689462  1208 net.cpp:137] Memory required for data: 433520704
I0526 18:18:36.689471  1208 layer_factory.hpp:77] Creating layer scale2a_branch2a
I0526 18:18:36.689489  1208 net.cpp:84] Creating Layer scale2a_branch2a
I0526 18:18:36.689510  1208 net.cpp:406] scale2a_branch2a <- res2a_branch2a
I0526 18:18:36.689515  1208 net.cpp:367] scale2a_branch2a -> res2a_branch2a (in-place)
I0526 18:18:36.689586  1208 layer_factory.hpp:77] Creating layer scale2a_branch2a
I0526 18:18:36.689743  1208 net.cpp:122] Setting up scale2a_branch2a
I0526 18:18:36.689749  1208 net.cpp:129] Top shape: 16 64 56 56 (3211264)
I0526 18:18:36.689752  1208 net.cpp:137] Memory required for data: 446365760
I0526 18:18:36.689757  1208 layer_factory.hpp:77] Creating layer res2a_branch2a_relu
I0526 18:18:36.689761  1208 net.cpp:84] Creating Layer res2a_branch2a_relu
I0526 18:18:36.689764  1208 net.cpp:406] res2a_branch2a_relu <- res2a_branch2a
I0526 18:18:36.689769  1208 net.cpp:367] res2a_branch2a_relu -> res2a_branch2a (in-place)
I0526 18:18:36.689960  1208 net.cpp:122] Setting up res2a_branch2a_relu
I0526 18:18:36.689968  1208 net.cpp:129] Top shape: 16 64 56 56 (3211264)
I0526 18:18:36.689972  1208 net.cpp:137] Memory required for data: 459210816
I0526 18:18:36.689990  1208 layer_factory.hpp:77] Creating layer res2a_branch2b
I0526 18:18:36.689998  1208 net.cpp:84] Creating Layer res2a_branch2b
I0526 18:18:36.690002  1208 net.cpp:406] res2a_branch2b <- res2a_branch2a
I0526 18:18:36.690008  1208 net.cpp:380] res2a_branch2b -> res2a_branch2b
I0526 18:18:36.691644  1208 net.cpp:122] Setting up res2a_branch2b
I0526 18:18:36.691673  1208 net.cpp:129] Top shape: 16 64 56 56 (3211264)
I0526 18:18:36.691676  1208 net.cpp:137] Memory required for data: 472055872
I0526 18:18:36.691682  1208 layer_factory.hpp:77] Creating layer bn2a_branch2b
I0526 18:18:36.691689  1208 net.cpp:84] Creating Layer bn2a_branch2b
I0526 18:18:36.691706  1208 net.cpp:406] bn2a_branch2b <- res2a_branch2b
I0526 18:18:36.691712  1208 net.cpp:367] bn2a_branch2b -> res2a_branch2b (in-place)
I0526 18:18:36.691896  1208 net.cpp:122] Setting up bn2a_branch2b
I0526 18:18:36.691903  1208 net.cpp:129] Top shape: 16 64 56 56 (3211264)
I0526 18:18:36.691920  1208 net.cpp:137] Memory required for data: 484900928
I0526 18:18:36.691926  1208 layer_factory.hpp:77] Creating layer scale2a_branch2b
I0526 18:18:36.691951  1208 net.cpp:84] Creating Layer scale2a_branch2b
I0526 18:18:36.691953  1208 net.cpp:406] scale2a_branch2b <- res2a_branch2b
I0526 18:18:36.691970  1208 net.cpp:367] scale2a_branch2b -> res2a_branch2b (in-place)
I0526 18:18:36.692095  1208 layer_factory.hpp:77] Creating layer scale2a_branch2b
I0526 18:18:36.692242  1208 net.cpp:122] Setting up scale2a_branch2b
I0526 18:18:36.692250  1208 net.cpp:129] Top shape: 16 64 56 56 (3211264)
I0526 18:18:36.692252  1208 net.cpp:137] Memory required for data: 497745984
I0526 18:18:36.692270  1208 layer_factory.hpp:77] Creating layer res2a_branch2b_relu
I0526 18:18:36.692288  1208 net.cpp:84] Creating Layer res2a_branch2b_relu
I0526 18:18:36.692291  1208 net.cpp:406] res2a_branch2b_relu <- res2a_branch2b
I0526 18:18:36.692297  1208 net.cpp:367] res2a_branch2b_relu -> res2a_branch2b (in-place)
I0526 18:18:36.692729  1208 net.cpp:122] Setting up res2a_branch2b_relu
I0526 18:18:36.692754  1208 net.cpp:129] Top shape: 16 64 56 56 (3211264)
I0526 18:18:36.692757  1208 net.cpp:137] Memory required for data: 510591040
I0526 18:18:36.692760  1208 layer_factory.hpp:77] Creating layer res2a_branch2c
I0526 18:18:36.692782  1208 net.cpp:84] Creating Layer res2a_branch2c
I0526 18:18:36.692787  1208 net.cpp:406] res2a_branch2c <- res2a_branch2b
I0526 18:18:36.692809  1208 net.cpp:380] res2a_branch2c -> res2a_branch2c
I0526 18:18:36.693747  1208 net.cpp:122] Setting up res2a_branch2c
I0526 18:18:36.693756  1208 net.cpp:129] Top shape: 16 256 56 56 (12845056)
I0526 18:18:36.693774  1208 net.cpp:137] Memory required for data: 561971264
I0526 18:18:36.693779  1208 layer_factory.hpp:77] Creating layer bn2a_branch2c
I0526 18:18:36.693799  1208 net.cpp:84] Creating Layer bn2a_branch2c
I0526 18:18:36.693804  1208 net.cpp:406] bn2a_branch2c <- res2a_branch2c
I0526 18:18:36.693807  1208 net.cpp:367] bn2a_branch2c -> res2a_branch2c (in-place)
I0526 18:18:36.693995  1208 net.cpp:122] Setting up bn2a_branch2c
I0526 18:18:36.694016  1208 net.cpp:129] Top shape: 16 256 56 56 (12845056)
I0526 18:18:36.694020  1208 net.cpp:137] Memory required for data: 613351488
I0526 18:18:36.694025  1208 layer_factory.hpp:77] Creating layer scale2a_branch2c
I0526 18:18:36.694044  1208 net.cpp:84] Creating Layer scale2a_branch2c
I0526 18:18:36.694047  1208 net.cpp:406] scale2a_branch2c <- res2a_branch2c
I0526 18:18:36.694051  1208 net.cpp:367] scale2a_branch2c -> res2a_branch2c (in-place)
I0526 18:18:36.694084  1208 layer_factory.hpp:77] Creating layer scale2a_branch2c
I0526 18:18:36.694229  1208 net.cpp:122] Setting up scale2a_branch2c
I0526 18:18:36.694236  1208 net.cpp:129] Top shape: 16 256 56 56 (12845056)
I0526 18:18:36.694253  1208 net.cpp:137] Memory required for data: 664731712
I0526 18:18:36.694258  1208 layer_factory.hpp:77] Creating layer res2a
I0526 18:18:36.694265  1208 net.cpp:84] Creating Layer res2a
I0526 18:18:36.694268  1208 net.cpp:406] res2a <- res2a_branch1
I0526 18:18:36.694285  1208 net.cpp:406] res2a <- res2a_branch2c
I0526 18:18:36.694290  1208 net.cpp:380] res2a -> res2a
I0526 18:18:36.694314  1208 net.cpp:122] Setting up res2a
I0526 18:18:36.694332  1208 net.cpp:129] Top shape: 16 256 56 56 (12845056)
I0526 18:18:36.694334  1208 net.cpp:137] Memory required for data: 716111936
I0526 18:18:36.694337  1208 layer_factory.hpp:77] Creating layer res2a_relu
I0526 18:18:36.694342  1208 net.cpp:84] Creating Layer res2a_relu
I0526 18:18:36.694345  1208 net.cpp:406] res2a_relu <- res2a
I0526 18:18:36.694350  1208 net.cpp:367] res2a_relu -> res2a (in-place)
I0526 18:18:36.694527  1208 net.cpp:122] Setting up res2a_relu
I0526 18:18:36.694535  1208 net.cpp:129] Top shape: 16 256 56 56 (12845056)
I0526 18:18:36.694551  1208 net.cpp:137] Memory required for data: 767492160
I0526 18:18:36.694555  1208 layer_factory.hpp:77] Creating layer res2a_res2a_relu_0_split
I0526 18:18:36.694561  1208 net.cpp:84] Creating Layer res2a_res2a_relu_0_split
I0526 18:18:36.694564  1208 net.cpp:406] res2a_res2a_relu_0_split <- res2a
I0526 18:18:36.694571  1208 net.cpp:380] res2a_res2a_relu_0_split -> res2a_res2a_relu_0_split_0
I0526 18:18:36.694576  1208 net.cpp:380] res2a_res2a_relu_0_split -> res2a_res2a_relu_0_split_1
I0526 18:18:36.694607  1208 net.cpp:122] Setting up res2a_res2a_relu_0_split
I0526 18:18:36.694614  1208 net.cpp:129] Top shape: 16 256 56 56 (12845056)
I0526 18:18:36.694618  1208 net.cpp:129] Top shape: 16 256 56 56 (12845056)
I0526 18:18:36.694622  1208 net.cpp:137] Memory required for data: 870252608
I0526 18:18:36.694624  1208 layer_factory.hpp:77] Creating layer res2b_branch2a
I0526 18:18:36.694633  1208 net.cpp:84] Creating Layer res2b_branch2a
I0526 18:18:36.694635  1208 net.cpp:406] res2b_branch2a <- res2a_res2a_relu_0_split_0
I0526 18:18:36.694640  1208 net.cpp:380] res2b_branch2a -> res2b_branch2a
I0526 18:18:36.695567  1208 net.cpp:122] Setting up res2b_branch2a
I0526 18:18:36.695580  1208 net.cpp:129] Top shape: 16 64 56 56 (3211264)
I0526 18:18:36.695590  1208 net.cpp:137] Memory required for data: 883097664
I0526 18:18:36.695596  1208 layer_factory.hpp:77] Creating layer bn2b_branch2a
I0526 18:18:36.695603  1208 net.cpp:84] Creating Layer bn2b_branch2a
I0526 18:18:36.695607  1208 net.cpp:406] bn2b_branch2a <- res2b_branch2a
I0526 18:18:36.695613  1208 net.cpp:367] bn2b_branch2a -> res2b_branch2a (in-place)
I0526 18:18:36.695775  1208 net.cpp:122] Setting up bn2b_branch2a
I0526 18:18:36.695780  1208 net.cpp:129] Top shape: 16 64 56 56 (3211264)
I0526 18:18:36.695785  1208 net.cpp:137] Memory required for data: 895942720
I0526 18:18:36.695796  1208 layer_factory.hpp:77] Creating layer scale2b_branch2a
I0526 18:18:36.695802  1208 net.cpp:84] Creating Layer scale2b_branch2a
I0526 18:18:36.695806  1208 net.cpp:406] scale2b_branch2a <- res2b_branch2a
I0526 18:18:36.695811  1208 net.cpp:367] scale2b_branch2a -> res2b_branch2a (in-place)
I0526 18:18:36.695845  1208 layer_factory.hpp:77] Creating layer scale2b_branch2a
I0526 18:18:36.695941  1208 net.cpp:122] Setting up scale2b_branch2a
I0526 18:18:36.695948  1208 net.cpp:129] Top shape: 16 64 56 56 (3211264)
I0526 18:18:36.695952  1208 net.cpp:137] Memory required for data: 908787776
I0526 18:18:36.695957  1208 layer_factory.hpp:77] Creating layer res2b_branch2a_relu
I0526 18:18:36.695964  1208 net.cpp:84] Creating Layer res2b_branch2a_relu
I0526 18:18:36.695967  1208 net.cpp:406] res2b_branch2a_relu <- res2b_branch2a
I0526 18:18:36.695972  1208 net.cpp:367] res2b_branch2a_relu -> res2b_branch2a (in-place)
I0526 18:18:36.696128  1208 net.cpp:122] Setting up res2b_branch2a_relu
I0526 18:18:36.696136  1208 net.cpp:129] Top shape: 16 64 56 56 (3211264)
I0526 18:18:36.696141  1208 net.cpp:137] Memory required for data: 921632832
I0526 18:18:36.696142  1208 layer_factory.hpp:77] Creating layer res2b_branch2b
I0526 18:18:36.696151  1208 net.cpp:84] Creating Layer res2b_branch2b
I0526 18:18:36.696156  1208 net.cpp:406] res2b_branch2b <- res2b_branch2a
I0526 18:18:36.696161  1208 net.cpp:380] res2b_branch2b -> res2b_branch2b
I0526 18:18:36.697242  1208 net.cpp:122] Setting up res2b_branch2b
I0526 18:18:36.697257  1208 net.cpp:129] Top shape: 16 64 56 56 (3211264)
I0526 18:18:36.697259  1208 net.cpp:137] Memory required for data: 934477888
I0526 18:18:36.697265  1208 layer_factory.hpp:77] Creating layer bn2b_branch2b
I0526 18:18:36.697286  1208 net.cpp:84] Creating Layer bn2b_branch2b
I0526 18:18:36.697304  1208 net.cpp:406] bn2b_branch2b <- res2b_branch2b
I0526 18:18:36.697310  1208 net.cpp:367] bn2b_branch2b -> res2b_branch2b (in-place)
I0526 18:18:36.697508  1208 net.cpp:122] Setting up bn2b_branch2b
I0526 18:18:36.697515  1208 net.cpp:129] Top shape: 16 64 56 56 (3211264)
I0526 18:18:36.697531  1208 net.cpp:137] Memory required for data: 947322944
I0526 18:18:36.697537  1208 layer_factory.hpp:77] Creating layer scale2b_branch2b
I0526 18:18:36.697546  1208 net.cpp:84] Creating Layer scale2b_branch2b
I0526 18:18:36.697549  1208 net.cpp:406] scale2b_branch2b <- res2b_branch2b
I0526 18:18:36.697556  1208 net.cpp:367] scale2b_branch2b -> res2b_branch2b (in-place)
I0526 18:18:36.697602  1208 layer_factory.hpp:77] Creating layer scale2b_branch2b
I0526 18:18:36.697744  1208 net.cpp:122] Setting up scale2b_branch2b
I0526 18:18:36.697751  1208 net.cpp:129] Top shape: 16 64 56 56 (3211264)
I0526 18:18:36.697753  1208 net.cpp:137] Memory required for data: 960168000
I0526 18:18:36.697758  1208 layer_factory.hpp:77] Creating layer res2b_branch2b_relu
I0526 18:18:36.697764  1208 net.cpp:84] Creating Layer res2b_branch2b_relu
I0526 18:18:36.697768  1208 net.cpp:406] res2b_branch2b_relu <- res2b_branch2b
I0526 18:18:36.697773  1208 net.cpp:367] res2b_branch2b_relu -> res2b_branch2b (in-place)
I0526 18:18:36.698251  1208 net.cpp:122] Setting up res2b_branch2b_relu
I0526 18:18:36.698262  1208 net.cpp:129] Top shape: 16 64 56 56 (3211264)
I0526 18:18:36.698266  1208 net.cpp:137] Memory required for data: 973013056
I0526 18:18:36.698269  1208 layer_factory.hpp:77] Creating layer res2b_branch2c
I0526 18:18:36.698295  1208 net.cpp:84] Creating Layer res2b_branch2c
I0526 18:18:36.698300  1208 net.cpp:406] res2b_branch2c <- res2b_branch2b
I0526 18:18:36.698305  1208 net.cpp:380] res2b_branch2c -> res2b_branch2c
I0526 18:18:36.699323  1208 net.cpp:122] Setting up res2b_branch2c
I0526 18:18:36.699359  1208 net.cpp:129] Top shape: 16 256 56 56 (12845056)
I0526 18:18:36.699365  1208 net.cpp:137] Memory required for data: 1024393280
I0526 18:18:36.699373  1208 layer_factory.hpp:77] Creating layer bn2b_branch2c
I0526 18:18:36.699381  1208 net.cpp:84] Creating Layer bn2b_branch2c
I0526 18:18:36.699386  1208 net.cpp:406] bn2b_branch2c <- res2b_branch2c
I0526 18:18:36.699393  1208 net.cpp:367] bn2b_branch2c -> res2b_branch2c (in-place)
I0526 18:18:36.699568  1208 net.cpp:122] Setting up bn2b_branch2c
I0526 18:18:36.699574  1208 net.cpp:129] Top shape: 16 256 56 56 (12845056)
I0526 18:18:36.699578  1208 net.cpp:137] Memory required for data: 1075773504
I0526 18:18:36.699584  1208 layer_factory.hpp:77] Creating layer scale2b_branch2c
I0526 18:18:36.699590  1208 net.cpp:84] Creating Layer scale2b_branch2c
I0526 18:18:36.699594  1208 net.cpp:406] scale2b_branch2c <- res2b_branch2c
I0526 18:18:36.699599  1208 net.cpp:367] scale2b_branch2c -> res2b_branch2c (in-place)
I0526 18:18:36.699633  1208 layer_factory.hpp:77] Creating layer scale2b_branch2c
I0526 18:18:36.699726  1208 net.cpp:122] Setting up scale2b_branch2c
I0526 18:18:36.699733  1208 net.cpp:129] Top shape: 16 256 56 56 (12845056)
I0526 18:18:36.699738  1208 net.cpp:137] Memory required for data: 1127153728
I0526 18:18:36.699743  1208 layer_factory.hpp:77] Creating layer res2b
I0526 18:18:36.699748  1208 net.cpp:84] Creating Layer res2b
I0526 18:18:36.699753  1208 net.cpp:406] res2b <- res2a_res2a_relu_0_split_1
I0526 18:18:36.699757  1208 net.cpp:406] res2b <- res2b_branch2c
I0526 18:18:36.699761  1208 net.cpp:380] res2b -> res2b
I0526 18:18:36.699785  1208 net.cpp:122] Setting up res2b
I0526 18:18:36.699793  1208 net.cpp:129] Top shape: 16 256 56 56 (12845056)
I0526 18:18:36.699797  1208 net.cpp:137] Memory required for data: 1178533952
I0526 18:18:36.699800  1208 layer_factory.hpp:77] Creating layer res2b_relu
I0526 18:18:36.699805  1208 net.cpp:84] Creating Layer res2b_relu
I0526 18:18:36.699810  1208 net.cpp:406] res2b_relu <- res2b
I0526 18:18:36.699813  1208 net.cpp:367] res2b_relu -> res2b (in-place)
I0526 18:18:36.699980  1208 net.cpp:122] Setting up res2b_relu
I0526 18:18:36.699987  1208 net.cpp:129] Top shape: 16 256 56 56 (12845056)
I0526 18:18:36.699992  1208 net.cpp:137] Memory required for data: 1229914176
I0526 18:18:36.699995  1208 layer_factory.hpp:77] Creating layer res2b_res2b_relu_0_split
I0526 18:18:36.700001  1208 net.cpp:84] Creating Layer res2b_res2b_relu_0_split
I0526 18:18:36.700003  1208 net.cpp:406] res2b_res2b_relu_0_split <- res2b
I0526 18:18:36.700011  1208 net.cpp:380] res2b_res2b_relu_0_split -> res2b_res2b_relu_0_split_0
I0526 18:18:36.700017  1208 net.cpp:380] res2b_res2b_relu_0_split -> res2b_res2b_relu_0_split_1
I0526 18:18:36.700050  1208 net.cpp:122] Setting up res2b_res2b_relu_0_split
I0526 18:18:36.700057  1208 net.cpp:129] Top shape: 16 256 56 56 (12845056)
I0526 18:18:36.700062  1208 net.cpp:129] Top shape: 16 256 56 56 (12845056)
I0526 18:18:36.700063  1208 net.cpp:137] Memory required for data: 1332674624
I0526 18:18:36.700067  1208 layer_factory.hpp:77] Creating layer res2c_branch2a
I0526 18:18:36.700075  1208 net.cpp:84] Creating Layer res2c_branch2a
I0526 18:18:36.700080  1208 net.cpp:406] res2c_branch2a <- res2b_res2b_relu_0_split_0
I0526 18:18:36.700085  1208 net.cpp:380] res2c_branch2a -> res2c_branch2a
I0526 18:18:36.701062  1208 net.cpp:122] Setting up res2c_branch2a
I0526 18:18:36.701076  1208 net.cpp:129] Top shape: 16 64 56 56 (3211264)
I0526 18:18:36.701081  1208 net.cpp:137] Memory required for data: 1345519680
I0526 18:18:36.701086  1208 layer_factory.hpp:77] Creating layer bn2c_branch2a
I0526 18:18:36.701090  1208 net.cpp:84] Creating Layer bn2c_branch2a
I0526 18:18:36.701093  1208 net.cpp:406] bn2c_branch2a <- res2c_branch2a
I0526 18:18:36.701108  1208 net.cpp:367] bn2c_branch2a -> res2c_branch2a (in-place)
I0526 18:18:36.701280  1208 net.cpp:122] Setting up bn2c_branch2a
I0526 18:18:36.701287  1208 net.cpp:129] Top shape: 16 64 56 56 (3211264)
I0526 18:18:36.701292  1208 net.cpp:137] Memory required for data: 1358364736
I0526 18:18:36.701298  1208 layer_factory.hpp:77] Creating layer scale2c_branch2a
I0526 18:18:36.701303  1208 net.cpp:84] Creating Layer scale2c_branch2a
I0526 18:18:36.701308  1208 net.cpp:406] scale2c_branch2a <- res2c_branch2a
I0526 18:18:36.701313  1208 net.cpp:367] scale2c_branch2a -> res2c_branch2a (in-place)
I0526 18:18:36.701347  1208 layer_factory.hpp:77] Creating layer scale2c_branch2a
I0526 18:18:36.701447  1208 net.cpp:122] Setting up scale2c_branch2a
I0526 18:18:36.701452  1208 net.cpp:129] Top shape: 16 64 56 56 (3211264)
I0526 18:18:36.701457  1208 net.cpp:137] Memory required for data: 1371209792
I0526 18:18:36.701462  1208 layer_factory.hpp:77] Creating layer res2c_branch2a_relu
I0526 18:18:36.701468  1208 net.cpp:84] Creating Layer res2c_branch2a_relu
I0526 18:18:36.701472  1208 net.cpp:406] res2c_branch2a_relu <- res2c_branch2a
I0526 18:18:36.701475  1208 net.cpp:367] res2c_branch2a_relu -> res2c_branch2a (in-place)
I0526 18:18:36.701632  1208 net.cpp:122] Setting up res2c_branch2a_relu
I0526 18:18:36.701642  1208 net.cpp:129] Top shape: 16 64 56 56 (3211264)
I0526 18:18:36.701645  1208 net.cpp:137] Memory required for data: 1384054848
I0526 18:18:36.701648  1208 layer_factory.hpp:77] Creating layer res2c_branch2b
I0526 18:18:36.701655  1208 net.cpp:84] Creating Layer res2c_branch2b
I0526 18:18:36.701660  1208 net.cpp:406] res2c_branch2b <- res2c_branch2a
I0526 18:18:36.701665  1208 net.cpp:380] res2c_branch2b -> res2c_branch2b
I0526 18:18:36.702847  1208 net.cpp:122] Setting up res2c_branch2b
I0526 18:18:36.702879  1208 net.cpp:129] Top shape: 16 64 56 56 (3211264)
I0526 18:18:36.702884  1208 net.cpp:137] Memory required for data: 1396899904
I0526 18:18:36.702904  1208 layer_factory.hpp:77] Creating layer bn2c_branch2b
I0526 18:18:36.702913  1208 net.cpp:84] Creating Layer bn2c_branch2b
I0526 18:18:36.702917  1208 net.cpp:406] bn2c_branch2b <- res2c_branch2b
I0526 18:18:36.702925  1208 net.cpp:367] bn2c_branch2b -> res2c_branch2b (in-place)
I0526 18:18:36.703184  1208 net.cpp:122] Setting up bn2c_branch2b
I0526 18:18:36.703192  1208 net.cpp:129] Top shape: 16 64 56 56 (3211264)
I0526 18:18:36.703207  1208 net.cpp:137] Memory required for data: 1409744960
I0526 18:18:36.703215  1208 layer_factory.hpp:77] Creating layer scale2c_branch2b
I0526 18:18:36.703234  1208 net.cpp:84] Creating Layer scale2c_branch2b
I0526 18:18:36.703238  1208 net.cpp:406] scale2c_branch2b <- res2c_branch2b
I0526 18:18:36.703243  1208 net.cpp:367] scale2c_branch2b -> res2c_branch2b (in-place)
I0526 18:18:36.703284  1208 layer_factory.hpp:77] Creating layer scale2c_branch2b
I0526 18:18:36.703424  1208 net.cpp:122] Setting up scale2c_branch2b
I0526 18:18:36.703434  1208 net.cpp:129] Top shape: 16 64 56 56 (3211264)
I0526 18:18:36.703438  1208 net.cpp:137] Memory required for data: 1422590016
I0526 18:18:36.703444  1208 layer_factory.hpp:77] Creating layer res2c_branch2b_relu
I0526 18:18:36.703450  1208 net.cpp:84] Creating Layer res2c_branch2b_relu
I0526 18:18:36.703454  1208 net.cpp:406] res2c_branch2b_relu <- res2c_branch2b
I0526 18:18:36.703459  1208 net.cpp:367] res2c_branch2b_relu -> res2c_branch2b (in-place)
I0526 18:18:36.703644  1208 net.cpp:122] Setting up res2c_branch2b_relu
I0526 18:18:36.703652  1208 net.cpp:129] Top shape: 16 64 56 56 (3211264)
I0526 18:18:36.703655  1208 net.cpp:137] Memory required for data: 1435435072
I0526 18:18:36.703658  1208 layer_factory.hpp:77] Creating layer res2c_branch2c
I0526 18:18:36.703668  1208 net.cpp:84] Creating Layer res2c_branch2c
I0526 18:18:36.703672  1208 net.cpp:406] res2c_branch2c <- res2c_branch2b
I0526 18:18:36.703677  1208 net.cpp:380] res2c_branch2c -> res2c_branch2c
I0526 18:18:36.704751  1208 net.cpp:122] Setting up res2c_branch2c
I0526 18:18:36.704780  1208 net.cpp:129] Top shape: 16 256 56 56 (12845056)
I0526 18:18:36.704783  1208 net.cpp:137] Memory required for data: 1486815296
I0526 18:18:36.704788  1208 layer_factory.hpp:77] Creating layer bn2c_branch2c
I0526 18:18:36.704794  1208 net.cpp:84] Creating Layer bn2c_branch2c
I0526 18:18:36.704799  1208 net.cpp:406] bn2c_branch2c <- res2c_branch2c
I0526 18:18:36.704807  1208 net.cpp:367] bn2c_branch2c -> res2c_branch2c (in-place)
I0526 18:18:36.704987  1208 net.cpp:122] Setting up bn2c_branch2c
I0526 18:18:36.704993  1208 net.cpp:129] Top shape: 16 256 56 56 (12845056)
I0526 18:18:36.704996  1208 net.cpp:137] Memory required for data: 1538195520
I0526 18:18:36.705025  1208 layer_factory.hpp:77] Creating layer scale2c_branch2c
I0526 18:18:36.705032  1208 net.cpp:84] Creating Layer scale2c_branch2c
I0526 18:18:36.705036  1208 net.cpp:406] scale2c_branch2c <- res2c_branch2c
I0526 18:18:36.705041  1208 net.cpp:367] scale2c_branch2c -> res2c_branch2c (in-place)
I0526 18:18:36.705114  1208 layer_factory.hpp:77] Creating layer scale2c_branch2c
I0526 18:18:36.705224  1208 net.cpp:122] Setting up scale2c_branch2c
I0526 18:18:36.705243  1208 net.cpp:129] Top shape: 16 256 56 56 (12845056)
I0526 18:18:36.705248  1208 net.cpp:137] Memory required for data: 1589575744
I0526 18:18:36.705268  1208 layer_factory.hpp:77] Creating layer res2c
I0526 18:18:36.705273  1208 net.cpp:84] Creating Layer res2c
I0526 18:18:36.705276  1208 net.cpp:406] res2c <- res2b_res2b_relu_0_split_1
I0526 18:18:36.705282  1208 net.cpp:406] res2c <- res2c_branch2c
I0526 18:18:36.705288  1208 net.cpp:380] res2c -> res2c
I0526 18:18:36.705308  1208 net.cpp:122] Setting up res2c
I0526 18:18:36.705314  1208 net.cpp:129] Top shape: 16 256 56 56 (12845056)
I0526 18:18:36.705318  1208 net.cpp:137] Memory required for data: 1640955968
I0526 18:18:36.705320  1208 layer_factory.hpp:77] Creating layer res2c_relu
I0526 18:18:36.705325  1208 net.cpp:84] Creating Layer res2c_relu
I0526 18:18:36.705328  1208 net.cpp:406] res2c_relu <- res2c
I0526 18:18:36.705334  1208 net.cpp:367] res2c_relu -> res2c (in-place)
I0526 18:18:36.705760  1208 net.cpp:122] Setting up res2c_relu
I0526 18:18:36.705770  1208 net.cpp:129] Top shape: 16 256 56 56 (12845056)
I0526 18:18:36.705773  1208 net.cpp:137] Memory required for data: 1692336192
I0526 18:18:36.705795  1208 layer_factory.hpp:77] Creating layer res2c_res2c_relu_0_split
I0526 18:18:36.705799  1208 net.cpp:84] Creating Layer res2c_res2c_relu_0_split
I0526 18:18:36.705803  1208 net.cpp:406] res2c_res2c_relu_0_split <- res2c
I0526 18:18:36.705809  1208 net.cpp:380] res2c_res2c_relu_0_split -> res2c_res2c_relu_0_split_0
I0526 18:18:36.705817  1208 net.cpp:380] res2c_res2c_relu_0_split -> res2c_res2c_relu_0_split_1
I0526 18:18:36.705853  1208 net.cpp:122] Setting up res2c_res2c_relu_0_split
I0526 18:18:36.705859  1208 net.cpp:129] Top shape: 16 256 56 56 (12845056)
I0526 18:18:36.705864  1208 net.cpp:129] Top shape: 16 256 56 56 (12845056)
I0526 18:18:36.705868  1208 net.cpp:137] Memory required for data: 1795096640
I0526 18:18:36.705871  1208 layer_factory.hpp:77] Creating layer res3a_branch1
I0526 18:18:36.705879  1208 net.cpp:84] Creating Layer res3a_branch1
I0526 18:18:36.705883  1208 net.cpp:406] res3a_branch1 <- res2c_res2c_relu_0_split_0
I0526 18:18:36.705890  1208 net.cpp:380] res3a_branch1 -> res3a_branch1
I0526 18:18:36.707576  1208 net.cpp:122] Setting up res3a_branch1
I0526 18:18:36.707587  1208 net.cpp:129] Top shape: 16 512 28 28 (6422528)
I0526 18:18:36.707592  1208 net.cpp:137] Memory required for data: 1820786752
I0526 18:18:36.707612  1208 layer_factory.hpp:77] Creating layer bn3a_branch1
I0526 18:18:36.707630  1208 net.cpp:84] Creating Layer bn3a_branch1
I0526 18:18:36.707634  1208 net.cpp:406] bn3a_branch1 <- res3a_branch1
I0526 18:18:36.707654  1208 net.cpp:367] bn3a_branch1 -> res3a_branch1 (in-place)
I0526 18:18:36.708444  1208 net.cpp:122] Setting up bn3a_branch1
I0526 18:18:36.708456  1208 net.cpp:129] Top shape: 16 512 28 28 (6422528)
I0526 18:18:36.708472  1208 net.cpp:137] Memory required for data: 1846476864
I0526 18:18:36.708504  1208 layer_factory.hpp:77] Creating layer scale3a_branch1
I0526 18:18:36.708511  1208 net.cpp:84] Creating Layer scale3a_branch1
I0526 18:18:36.708515  1208 net.cpp:406] scale3a_branch1 <- res3a_branch1
I0526 18:18:36.708533  1208 net.cpp:367] scale3a_branch1 -> res3a_branch1 (in-place)
I0526 18:18:36.708597  1208 layer_factory.hpp:77] Creating layer scale3a_branch1
I0526 18:18:36.708712  1208 net.cpp:122] Setting up scale3a_branch1
I0526 18:18:36.708719  1208 net.cpp:129] Top shape: 16 512 28 28 (6422528)
I0526 18:18:36.708722  1208 net.cpp:137] Memory required for data: 1872166976
I0526 18:18:36.708727  1208 layer_factory.hpp:77] Creating layer res3a_branch2a
I0526 18:18:36.708737  1208 net.cpp:84] Creating Layer res3a_branch2a
I0526 18:18:36.708741  1208 net.cpp:406] res3a_branch2a <- res2c_res2c_relu_0_split_1
I0526 18:18:36.708746  1208 net.cpp:380] res3a_branch2a -> res3a_branch2a
I0526 18:18:36.710028  1208 net.cpp:122] Setting up res3a_branch2a
I0526 18:18:36.710041  1208 net.cpp:129] Top shape: 16 128 28 28 (1605632)
I0526 18:18:36.710059  1208 net.cpp:137] Memory required for data: 1878589504
I0526 18:18:36.710065  1208 layer_factory.hpp:77] Creating layer bn3a_branch2a
I0526 18:18:36.710072  1208 net.cpp:84] Creating Layer bn3a_branch2a
I0526 18:18:36.710077  1208 net.cpp:406] bn3a_branch2a <- res3a_branch2a
I0526 18:18:36.710081  1208 net.cpp:367] bn3a_branch2a -> res3a_branch2a (in-place)
I0526 18:18:36.710286  1208 net.cpp:122] Setting up bn3a_branch2a
I0526 18:18:36.710294  1208 net.cpp:129] Top shape: 16 128 28 28 (1605632)
I0526 18:18:36.710297  1208 net.cpp:137] Memory required for data: 1885012032
I0526 18:18:36.710319  1208 layer_factory.hpp:77] Creating layer scale3a_branch2a
I0526 18:18:36.710336  1208 net.cpp:84] Creating Layer scale3a_branch2a
I0526 18:18:36.710340  1208 net.cpp:406] scale3a_branch2a <- res3a_branch2a
I0526 18:18:36.710359  1208 net.cpp:367] scale3a_branch2a -> res3a_branch2a (in-place)
I0526 18:18:36.710433  1208 layer_factory.hpp:77] Creating layer scale3a_branch2a
I0526 18:18:36.710579  1208 net.cpp:122] Setting up scale3a_branch2a
I0526 18:18:36.710587  1208 net.cpp:129] Top shape: 16 128 28 28 (1605632)
I0526 18:18:36.710604  1208 net.cpp:137] Memory required for data: 1891434560
I0526 18:18:36.710609  1208 layer_factory.hpp:77] Creating layer res3a_branch2a_relu
I0526 18:18:36.710615  1208 net.cpp:84] Creating Layer res3a_branch2a_relu
I0526 18:18:36.710619  1208 net.cpp:406] res3a_branch2a_relu <- res3a_branch2a
I0526 18:18:36.710625  1208 net.cpp:367] res3a_branch2a_relu -> res3a_branch2a (in-place)
I0526 18:18:36.710813  1208 net.cpp:122] Setting up res3a_branch2a_relu
I0526 18:18:36.710820  1208 net.cpp:129] Top shape: 16 128 28 28 (1605632)
I0526 18:18:36.710824  1208 net.cpp:137] Memory required for data: 1897857088
I0526 18:18:36.710840  1208 layer_factory.hpp:77] Creating layer res3a_branch2b
I0526 18:18:36.710861  1208 net.cpp:84] Creating Layer res3a_branch2b
I0526 18:18:36.710865  1208 net.cpp:406] res3a_branch2b <- res3a_branch2a
I0526 18:18:36.710871  1208 net.cpp:380] res3a_branch2b -> res3a_branch2b
I0526 18:18:36.712808  1208 net.cpp:122] Setting up res3a_branch2b
I0526 18:18:36.712846  1208 net.cpp:129] Top shape: 16 128 28 28 (1605632)
I0526 18:18:36.712852  1208 net.cpp:137] Memory required for data: 1904279616
I0526 18:18:36.712857  1208 layer_factory.hpp:77] Creating layer bn3a_branch2b
I0526 18:18:36.712878  1208 net.cpp:84] Creating Layer bn3a_branch2b
I0526 18:18:36.712896  1208 net.cpp:406] bn3a_branch2b <- res3a_branch2b
I0526 18:18:36.712901  1208 net.cpp:367] bn3a_branch2b -> res3a_branch2b (in-place)
I0526 18:18:36.713150  1208 net.cpp:122] Setting up bn3a_branch2b
I0526 18:18:36.713157  1208 net.cpp:129] Top shape: 16 128 28 28 (1605632)
I0526 18:18:36.713160  1208 net.cpp:137] Memory required for data: 1910702144
I0526 18:18:36.713166  1208 layer_factory.hpp:77] Creating layer scale3a_branch2b
I0526 18:18:36.713171  1208 net.cpp:84] Creating Layer scale3a_branch2b
I0526 18:18:36.713174  1208 net.cpp:406] scale3a_branch2b <- res3a_branch2b
I0526 18:18:36.713188  1208 net.cpp:367] scale3a_branch2b -> res3a_branch2b (in-place)
I0526 18:18:36.713239  1208 layer_factory.hpp:77] Creating layer scale3a_branch2b
I0526 18:18:36.713358  1208 net.cpp:122] Setting up scale3a_branch2b
I0526 18:18:36.713364  1208 net.cpp:129] Top shape: 16 128 28 28 (1605632)
I0526 18:18:36.713382  1208 net.cpp:137] Memory required for data: 1917124672
I0526 18:18:36.713387  1208 layer_factory.hpp:77] Creating layer res3a_branch2b_relu
I0526 18:18:36.713392  1208 net.cpp:84] Creating Layer res3a_branch2b_relu
I0526 18:18:36.713395  1208 net.cpp:406] res3a_branch2b_relu <- res3a_branch2b
I0526 18:18:36.713403  1208 net.cpp:367] res3a_branch2b_relu -> res3a_branch2b (in-place)
I0526 18:18:36.713584  1208 net.cpp:122] Setting up res3a_branch2b_relu
I0526 18:18:36.713593  1208 net.cpp:129] Top shape: 16 128 28 28 (1605632)
I0526 18:18:36.713609  1208 net.cpp:137] Memory required for data: 1923547200
I0526 18:18:36.713613  1208 layer_factory.hpp:77] Creating layer res3a_branch2c
I0526 18:18:36.713621  1208 net.cpp:84] Creating Layer res3a_branch2c
I0526 18:18:36.713625  1208 net.cpp:406] res3a_branch2c <- res3a_branch2b
I0526 18:18:36.713630  1208 net.cpp:380] res3a_branch2c -> res3a_branch2c
I0526 18:18:36.715032  1208 net.cpp:122] Setting up res3a_branch2c
I0526 18:18:36.715045  1208 net.cpp:129] Top shape: 16 512 28 28 (6422528)
I0526 18:18:36.715062  1208 net.cpp:137] Memory required for data: 1949237312
I0526 18:18:36.715068  1208 layer_factory.hpp:77] Creating layer bn3a_branch2c
I0526 18:18:36.715098  1208 net.cpp:84] Creating Layer bn3a_branch2c
I0526 18:18:36.715101  1208 net.cpp:406] bn3a_branch2c <- res3a_branch2c
I0526 18:18:36.715106  1208 net.cpp:367] bn3a_branch2c -> res3a_branch2c (in-place)
I0526 18:18:36.715350  1208 net.cpp:122] Setting up bn3a_branch2c
I0526 18:18:36.715358  1208 net.cpp:129] Top shape: 16 512 28 28 (6422528)
I0526 18:18:36.715373  1208 net.cpp:137] Memory required for data: 1974927424
I0526 18:18:36.715380  1208 layer_factory.hpp:77] Creating layer scale3a_branch2c
I0526 18:18:36.715400  1208 net.cpp:84] Creating Layer scale3a_branch2c
I0526 18:18:36.715404  1208 net.cpp:406] scale3a_branch2c <- res3a_branch2c
I0526 18:18:36.715409  1208 net.cpp:367] scale3a_branch2c -> res3a_branch2c (in-place)
I0526 18:18:36.715481  1208 layer_factory.hpp:77] Creating layer scale3a_branch2c
I0526 18:18:36.715600  1208 net.cpp:122] Setting up scale3a_branch2c
I0526 18:18:36.715606  1208 net.cpp:129] Top shape: 16 512 28 28 (6422528)
I0526 18:18:36.715623  1208 net.cpp:137] Memory required for data: 2000617536
I0526 18:18:36.715628  1208 layer_factory.hpp:77] Creating layer res3a
I0526 18:18:36.715636  1208 net.cpp:84] Creating Layer res3a
I0526 18:18:36.715641  1208 net.cpp:406] res3a <- res3a_branch1
I0526 18:18:36.715646  1208 net.cpp:406] res3a <- res3a_branch2c
I0526 18:18:36.715651  1208 net.cpp:380] res3a -> res3a
I0526 18:18:36.715672  1208 net.cpp:122] Setting up res3a
I0526 18:18:36.715678  1208 net.cpp:129] Top shape: 16 512 28 28 (6422528)
I0526 18:18:36.715682  1208 net.cpp:137] Memory required for data: 2026307648
I0526 18:18:36.715684  1208 layer_factory.hpp:77] Creating layer res3a_relu
I0526 18:18:36.715689  1208 net.cpp:84] Creating Layer res3a_relu
I0526 18:18:36.715692  1208 net.cpp:406] res3a_relu <- res3a
I0526 18:18:36.715698  1208 net.cpp:367] res3a_relu -> res3a (in-place)
I0526 18:18:36.716161  1208 net.cpp:122] Setting up res3a_relu
I0526 18:18:36.716172  1208 net.cpp:129] Top shape: 16 512 28 28 (6422528)
I0526 18:18:36.716176  1208 net.cpp:137] Memory required for data: 2051997760
I0526 18:18:36.716179  1208 layer_factory.hpp:77] Creating layer res3a_res3a_relu_0_split
I0526 18:18:36.716200  1208 net.cpp:84] Creating Layer res3a_res3a_relu_0_split
I0526 18:18:36.716204  1208 net.cpp:406] res3a_res3a_relu_0_split <- res3a
I0526 18:18:36.716212  1208 net.cpp:380] res3a_res3a_relu_0_split -> res3a_res3a_relu_0_split_0
I0526 18:18:36.716218  1208 net.cpp:380] res3a_res3a_relu_0_split -> res3a_res3a_relu_0_split_1
I0526 18:18:36.716293  1208 net.cpp:122] Setting up res3a_res3a_relu_0_split
I0526 18:18:36.716300  1208 net.cpp:129] Top shape: 16 512 28 28 (6422528)
I0526 18:18:36.716305  1208 net.cpp:129] Top shape: 16 512 28 28 (6422528)
I0526 18:18:36.716310  1208 net.cpp:137] Memory required for data: 2103377984
I0526 18:18:36.716312  1208 layer_factory.hpp:77] Creating layer res3b_branch2a
I0526 18:18:36.716321  1208 net.cpp:84] Creating Layer res3b_branch2a
I0526 18:18:36.716325  1208 net.cpp:406] res3b_branch2a <- res3a_res3a_relu_0_split_0
I0526 18:18:36.716332  1208 net.cpp:380] res3b_branch2a -> res3b_branch2a
I0526 18:18:36.717517  1208 net.cpp:122] Setting up res3b_branch2a
I0526 18:18:36.717530  1208 net.cpp:129] Top shape: 16 128 28 28 (1605632)
I0526 18:18:36.717547  1208 net.cpp:137] Memory required for data: 2109800512
I0526 18:18:36.717552  1208 layer_factory.hpp:77] Creating layer bn3b_branch2a
I0526 18:18:36.717559  1208 net.cpp:84] Creating Layer bn3b_branch2a
I0526 18:18:36.717563  1208 net.cpp:406] bn3b_branch2a <- res3b_branch2a
I0526 18:18:36.717569  1208 net.cpp:367] bn3b_branch2a -> res3b_branch2a (in-place)
I0526 18:18:36.717744  1208 net.cpp:122] Setting up bn3b_branch2a
I0526 18:18:36.717752  1208 net.cpp:129] Top shape: 16 128 28 28 (1605632)
I0526 18:18:36.717756  1208 net.cpp:137] Memory required for data: 2116223040
I0526 18:18:36.717777  1208 layer_factory.hpp:77] Creating layer scale3b_branch2a
I0526 18:18:36.717782  1208 net.cpp:84] Creating Layer scale3b_branch2a
I0526 18:18:36.717787  1208 net.cpp:406] scale3b_branch2a <- res3b_branch2a
I0526 18:18:36.717790  1208 net.cpp:367] scale3b_branch2a -> res3b_branch2a (in-place)
I0526 18:18:36.717824  1208 layer_factory.hpp:77] Creating layer scale3b_branch2a
I0526 18:18:36.717960  1208 net.cpp:122] Setting up scale3b_branch2a
I0526 18:18:36.717967  1208 net.cpp:129] Top shape: 16 128 28 28 (1605632)
I0526 18:18:36.717970  1208 net.cpp:137] Memory required for data: 2122645568
I0526 18:18:36.717990  1208 layer_factory.hpp:77] Creating layer res3b_branch2a_relu
I0526 18:18:36.717998  1208 net.cpp:84] Creating Layer res3b_branch2a_relu
I0526 18:18:36.718000  1208 net.cpp:406] res3b_branch2a_relu <- res3b_branch2a
I0526 18:18:36.718005  1208 net.cpp:367] res3b_branch2a_relu -> res3b_branch2a (in-place)
I0526 18:18:36.718183  1208 net.cpp:122] Setting up res3b_branch2a_relu
I0526 18:18:36.718191  1208 net.cpp:129] Top shape: 16 128 28 28 (1605632)
I0526 18:18:36.718194  1208 net.cpp:137] Memory required for data: 2129068096
I0526 18:18:36.718210  1208 layer_factory.hpp:77] Creating layer res3b_branch2b
I0526 18:18:36.718219  1208 net.cpp:84] Creating Layer res3b_branch2b
I0526 18:18:36.718222  1208 net.cpp:406] res3b_branch2b <- res3b_branch2a
I0526 18:18:36.718227  1208 net.cpp:380] res3b_branch2b -> res3b_branch2b
I0526 18:18:36.720602  1208 net.cpp:122] Setting up res3b_branch2b
I0526 18:18:36.720615  1208 net.cpp:129] Top shape: 16 128 28 28 (1605632)
I0526 18:18:36.720620  1208 net.cpp:137] Memory required for data: 2135490624
I0526 18:18:36.720639  1208 layer_factory.hpp:77] Creating layer bn3b_branch2b
I0526 18:18:36.720647  1208 net.cpp:84] Creating Layer bn3b_branch2b
I0526 18:18:36.720651  1208 net.cpp:406] bn3b_branch2b <- res3b_branch2b
I0526 18:18:36.720656  1208 net.cpp:367] bn3b_branch2b -> res3b_branch2b (in-place)
I0526 18:18:36.720839  1208 net.cpp:122] Setting up bn3b_branch2b
I0526 18:18:36.720847  1208 net.cpp:129] Top shape: 16 128 28 28 (1605632)
I0526 18:18:36.720850  1208 net.cpp:137] Memory required for data: 2141913152
I0526 18:18:36.720871  1208 layer_factory.hpp:77] Creating layer scale3b_branch2b
I0526 18:18:36.720878  1208 net.cpp:84] Creating Layer scale3b_branch2b
I0526 18:18:36.720882  1208 net.cpp:406] scale3b_branch2b <- res3b_branch2b
I0526 18:18:36.720886  1208 net.cpp:367] scale3b_branch2b -> res3b_branch2b (in-place)
I0526 18:18:36.720934  1208 layer_factory.hpp:77] Creating layer scale3b_branch2b
I0526 18:18:36.721056  1208 net.cpp:122] Setting up scale3b_branch2b
I0526 18:18:36.721062  1208 net.cpp:129] Top shape: 16 128 28 28 (1605632)
I0526 18:18:36.721089  1208 net.cpp:137] Memory required for data: 2148335680
I0526 18:18:36.721096  1208 layer_factory.hpp:77] Creating layer res3b_branch2b_relu
I0526 18:18:36.721101  1208 net.cpp:84] Creating Layer res3b_branch2b_relu
I0526 18:18:36.721105  1208 net.cpp:406] res3b_branch2b_relu <- res3b_branch2b
I0526 18:18:36.721112  1208 net.cpp:367] res3b_branch2b_relu -> res3b_branch2b (in-place)
I0526 18:18:36.721278  1208 net.cpp:122] Setting up res3b_branch2b_relu
I0526 18:18:36.721287  1208 net.cpp:129] Top shape: 16 128 28 28 (1605632)
I0526 18:18:36.721290  1208 net.cpp:137] Memory required for data: 2154758208
I0526 18:18:36.721293  1208 layer_factory.hpp:77] Creating layer res3b_branch2c
I0526 18:18:36.721302  1208 net.cpp:84] Creating Layer res3b_branch2c
I0526 18:18:36.721307  1208 net.cpp:406] res3b_branch2c <- res3b_branch2b
I0526 18:18:36.721313  1208 net.cpp:380] res3b_branch2c -> res3b_branch2c
I0526 18:18:36.722499  1208 net.cpp:122] Setting up res3b_branch2c
I0526 18:18:36.722512  1208 net.cpp:129] Top shape: 16 512 28 28 (6422528)
I0526 18:18:36.722517  1208 net.cpp:137] Memory required for data: 2180448320
I0526 18:18:36.722522  1208 layer_factory.hpp:77] Creating layer bn3b_branch2c
I0526 18:18:36.722528  1208 net.cpp:84] Creating Layer bn3b_branch2c
I0526 18:18:36.722533  1208 net.cpp:406] bn3b_branch2c <- res3b_branch2c
I0526 18:18:36.722537  1208 net.cpp:367] bn3b_branch2c -> res3b_branch2c (in-place)
I0526 18:18:36.722704  1208 net.cpp:122] Setting up bn3b_branch2c
I0526 18:18:36.722712  1208 net.cpp:129] Top shape: 16 512 28 28 (6422528)
I0526 18:18:36.722715  1208 net.cpp:137] Memory required for data: 2206138432
I0526 18:18:36.722723  1208 layer_factory.hpp:77] Creating layer scale3b_branch2c
I0526 18:18:36.722728  1208 net.cpp:84] Creating Layer scale3b_branch2c
I0526 18:18:36.722731  1208 net.cpp:406] scale3b_branch2c <- res3b_branch2c
I0526 18:18:36.722735  1208 net.cpp:367] scale3b_branch2c -> res3b_branch2c (in-place)
I0526 18:18:36.722771  1208 layer_factory.hpp:77] Creating layer scale3b_branch2c
I0526 18:18:36.722864  1208 net.cpp:122] Setting up scale3b_branch2c
I0526 18:18:36.722872  1208 net.cpp:129] Top shape: 16 512 28 28 (6422528)
I0526 18:18:36.722875  1208 net.cpp:137] Memory required for data: 2231828544
I0526 18:18:36.722880  1208 layer_factory.hpp:77] Creating layer res3b
I0526 18:18:36.722887  1208 net.cpp:84] Creating Layer res3b
I0526 18:18:36.722890  1208 net.cpp:406] res3b <- res3a_res3a_relu_0_split_1
I0526 18:18:36.722895  1208 net.cpp:406] res3b <- res3b_branch2c
I0526 18:18:36.722901  1208 net.cpp:380] res3b -> res3b
I0526 18:18:36.722921  1208 net.cpp:122] Setting up res3b
I0526 18:18:36.722928  1208 net.cpp:129] Top shape: 16 512 28 28 (6422528)
I0526 18:18:36.722931  1208 net.cpp:137] Memory required for data: 2257518656
I0526 18:18:36.722934  1208 layer_factory.hpp:77] Creating layer res3b_relu
I0526 18:18:36.722940  1208 net.cpp:84] Creating Layer res3b_relu
I0526 18:18:36.722944  1208 net.cpp:406] res3b_relu <- res3b
I0526 18:18:36.722949  1208 net.cpp:367] res3b_relu -> res3b (in-place)
I0526 18:18:36.723439  1208 net.cpp:122] Setting up res3b_relu
I0526 18:18:36.723453  1208 net.cpp:129] Top shape: 16 512 28 28 (6422528)
I0526 18:18:36.723456  1208 net.cpp:137] Memory required for data: 2283208768
I0526 18:18:36.723460  1208 layer_factory.hpp:77] Creating layer res3b_res3b_relu_0_split
I0526 18:18:36.723466  1208 net.cpp:84] Creating Layer res3b_res3b_relu_0_split
I0526 18:18:36.723470  1208 net.cpp:406] res3b_res3b_relu_0_split <- res3b
I0526 18:18:36.723479  1208 net.cpp:380] res3b_res3b_relu_0_split -> res3b_res3b_relu_0_split_0
I0526 18:18:36.723487  1208 net.cpp:380] res3b_res3b_relu_0_split -> res3b_res3b_relu_0_split_1
I0526 18:18:36.723526  1208 net.cpp:122] Setting up res3b_res3b_relu_0_split
I0526 18:18:36.723532  1208 net.cpp:129] Top shape: 16 512 28 28 (6422528)
I0526 18:18:36.723537  1208 net.cpp:129] Top shape: 16 512 28 28 (6422528)
I0526 18:18:36.723541  1208 net.cpp:137] Memory required for data: 2334588992
I0526 18:18:36.723553  1208 layer_factory.hpp:77] Creating layer res3c_branch2a
I0526 18:18:36.723564  1208 net.cpp:84] Creating Layer res3c_branch2a
I0526 18:18:36.723568  1208 net.cpp:406] res3c_branch2a <- res3b_res3b_relu_0_split_0
I0526 18:18:36.723574  1208 net.cpp:380] res3c_branch2a -> res3c_branch2a
I0526 18:18:36.724774  1208 net.cpp:122] Setting up res3c_branch2a
I0526 18:18:36.724786  1208 net.cpp:129] Top shape: 16 128 28 28 (1605632)
I0526 18:18:36.724792  1208 net.cpp:137] Memory required for data: 2341011520
I0526 18:18:36.724797  1208 layer_factory.hpp:77] Creating layer bn3c_branch2a
I0526 18:18:36.724803  1208 net.cpp:84] Creating Layer bn3c_branch2a
I0526 18:18:36.724807  1208 net.cpp:406] bn3c_branch2a <- res3c_branch2a
I0526 18:18:36.724813  1208 net.cpp:367] bn3c_branch2a -> res3c_branch2a (in-place)
I0526 18:18:36.724987  1208 net.cpp:122] Setting up bn3c_branch2a
I0526 18:18:36.724994  1208 net.cpp:129] Top shape: 16 128 28 28 (1605632)
I0526 18:18:36.724998  1208 net.cpp:137] Memory required for data: 2347434048
I0526 18:18:36.725004  1208 layer_factory.hpp:77] Creating layer scale3c_branch2a
I0526 18:18:36.725010  1208 net.cpp:84] Creating Layer scale3c_branch2a
I0526 18:18:36.725014  1208 net.cpp:406] scale3c_branch2a <- res3c_branch2a
I0526 18:18:36.725018  1208 net.cpp:367] scale3c_branch2a -> res3c_branch2a (in-place)
I0526 18:18:36.725055  1208 layer_factory.hpp:77] Creating layer scale3c_branch2a
I0526 18:18:36.725154  1208 net.cpp:122] Setting up scale3c_branch2a
I0526 18:18:36.725160  1208 net.cpp:129] Top shape: 16 128 28 28 (1605632)
I0526 18:18:36.725163  1208 net.cpp:137] Memory required for data: 2353856576
I0526 18:18:36.725168  1208 layer_factory.hpp:77] Creating layer res3c_branch2a_relu
I0526 18:18:36.725175  1208 net.cpp:84] Creating Layer res3c_branch2a_relu
I0526 18:18:36.725179  1208 net.cpp:406] res3c_branch2a_relu <- res3c_branch2a
I0526 18:18:36.725183  1208 net.cpp:367] res3c_branch2a_relu -> res3c_branch2a (in-place)
I0526 18:18:36.725349  1208 net.cpp:122] Setting up res3c_branch2a_relu
I0526 18:18:36.725358  1208 net.cpp:129] Top shape: 16 128 28 28 (1605632)
I0526 18:18:36.725361  1208 net.cpp:137] Memory required for data: 2360279104
I0526 18:18:36.725364  1208 layer_factory.hpp:77] Creating layer res3c_branch2b
I0526 18:18:36.725373  1208 net.cpp:84] Creating Layer res3c_branch2b
I0526 18:18:36.725378  1208 net.cpp:406] res3c_branch2b <- res3c_branch2a
I0526 18:18:36.725383  1208 net.cpp:380] res3c_branch2b -> res3c_branch2b
I0526 18:18:36.727165  1208 net.cpp:122] Setting up res3c_branch2b
I0526 18:18:36.727191  1208 net.cpp:129] Top shape: 16 128 28 28 (1605632)
I0526 18:18:36.727195  1208 net.cpp:137] Memory required for data: 2366701632
I0526 18:18:36.727201  1208 layer_factory.hpp:77] Creating layer bn3c_branch2b
I0526 18:18:36.727206  1208 net.cpp:84] Creating Layer bn3c_branch2b
I0526 18:18:36.727210  1208 net.cpp:406] bn3c_branch2b <- res3c_branch2b
I0526 18:18:36.727216  1208 net.cpp:367] bn3c_branch2b -> res3c_branch2b (in-place)
I0526 18:18:36.727414  1208 net.cpp:122] Setting up bn3c_branch2b
I0526 18:18:36.727421  1208 net.cpp:129] Top shape: 16 128 28 28 (1605632)
I0526 18:18:36.727437  1208 net.cpp:137] Memory required for data: 2373124160
I0526 18:18:36.727443  1208 layer_factory.hpp:77] Creating layer scale3c_branch2b
I0526 18:18:36.727448  1208 net.cpp:84] Creating Layer scale3c_branch2b
I0526 18:18:36.727465  1208 net.cpp:406] scale3c_branch2b <- res3c_branch2b
I0526 18:18:36.727471  1208 net.cpp:367] scale3c_branch2b -> res3c_branch2b (in-place)
I0526 18:18:36.727519  1208 layer_factory.hpp:77] Creating layer scale3c_branch2b
I0526 18:18:36.727643  1208 net.cpp:122] Setting up scale3c_branch2b
I0526 18:18:36.727651  1208 net.cpp:129] Top shape: 16 128 28 28 (1605632)
I0526 18:18:36.727653  1208 net.cpp:137] Memory required for data: 2379546688
I0526 18:18:36.727658  1208 layer_factory.hpp:77] Creating layer res3c_branch2b_relu
I0526 18:18:36.727663  1208 net.cpp:84] Creating Layer res3c_branch2b_relu
I0526 18:18:36.727666  1208 net.cpp:406] res3c_branch2b_relu <- res3c_branch2b
I0526 18:18:36.727679  1208 net.cpp:367] res3c_branch2b_relu -> res3c_branch2b (in-place)
I0526 18:18:36.727885  1208 net.cpp:122] Setting up res3c_branch2b_relu
I0526 18:18:36.727893  1208 net.cpp:129] Top shape: 16 128 28 28 (1605632)
I0526 18:18:36.727910  1208 net.cpp:137] Memory required for data: 2385969216
I0526 18:18:36.727911  1208 layer_factory.hpp:77] Creating layer res3c_branch2c
I0526 18:18:36.727933  1208 net.cpp:84] Creating Layer res3c_branch2c
I0526 18:18:36.727938  1208 net.cpp:406] res3c_branch2c <- res3c_branch2b
I0526 18:18:36.727943  1208 net.cpp:380] res3c_branch2c -> res3c_branch2c
I0526 18:18:36.729157  1208 net.cpp:122] Setting up res3c_branch2c
I0526 18:18:36.729182  1208 net.cpp:129] Top shape: 16 512 28 28 (6422528)
I0526 18:18:36.729185  1208 net.cpp:137] Memory required for data: 2411659328
I0526 18:18:36.729190  1208 layer_factory.hpp:77] Creating layer bn3c_branch2c
I0526 18:18:36.729212  1208 net.cpp:84] Creating Layer bn3c_branch2c
I0526 18:18:36.729215  1208 net.cpp:406] bn3c_branch2c <- res3c_branch2c
I0526 18:18:36.729221  1208 net.cpp:367] bn3c_branch2c -> res3c_branch2c (in-place)
I0526 18:18:36.729409  1208 net.cpp:122] Setting up bn3c_branch2c
I0526 18:18:36.729416  1208 net.cpp:129] Top shape: 16 512 28 28 (6422528)
I0526 18:18:36.729419  1208 net.cpp:137] Memory required for data: 2437349440
I0526 18:18:36.729425  1208 layer_factory.hpp:77] Creating layer scale3c_branch2c
I0526 18:18:36.729429  1208 net.cpp:84] Creating Layer scale3c_branch2c
I0526 18:18:36.729432  1208 net.cpp:406] scale3c_branch2c <- res3c_branch2c
I0526 18:18:36.729436  1208 net.cpp:367] scale3c_branch2c -> res3c_branch2c (in-place)
I0526 18:18:36.729509  1208 layer_factory.hpp:77] Creating layer scale3c_branch2c
I0526 18:18:36.729653  1208 net.cpp:122] Setting up scale3c_branch2c
I0526 18:18:36.729660  1208 net.cpp:129] Top shape: 16 512 28 28 (6422528)
I0526 18:18:36.729676  1208 net.cpp:137] Memory required for data: 2463039552
I0526 18:18:36.729682  1208 layer_factory.hpp:77] Creating layer res3c
I0526 18:18:36.729689  1208 net.cpp:84] Creating Layer res3c
I0526 18:18:36.729693  1208 net.cpp:406] res3c <- res3b_res3b_relu_0_split_1
I0526 18:18:36.729697  1208 net.cpp:406] res3c <- res3c_branch2c
I0526 18:18:36.729701  1208 net.cpp:380] res3c -> res3c
I0526 18:18:36.729724  1208 net.cpp:122] Setting up res3c
I0526 18:18:36.729730  1208 net.cpp:129] Top shape: 16 512 28 28 (6422528)
I0526 18:18:36.729733  1208 net.cpp:137] Memory required for data: 2488729664
I0526 18:18:36.729737  1208 layer_factory.hpp:77] Creating layer res3c_relu
I0526 18:18:36.729741  1208 net.cpp:84] Creating Layer res3c_relu
I0526 18:18:36.729744  1208 net.cpp:406] res3c_relu <- res3c
I0526 18:18:36.729749  1208 net.cpp:367] res3c_relu -> res3c (in-place)
I0526 18:18:36.729914  1208 net.cpp:122] Setting up res3c_relu
I0526 18:18:36.729923  1208 net.cpp:129] Top shape: 16 512 28 28 (6422528)
I0526 18:18:36.729926  1208 net.cpp:137] Memory required for data: 2514419776
I0526 18:18:36.729929  1208 layer_factory.hpp:77] Creating layer res3c_res3c_relu_0_split
I0526 18:18:36.729935  1208 net.cpp:84] Creating Layer res3c_res3c_relu_0_split
I0526 18:18:36.729939  1208 net.cpp:406] res3c_res3c_relu_0_split <- res3c
I0526 18:18:36.729944  1208 net.cpp:380] res3c_res3c_relu_0_split -> res3c_res3c_relu_0_split_0
I0526 18:18:36.729952  1208 net.cpp:380] res3c_res3c_relu_0_split -> res3c_res3c_relu_0_split_1
I0526 18:18:36.729987  1208 net.cpp:122] Setting up res3c_res3c_relu_0_split
I0526 18:18:36.729993  1208 net.cpp:129] Top shape: 16 512 28 28 (6422528)
I0526 18:18:36.729998  1208 net.cpp:129] Top shape: 16 512 28 28 (6422528)
I0526 18:18:36.730001  1208 net.cpp:137] Memory required for data: 2565800000
I0526 18:18:36.730005  1208 layer_factory.hpp:77] Creating layer res3d_branch2a
I0526 18:18:36.730011  1208 net.cpp:84] Creating Layer res3d_branch2a
I0526 18:18:36.730016  1208 net.cpp:406] res3d_branch2a <- res3c_res3c_relu_0_split_0
I0526 18:18:36.730022  1208 net.cpp:380] res3d_branch2a -> res3d_branch2a
I0526 18:18:36.731889  1208 net.cpp:122] Setting up res3d_branch2a
I0526 18:18:36.731904  1208 net.cpp:129] Top shape: 16 128 28 28 (1605632)
I0526 18:18:36.731909  1208 net.cpp:137] Memory required for data: 2572222528
I0526 18:18:36.731914  1208 layer_factory.hpp:77] Creating layer bn3d_branch2a
I0526 18:18:36.731920  1208 net.cpp:84] Creating Layer bn3d_branch2a
I0526 18:18:36.731925  1208 net.cpp:406] bn3d_branch2a <- res3d_branch2a
I0526 18:18:36.731931  1208 net.cpp:367] bn3d_branch2a -> res3d_branch2a (in-place)
I0526 18:18:36.732108  1208 net.cpp:122] Setting up bn3d_branch2a
I0526 18:18:36.732115  1208 net.cpp:129] Top shape: 16 128 28 28 (1605632)
I0526 18:18:36.732118  1208 net.cpp:137] Memory required for data: 2578645056
I0526 18:18:36.732138  1208 layer_factory.hpp:77] Creating layer scale3d_branch2a
I0526 18:18:36.732146  1208 net.cpp:84] Creating Layer scale3d_branch2a
I0526 18:18:36.732149  1208 net.cpp:406] scale3d_branch2a <- res3d_branch2a
I0526 18:18:36.732153  1208 net.cpp:367] scale3d_branch2a -> res3d_branch2a (in-place)
I0526 18:18:36.732192  1208 layer_factory.hpp:77] Creating layer scale3d_branch2a
I0526 18:18:36.732288  1208 net.cpp:122] Setting up scale3d_branch2a
I0526 18:18:36.732295  1208 net.cpp:129] Top shape: 16 128 28 28 (1605632)
I0526 18:18:36.732298  1208 net.cpp:137] Memory required for data: 2585067584
I0526 18:18:36.732305  1208 layer_factory.hpp:77] Creating layer res3d_branch2a_relu
I0526 18:18:36.732311  1208 net.cpp:84] Creating Layer res3d_branch2a_relu
I0526 18:18:36.732316  1208 net.cpp:406] res3d_branch2a_relu <- res3d_branch2a
I0526 18:18:36.732319  1208 net.cpp:367] res3d_branch2a_relu -> res3d_branch2a (in-place)
I0526 18:18:36.732728  1208 net.cpp:122] Setting up res3d_branch2a_relu
I0526 18:18:36.732739  1208 net.cpp:129] Top shape: 16 128 28 28 (1605632)
I0526 18:18:36.732743  1208 net.cpp:137] Memory required for data: 2591490112
I0526 18:18:36.732748  1208 layer_factory.hpp:77] Creating layer res3d_branch2b
I0526 18:18:36.732756  1208 net.cpp:84] Creating Layer res3d_branch2b
I0526 18:18:36.732760  1208 net.cpp:406] res3d_branch2b <- res3d_branch2a
I0526 18:18:36.732765  1208 net.cpp:380] res3d_branch2b -> res3d_branch2b
I0526 18:18:36.734560  1208 net.cpp:122] Setting up res3d_branch2b
I0526 18:18:36.734572  1208 net.cpp:129] Top shape: 16 128 28 28 (1605632)
I0526 18:18:36.734577  1208 net.cpp:137] Memory required for data: 2597912640
I0526 18:18:36.734582  1208 layer_factory.hpp:77] Creating layer bn3d_branch2b
I0526 18:18:36.734588  1208 net.cpp:84] Creating Layer bn3d_branch2b
I0526 18:18:36.734593  1208 net.cpp:406] bn3d_branch2b <- res3d_branch2b
I0526 18:18:36.734599  1208 net.cpp:367] bn3d_branch2b -> res3d_branch2b (in-place)
I0526 18:18:36.734781  1208 net.cpp:122] Setting up bn3d_branch2b
I0526 18:18:36.734788  1208 net.cpp:129] Top shape: 16 128 28 28 (1605632)
I0526 18:18:36.734792  1208 net.cpp:137] Memory required for data: 2604335168
I0526 18:18:36.734798  1208 layer_factory.hpp:77] Creating layer scale3d_branch2b
I0526 18:18:36.734804  1208 net.cpp:84] Creating Layer scale3d_branch2b
I0526 18:18:36.734808  1208 net.cpp:406] scale3d_branch2b <- res3d_branch2b
I0526 18:18:36.734814  1208 net.cpp:367] scale3d_branch2b -> res3d_branch2b (in-place)
I0526 18:18:36.734849  1208 layer_factory.hpp:77] Creating layer scale3d_branch2b
I0526 18:18:36.734947  1208 net.cpp:122] Setting up scale3d_branch2b
I0526 18:18:36.734956  1208 net.cpp:129] Top shape: 16 128 28 28 (1605632)
I0526 18:18:36.734959  1208 net.cpp:137] Memory required for data: 2610757696
I0526 18:18:36.734964  1208 layer_factory.hpp:77] Creating layer res3d_branch2b_relu
I0526 18:18:36.734971  1208 net.cpp:84] Creating Layer res3d_branch2b_relu
I0526 18:18:36.734974  1208 net.cpp:406] res3d_branch2b_relu <- res3d_branch2b
I0526 18:18:36.734978  1208 net.cpp:367] res3d_branch2b_relu -> res3d_branch2b (in-place)
I0526 18:18:36.735152  1208 net.cpp:122] Setting up res3d_branch2b_relu
I0526 18:18:36.735159  1208 net.cpp:129] Top shape: 16 128 28 28 (1605632)
I0526 18:18:36.735163  1208 net.cpp:137] Memory required for data: 2617180224
I0526 18:18:36.735177  1208 layer_factory.hpp:77] Creating layer res3d_branch2c
I0526 18:18:36.735185  1208 net.cpp:84] Creating Layer res3d_branch2c
I0526 18:18:36.735189  1208 net.cpp:406] res3d_branch2c <- res3d_branch2b
I0526 18:18:36.735194  1208 net.cpp:380] res3d_branch2c -> res3d_branch2c
I0526 18:18:36.736402  1208 net.cpp:122] Setting up res3d_branch2c
I0526 18:18:36.736414  1208 net.cpp:129] Top shape: 16 512 28 28 (6422528)
I0526 18:18:36.736418  1208 net.cpp:137] Memory required for data: 2642870336
I0526 18:18:36.736423  1208 layer_factory.hpp:77] Creating layer bn3d_branch2c
I0526 18:18:36.736429  1208 net.cpp:84] Creating Layer bn3d_branch2c
I0526 18:18:36.736433  1208 net.cpp:406] bn3d_branch2c <- res3d_branch2c
I0526 18:18:36.736439  1208 net.cpp:367] bn3d_branch2c -> res3d_branch2c (in-place)
I0526 18:18:36.736614  1208 net.cpp:122] Setting up bn3d_branch2c
I0526 18:18:36.736621  1208 net.cpp:129] Top shape: 16 512 28 28 (6422528)
I0526 18:18:36.736624  1208 net.cpp:137] Memory required for data: 2668560448
I0526 18:18:36.736630  1208 layer_factory.hpp:77] Creating layer scale3d_branch2c
I0526 18:18:36.736637  1208 net.cpp:84] Creating Layer scale3d_branch2c
I0526 18:18:36.736641  1208 net.cpp:406] scale3d_branch2c <- res3d_branch2c
I0526 18:18:36.736645  1208 net.cpp:367] scale3d_branch2c -> res3d_branch2c (in-place)
I0526 18:18:36.736681  1208 layer_factory.hpp:77] Creating layer scale3d_branch2c
I0526 18:18:36.736780  1208 net.cpp:122] Setting up scale3d_branch2c
I0526 18:18:36.736788  1208 net.cpp:129] Top shape: 16 512 28 28 (6422528)
I0526 18:18:36.736790  1208 net.cpp:137] Memory required for data: 2694250560
I0526 18:18:36.736796  1208 layer_factory.hpp:77] Creating layer res3d
I0526 18:18:36.736802  1208 net.cpp:84] Creating Layer res3d
I0526 18:18:36.736807  1208 net.cpp:406] res3d <- res3c_res3c_relu_0_split_1
I0526 18:18:36.736811  1208 net.cpp:406] res3d <- res3d_branch2c
I0526 18:18:36.736817  1208 net.cpp:380] res3d -> res3d
I0526 18:18:36.736840  1208 net.cpp:122] Setting up res3d
I0526 18:18:36.736846  1208 net.cpp:129] Top shape: 16 512 28 28 (6422528)
I0526 18:18:36.736848  1208 net.cpp:137] Memory required for data: 2719940672
I0526 18:18:36.736851  1208 layer_factory.hpp:77] Creating layer res3d_relu
I0526 18:18:36.736855  1208 net.cpp:84] Creating Layer res3d_relu
I0526 18:18:36.736860  1208 net.cpp:406] res3d_relu <- res3d
I0526 18:18:36.736865  1208 net.cpp:367] res3d_relu -> res3d (in-place)
I0526 18:18:36.737026  1208 net.cpp:122] Setting up res3d_relu
I0526 18:18:36.737035  1208 net.cpp:129] Top shape: 16 512 28 28 (6422528)
I0526 18:18:36.737038  1208 net.cpp:137] Memory required for data: 2745630784
I0526 18:18:36.737041  1208 layer_factory.hpp:77] Creating layer res3d_res3d_relu_0_split
I0526 18:18:36.737047  1208 net.cpp:84] Creating Layer res3d_res3d_relu_0_split
I0526 18:18:36.737051  1208 net.cpp:406] res3d_res3d_relu_0_split <- res3d
I0526 18:18:36.737056  1208 net.cpp:380] res3d_res3d_relu_0_split -> res3d_res3d_relu_0_split_0
I0526 18:18:36.737063  1208 net.cpp:380] res3d_res3d_relu_0_split -> res3d_res3d_relu_0_split_1
I0526 18:18:36.737100  1208 net.cpp:122] Setting up res3d_res3d_relu_0_split
I0526 18:18:36.737107  1208 net.cpp:129] Top shape: 16 512 28 28 (6422528)
I0526 18:18:36.737112  1208 net.cpp:129] Top shape: 16 512 28 28 (6422528)
I0526 18:18:36.737114  1208 net.cpp:137] Memory required for data: 2797011008
I0526 18:18:36.737118  1208 layer_factory.hpp:77] Creating layer res4a_branch1
I0526 18:18:36.737125  1208 net.cpp:84] Creating Layer res4a_branch1
I0526 18:18:36.737129  1208 net.cpp:406] res4a_branch1 <- res3d_res3d_relu_0_split_0
I0526 18:18:36.737136  1208 net.cpp:380] res4a_branch1 -> res4a_branch1
I0526 18:18:36.740964  1208 net.cpp:122] Setting up res4a_branch1
I0526 18:18:36.740981  1208 net.cpp:129] Top shape: 16 1024 14 14 (3211264)
I0526 18:18:36.740985  1208 net.cpp:137] Memory required for data: 2809856064
I0526 18:18:36.740991  1208 layer_factory.hpp:77] Creating layer bn4a_branch1
I0526 18:18:36.740998  1208 net.cpp:84] Creating Layer bn4a_branch1
I0526 18:18:36.741011  1208 net.cpp:406] bn4a_branch1 <- res4a_branch1
I0526 18:18:36.741019  1208 net.cpp:367] bn4a_branch1 -> res4a_branch1 (in-place)
I0526 18:18:36.741261  1208 net.cpp:122] Setting up bn4a_branch1
I0526 18:18:36.741271  1208 net.cpp:129] Top shape: 16 1024 14 14 (3211264)
I0526 18:18:36.741273  1208 net.cpp:137] Memory required for data: 2822701120
I0526 18:18:36.741295  1208 layer_factory.hpp:77] Creating layer scale4a_branch1
I0526 18:18:36.741300  1208 net.cpp:84] Creating Layer scale4a_branch1
I0526 18:18:36.741303  1208 net.cpp:406] scale4a_branch1 <- res4a_branch1
I0526 18:18:36.741307  1208 net.cpp:367] scale4a_branch1 -> res4a_branch1 (in-place)
I0526 18:18:36.741377  1208 layer_factory.hpp:77] Creating layer scale4a_branch1
I0526 18:18:36.741515  1208 net.cpp:122] Setting up scale4a_branch1
I0526 18:18:36.741523  1208 net.cpp:129] Top shape: 16 1024 14 14 (3211264)
I0526 18:18:36.741526  1208 net.cpp:137] Memory required for data: 2835546176
I0526 18:18:36.741533  1208 layer_factory.hpp:77] Creating layer res4a_branch2a
I0526 18:18:36.741542  1208 net.cpp:84] Creating Layer res4a_branch2a
I0526 18:18:36.741545  1208 net.cpp:406] res4a_branch2a <- res3d_res3d_relu_0_split_1
I0526 18:18:36.741554  1208 net.cpp:380] res4a_branch2a -> res4a_branch2a
I0526 18:18:36.744170  1208 net.cpp:122] Setting up res4a_branch2a
I0526 18:18:36.744216  1208 net.cpp:129] Top shape: 16 256 14 14 (802816)
I0526 18:18:36.744220  1208 net.cpp:137] Memory required for data: 2838757440
I0526 18:18:36.744227  1208 layer_factory.hpp:77] Creating layer bn4a_branch2a
I0526 18:18:36.744249  1208 net.cpp:84] Creating Layer bn4a_branch2a
I0526 18:18:36.744253  1208 net.cpp:406] bn4a_branch2a <- res4a_branch2a
I0526 18:18:36.744261  1208 net.cpp:367] bn4a_branch2a -> res4a_branch2a (in-place)
I0526 18:18:36.744503  1208 net.cpp:122] Setting up bn4a_branch2a
I0526 18:18:36.744513  1208 net.cpp:129] Top shape: 16 256 14 14 (802816)
I0526 18:18:36.744529  1208 net.cpp:137] Memory required for data: 2841968704
I0526 18:18:36.744535  1208 layer_factory.hpp:77] Creating layer scale4a_branch2a
I0526 18:18:36.744540  1208 net.cpp:84] Creating Layer scale4a_branch2a
I0526 18:18:36.744545  1208 net.cpp:406] scale4a_branch2a <- res4a_branch2a
I0526 18:18:36.744550  1208 net.cpp:367] scale4a_branch2a -> res4a_branch2a (in-place)
I0526 18:18:36.744588  1208 layer_factory.hpp:77] Creating layer scale4a_branch2a
I0526 18:18:36.744693  1208 net.cpp:122] Setting up scale4a_branch2a
I0526 18:18:36.744700  1208 net.cpp:129] Top shape: 16 256 14 14 (802816)
I0526 18:18:36.744704  1208 net.cpp:137] Memory required for data: 2845179968
I0526 18:18:36.744709  1208 layer_factory.hpp:77] Creating layer res4a_branch2a_relu
I0526 18:18:36.744715  1208 net.cpp:84] Creating Layer res4a_branch2a_relu
I0526 18:18:36.744719  1208 net.cpp:406] res4a_branch2a_relu <- res4a_branch2a
I0526 18:18:36.744724  1208 net.cpp:367] res4a_branch2a_relu -> res4a_branch2a (in-place)
I0526 18:18:36.745169  1208 net.cpp:122] Setting up res4a_branch2a_relu
I0526 18:18:36.745182  1208 net.cpp:129] Top shape: 16 256 14 14 (802816)
I0526 18:18:36.745185  1208 net.cpp:137] Memory required for data: 2848391232
I0526 18:18:36.745189  1208 layer_factory.hpp:77] Creating layer res4a_branch2b
I0526 18:18:36.745198  1208 net.cpp:84] Creating Layer res4a_branch2b
I0526 18:18:36.745203  1208 net.cpp:406] res4a_branch2b <- res4a_branch2a
I0526 18:18:36.745208  1208 net.cpp:380] res4a_branch2b -> res4a_branch2b
I0526 18:18:36.750222  1208 net.cpp:122] Setting up res4a_branch2b
I0526 18:18:36.750244  1208 net.cpp:129] Top shape: 16 256 14 14 (802816)
I0526 18:18:36.750247  1208 net.cpp:137] Memory required for data: 2851602496
I0526 18:18:36.750270  1208 layer_factory.hpp:77] Creating layer bn4a_branch2b
I0526 18:18:36.750280  1208 net.cpp:84] Creating Layer bn4a_branch2b
I0526 18:18:36.750285  1208 net.cpp:406] bn4a_branch2b <- res4a_branch2b
I0526 18:18:36.750291  1208 net.cpp:367] bn4a_branch2b -> res4a_branch2b (in-place)
I0526 18:18:36.750500  1208 net.cpp:122] Setting up bn4a_branch2b
I0526 18:18:36.750509  1208 net.cpp:129] Top shape: 16 256 14 14 (802816)
I0526 18:18:36.750514  1208 net.cpp:137] Memory required for data: 2854813760
I0526 18:18:36.750520  1208 layer_factory.hpp:77] Creating layer scale4a_branch2b
I0526 18:18:36.750525  1208 net.cpp:84] Creating Layer scale4a_branch2b
I0526 18:18:36.750530  1208 net.cpp:406] scale4a_branch2b <- res4a_branch2b
I0526 18:18:36.750535  1208 net.cpp:367] scale4a_branch2b -> res4a_branch2b (in-place)
I0526 18:18:36.750577  1208 layer_factory.hpp:77] Creating layer scale4a_branch2b
I0526 18:18:36.750741  1208 net.cpp:122] Setting up scale4a_branch2b
I0526 18:18:36.750748  1208 net.cpp:129] Top shape: 16 256 14 14 (802816)
I0526 18:18:36.750764  1208 net.cpp:137] Memory required for data: 2858025024
I0526 18:18:36.750769  1208 layer_factory.hpp:77] Creating layer res4a_branch2b_relu
I0526 18:18:36.750773  1208 net.cpp:84] Creating Layer res4a_branch2b_relu
I0526 18:18:36.750777  1208 net.cpp:406] res4a_branch2b_relu <- res4a_branch2b
I0526 18:18:36.750782  1208 net.cpp:367] res4a_branch2b_relu -> res4a_branch2b (in-place)
I0526 18:18:36.750972  1208 net.cpp:122] Setting up res4a_branch2b_relu
I0526 18:18:36.750980  1208 net.cpp:129] Top shape: 16 256 14 14 (802816)
I0526 18:18:36.750984  1208 net.cpp:137] Memory required for data: 2861236288
I0526 18:18:36.750988  1208 layer_factory.hpp:77] Creating layer res4a_branch2c
I0526 18:18:36.750998  1208 net.cpp:84] Creating Layer res4a_branch2c
I0526 18:18:36.751001  1208 net.cpp:406] res4a_branch2c <- res4a_branch2b
I0526 18:18:36.751008  1208 net.cpp:380] res4a_branch2c -> res4a_branch2c
I0526 18:18:36.753909  1208 net.cpp:122] Setting up res4a_branch2c
I0526 18:18:36.753944  1208 net.cpp:129] Top shape: 16 1024 14 14 (3211264)
I0526 18:18:36.753947  1208 net.cpp:137] Memory required for data: 2874081344
I0526 18:18:36.753955  1208 layer_factory.hpp:77] Creating layer bn4a_branch2c
I0526 18:18:36.753981  1208 net.cpp:84] Creating Layer bn4a_branch2c
I0526 18:18:36.753986  1208 net.cpp:406] bn4a_branch2c <- res4a_branch2c
I0526 18:18:36.754005  1208 net.cpp:367] bn4a_branch2c -> res4a_branch2c (in-place)
I0526 18:18:36.754241  1208 net.cpp:122] Setting up bn4a_branch2c
I0526 18:18:36.754248  1208 net.cpp:129] Top shape: 16 1024 14 14 (3211264)
I0526 18:18:36.754251  1208 net.cpp:137] Memory required for data: 2886926400
I0526 18:18:36.754257  1208 layer_factory.hpp:77] Creating layer scale4a_branch2c
I0526 18:18:36.754262  1208 net.cpp:84] Creating Layer scale4a_branch2c
I0526 18:18:36.754266  1208 net.cpp:406] scale4a_branch2c <- res4a_branch2c
I0526 18:18:36.754271  1208 net.cpp:367] scale4a_branch2c -> res4a_branch2c (in-place)
I0526 18:18:36.754348  1208 layer_factory.hpp:77] Creating layer scale4a_branch2c
I0526 18:18:36.754503  1208 net.cpp:122] Setting up scale4a_branch2c
I0526 18:18:36.754509  1208 net.cpp:129] Top shape: 16 1024 14 14 (3211264)
I0526 18:18:36.754513  1208 net.cpp:137] Memory required for data: 2899771456
I0526 18:18:36.754518  1208 layer_factory.hpp:77] Creating layer res4a
I0526 18:18:36.754523  1208 net.cpp:84] Creating Layer res4a
I0526 18:18:36.754526  1208 net.cpp:406] res4a <- res4a_branch1
I0526 18:18:36.754529  1208 net.cpp:406] res4a <- res4a_branch2c
I0526 18:18:36.754534  1208 net.cpp:380] res4a -> res4a
I0526 18:18:36.754570  1208 net.cpp:122] Setting up res4a
I0526 18:18:36.754577  1208 net.cpp:129] Top shape: 16 1024 14 14 (3211264)
I0526 18:18:36.754580  1208 net.cpp:137] Memory required for data: 2912616512
I0526 18:18:36.754583  1208 layer_factory.hpp:77] Creating layer res4a_relu
I0526 18:18:36.754588  1208 net.cpp:84] Creating Layer res4a_relu
I0526 18:18:36.754592  1208 net.cpp:406] res4a_relu <- res4a
I0526 18:18:36.754596  1208 net.cpp:367] res4a_relu -> res4a (in-place)
I0526 18:18:36.754797  1208 net.cpp:122] Setting up res4a_relu
I0526 18:18:36.754807  1208 net.cpp:129] Top shape: 16 1024 14 14 (3211264)
I0526 18:18:36.754823  1208 net.cpp:137] Memory required for data: 2925461568
I0526 18:18:36.754827  1208 layer_factory.hpp:77] Creating layer res4a_res4a_relu_0_split
I0526 18:18:36.754855  1208 net.cpp:84] Creating Layer res4a_res4a_relu_0_split
I0526 18:18:36.754859  1208 net.cpp:406] res4a_res4a_relu_0_split <- res4a
I0526 18:18:36.754865  1208 net.cpp:380] res4a_res4a_relu_0_split -> res4a_res4a_relu_0_split_0
I0526 18:18:36.754886  1208 net.cpp:380] res4a_res4a_relu_0_split -> res4a_res4a_relu_0_split_1
I0526 18:18:36.754950  1208 net.cpp:122] Setting up res4a_res4a_relu_0_split
I0526 18:18:36.754983  1208 net.cpp:129] Top shape: 16 1024 14 14 (3211264)
I0526 18:18:36.754997  1208 net.cpp:129] Top shape: 16 1024 14 14 (3211264)
I0526 18:18:36.755002  1208 net.cpp:137] Memory required for data: 2951151680
I0526 18:18:36.755005  1208 layer_factory.hpp:77] Creating layer res4b_branch2a
I0526 18:18:36.755043  1208 net.cpp:84] Creating Layer res4b_branch2a
I0526 18:18:36.755048  1208 net.cpp:406] res4b_branch2a <- res4a_res4a_relu_0_split_0
I0526 18:18:36.755054  1208 net.cpp:380] res4b_branch2a -> res4b_branch2a
I0526 18:18:36.757936  1208 net.cpp:122] Setting up res4b_branch2a
I0526 18:18:36.757951  1208 net.cpp:129] Top shape: 16 256 14 14 (802816)
I0526 18:18:36.757956  1208 net.cpp:137] Memory required for data: 2954362944
I0526 18:18:36.757977  1208 layer_factory.hpp:77] Creating layer bn4b_branch2a
I0526 18:18:36.757985  1208 net.cpp:84] Creating Layer bn4b_branch2a
I0526 18:18:36.757989  1208 net.cpp:406] bn4b_branch2a <- res4b_branch2a
I0526 18:18:36.757997  1208 net.cpp:367] bn4b_branch2a -> res4b_branch2a (in-place)
I0526 18:18:36.758239  1208 net.cpp:122] Setting up bn4b_branch2a
I0526 18:18:36.758247  1208 net.cpp:129] Top shape: 16 256 14 14 (802816)
I0526 18:18:36.758249  1208 net.cpp:137] Memory required for data: 2957574208
I0526 18:18:36.758256  1208 layer_factory.hpp:77] Creating layer scale4b_branch2a
I0526 18:18:36.758261  1208 net.cpp:84] Creating Layer scale4b_branch2a
I0526 18:18:36.758265  1208 net.cpp:406] scale4b_branch2a <- res4b_branch2a
I0526 18:18:36.758270  1208 net.cpp:367] scale4b_branch2a -> res4b_branch2a (in-place)
I0526 18:18:36.758313  1208 layer_factory.hpp:77] Creating layer scale4b_branch2a
I0526 18:18:36.758442  1208 net.cpp:122] Setting up scale4b_branch2a
I0526 18:18:36.758450  1208 net.cpp:129] Top shape: 16 256 14 14 (802816)
I0526 18:18:36.758451  1208 net.cpp:137] Memory required for data: 2960785472
I0526 18:18:36.758457  1208 layer_factory.hpp:77] Creating layer res4b_branch2a_relu
I0526 18:18:36.758461  1208 net.cpp:84] Creating Layer res4b_branch2a_relu
I0526 18:18:36.758464  1208 net.cpp:406] res4b_branch2a_relu <- res4b_branch2a
I0526 18:18:36.758468  1208 net.cpp:367] res4b_branch2a_relu -> res4b_branch2a (in-place)
I0526 18:18:36.758898  1208 net.cpp:122] Setting up res4b_branch2a_relu
I0526 18:18:36.758910  1208 net.cpp:129] Top shape: 16 256 14 14 (802816)
I0526 18:18:36.758913  1208 net.cpp:137] Memory required for data: 2963996736
I0526 18:18:36.758916  1208 layer_factory.hpp:77] Creating layer res4b_branch2b
I0526 18:18:36.758925  1208 net.cpp:84] Creating Layer res4b_branch2b
I0526 18:18:36.758929  1208 net.cpp:406] res4b_branch2b <- res4b_branch2a
I0526 18:18:36.758934  1208 net.cpp:380] res4b_branch2b -> res4b_branch2b
I0526 18:18:36.763396  1208 net.cpp:122] Setting up res4b_branch2b
I0526 18:18:36.763412  1208 net.cpp:129] Top shape: 16 256 14 14 (802816)
I0526 18:18:36.763417  1208 net.cpp:137] Memory required for data: 2967208000
I0526 18:18:36.763422  1208 layer_factory.hpp:77] Creating layer bn4b_branch2b
I0526 18:18:36.763430  1208 net.cpp:84] Creating Layer bn4b_branch2b
I0526 18:18:36.763434  1208 net.cpp:406] bn4b_branch2b <- res4b_branch2b
I0526 18:18:36.763439  1208 net.cpp:367] bn4b_branch2b -> res4b_branch2b (in-place)
I0526 18:18:36.763630  1208 net.cpp:122] Setting up bn4b_branch2b
I0526 18:18:36.763636  1208 net.cpp:129] Top shape: 16 256 14 14 (802816)
I0526 18:18:36.763640  1208 net.cpp:137] Memory required for data: 2970419264
I0526 18:18:36.763646  1208 layer_factory.hpp:77] Creating layer scale4b_branch2b
I0526 18:18:36.763651  1208 net.cpp:84] Creating Layer scale4b_branch2b
I0526 18:18:36.763666  1208 net.cpp:406] scale4b_branch2b <- res4b_branch2b
I0526 18:18:36.763672  1208 net.cpp:367] scale4b_branch2b -> res4b_branch2b (in-place)
I0526 18:18:36.763712  1208 layer_factory.hpp:77] Creating layer scale4b_branch2b
I0526 18:18:36.763841  1208 net.cpp:122] Setting up scale4b_branch2b
I0526 18:18:36.763849  1208 net.cpp:129] Top shape: 16 256 14 14 (802816)
I0526 18:18:36.763851  1208 net.cpp:137] Memory required for data: 2973630528
I0526 18:18:36.763856  1208 layer_factory.hpp:77] Creating layer res4b_branch2b_relu
I0526 18:18:36.763861  1208 net.cpp:84] Creating Layer res4b_branch2b_relu
I0526 18:18:36.763864  1208 net.cpp:406] res4b_branch2b_relu <- res4b_branch2b
I0526 18:18:36.763870  1208 net.cpp:367] res4b_branch2b_relu -> res4b_branch2b (in-place)
I0526 18:18:36.764037  1208 net.cpp:122] Setting up res4b_branch2b_relu
I0526 18:18:36.764045  1208 net.cpp:129] Top shape: 16 256 14 14 (802816)
I0526 18:18:36.764047  1208 net.cpp:137] Memory required for data: 2976841792
I0526 18:18:36.764051  1208 layer_factory.hpp:77] Creating layer res4b_branch2c
I0526 18:18:36.764060  1208 net.cpp:84] Creating Layer res4b_branch2c
I0526 18:18:36.764063  1208 net.cpp:406] res4b_branch2c <- res4b_branch2b
I0526 18:18:36.764070  1208 net.cpp:380] res4b_branch2c -> res4b_branch2c
I0526 18:18:36.766070  1208 net.cpp:122] Setting up res4b_branch2c
I0526 18:18:36.766083  1208 net.cpp:129] Top shape: 16 1024 14 14 (3211264)
I0526 18:18:36.766085  1208 net.cpp:137] Memory required for data: 2989686848
I0526 18:18:36.766090  1208 layer_factory.hpp:77] Creating layer bn4b_branch2c
I0526 18:18:36.766096  1208 net.cpp:84] Creating Layer bn4b_branch2c
I0526 18:18:36.766099  1208 net.cpp:406] bn4b_branch2c <- res4b_branch2c
I0526 18:18:36.766104  1208 net.cpp:367] bn4b_branch2c -> res4b_branch2c (in-place)
I0526 18:18:36.766384  1208 net.cpp:122] Setting up bn4b_branch2c
I0526 18:18:36.766392  1208 net.cpp:129] Top shape: 16 1024 14 14 (3211264)
I0526 18:18:36.766396  1208 net.cpp:137] Memory required for data: 3002531904
I0526 18:18:36.766402  1208 layer_factory.hpp:77] Creating layer scale4b_branch2c
I0526 18:18:36.766407  1208 net.cpp:84] Creating Layer scale4b_branch2c
I0526 18:18:36.766410  1208 net.cpp:406] scale4b_branch2c <- res4b_branch2c
I0526 18:18:36.766413  1208 net.cpp:367] scale4b_branch2c -> res4b_branch2c (in-place)
I0526 18:18:36.766475  1208 layer_factory.hpp:77] Creating layer scale4b_branch2c
I0526 18:18:36.766682  1208 net.cpp:122] Setting up scale4b_branch2c
I0526 18:18:36.766690  1208 net.cpp:129] Top shape: 16 1024 14 14 (3211264)
I0526 18:18:36.766691  1208 net.cpp:137] Memory required for data: 3015376960
I0526 18:18:36.766696  1208 layer_factory.hpp:77] Creating layer res4b
I0526 18:18:36.766702  1208 net.cpp:84] Creating Layer res4b
I0526 18:18:36.766705  1208 net.cpp:406] res4b <- res4a_res4a_relu_0_split_1
I0526 18:18:36.766710  1208 net.cpp:406] res4b <- res4b_branch2c
I0526 18:18:36.766715  1208 net.cpp:380] res4b -> res4b
I0526 18:18:36.766764  1208 net.cpp:122] Setting up res4b
I0526 18:18:36.766770  1208 net.cpp:129] Top shape: 16 1024 14 14 (3211264)
I0526 18:18:36.766786  1208 net.cpp:137] Memory required for data: 3028222016
I0526 18:18:36.766789  1208 layer_factory.hpp:77] Creating layer res4b_relu
I0526 18:18:36.766793  1208 net.cpp:84] Creating Layer res4b_relu
I0526 18:18:36.766796  1208 net.cpp:406] res4b_relu <- res4b
I0526 18:18:36.766801  1208 net.cpp:367] res4b_relu -> res4b (in-place)
I0526 18:18:36.767027  1208 net.cpp:122] Setting up res4b_relu
I0526 18:18:36.767035  1208 net.cpp:129] Top shape: 16 1024 14 14 (3211264)
I0526 18:18:36.767051  1208 net.cpp:137] Memory required for data: 3041067072
I0526 18:18:36.767055  1208 layer_factory.hpp:77] Creating layer res4b_res4b_relu_0_split
I0526 18:18:36.767060  1208 net.cpp:84] Creating Layer res4b_res4b_relu_0_split
I0526 18:18:36.767062  1208 net.cpp:406] res4b_res4b_relu_0_split <- res4b
I0526 18:18:36.767083  1208 net.cpp:380] res4b_res4b_relu_0_split -> res4b_res4b_relu_0_split_0
I0526 18:18:36.767127  1208 net.cpp:380] res4b_res4b_relu_0_split -> res4b_res4b_relu_0_split_1
I0526 18:18:36.767207  1208 net.cpp:122] Setting up res4b_res4b_relu_0_split
I0526 18:18:36.767213  1208 net.cpp:129] Top shape: 16 1024 14 14 (3211264)
I0526 18:18:36.767231  1208 net.cpp:129] Top shape: 16 1024 14 14 (3211264)
I0526 18:18:36.767235  1208 net.cpp:137] Memory required for data: 3066757184
I0526 18:18:36.767236  1208 layer_factory.hpp:77] Creating layer res4c_branch2a
I0526 18:18:36.767256  1208 net.cpp:84] Creating Layer res4c_branch2a
I0526 18:18:36.767259  1208 net.cpp:406] res4c_branch2a <- res4b_res4b_relu_0_split_0
I0526 18:18:36.767266  1208 net.cpp:380] res4c_branch2a -> res4c_branch2a
I0526 18:18:36.769971  1208 net.cpp:122] Setting up res4c_branch2a
I0526 18:18:36.769999  1208 net.cpp:129] Top shape: 16 256 14 14 (802816)
I0526 18:18:36.770004  1208 net.cpp:137] Memory required for data: 3069968448
I0526 18:18:36.770009  1208 layer_factory.hpp:77] Creating layer bn4c_branch2a
I0526 18:18:36.770030  1208 net.cpp:84] Creating Layer bn4c_branch2a
I0526 18:18:36.770035  1208 net.cpp:406] bn4c_branch2a <- res4c_branch2a
I0526 18:18:36.770053  1208 net.cpp:367] bn4c_branch2a -> res4c_branch2a (in-place)
I0526 18:18:36.770306  1208 net.cpp:122] Setting up bn4c_branch2a
I0526 18:18:36.770313  1208 net.cpp:129] Top shape: 16 256 14 14 (802816)
I0526 18:18:36.770316  1208 net.cpp:137] Memory required for data: 3073179712
I0526 18:18:36.770323  1208 layer_factory.hpp:77] Creating layer scale4c_branch2a
I0526 18:18:36.770328  1208 net.cpp:84] Creating Layer scale4c_branch2a
I0526 18:18:36.770331  1208 net.cpp:406] scale4c_branch2a <- res4c_branch2a
I0526 18:18:36.770335  1208 net.cpp:367] scale4c_branch2a -> res4c_branch2a (in-place)
I0526 18:18:36.770417  1208 layer_factory.hpp:77] Creating layer scale4c_branch2a
I0526 18:18:36.770581  1208 net.cpp:122] Setting up scale4c_branch2a
I0526 18:18:36.770587  1208 net.cpp:129] Top shape: 16 256 14 14 (802816)
I0526 18:18:36.770604  1208 net.cpp:137] Memory required for data: 3076390976
I0526 18:18:36.770609  1208 layer_factory.hpp:77] Creating layer res4c_branch2a_relu
I0526 18:18:36.770615  1208 net.cpp:84] Creating Layer res4c_branch2a_relu
I0526 18:18:36.770619  1208 net.cpp:406] res4c_branch2a_relu <- res4c_branch2a
I0526 18:18:36.770637  1208 net.cpp:367] res4c_branch2a_relu -> res4c_branch2a (in-place)
I0526 18:18:36.770846  1208 net.cpp:122] Setting up res4c_branch2a_relu
I0526 18:18:36.770854  1208 net.cpp:129] Top shape: 16 256 14 14 (802816)
I0526 18:18:36.770858  1208 net.cpp:137] Memory required for data: 3079602240
I0526 18:18:36.770859  1208 layer_factory.hpp:77] Creating layer res4c_branch2b
I0526 18:18:36.770867  1208 net.cpp:84] Creating Layer res4c_branch2b
I0526 18:18:36.770871  1208 net.cpp:406] res4c_branch2b <- res4c_branch2a
I0526 18:18:36.770877  1208 net.cpp:380] res4c_branch2b -> res4c_branch2b
I0526 18:18:36.775171  1208 net.cpp:122] Setting up res4c_branch2b
I0526 18:18:36.775187  1208 net.cpp:129] Top shape: 16 256 14 14 (802816)
I0526 18:18:36.775192  1208 net.cpp:137] Memory required for data: 3082813504
I0526 18:18:36.775197  1208 layer_factory.hpp:77] Creating layer bn4c_branch2b
I0526 18:18:36.775204  1208 net.cpp:84] Creating Layer bn4c_branch2b
I0526 18:18:36.775207  1208 net.cpp:406] bn4c_branch2b <- res4c_branch2b
I0526 18:18:36.775213  1208 net.cpp:367] bn4c_branch2b -> res4c_branch2b (in-place)
I0526 18:18:36.775454  1208 net.cpp:122] Setting up bn4c_branch2b
I0526 18:18:36.775460  1208 net.cpp:129] Top shape: 16 256 14 14 (802816)
I0526 18:18:36.775463  1208 net.cpp:137] Memory required for data: 3086024768
I0526 18:18:36.775470  1208 layer_factory.hpp:77] Creating layer scale4c_branch2b
I0526 18:18:36.775475  1208 net.cpp:84] Creating Layer scale4c_branch2b
I0526 18:18:36.775478  1208 net.cpp:406] scale4c_branch2b <- res4c_branch2b
I0526 18:18:36.775482  1208 net.cpp:367] scale4c_branch2b -> res4c_branch2b (in-place)
I0526 18:18:36.775552  1208 layer_factory.hpp:77] Creating layer scale4c_branch2b
I0526 18:18:36.775758  1208 net.cpp:122] Setting up scale4c_branch2b
I0526 18:18:36.775774  1208 net.cpp:129] Top shape: 16 256 14 14 (802816)
I0526 18:18:36.775776  1208 net.cpp:137] Memory required for data: 3089236032
I0526 18:18:36.775782  1208 layer_factory.hpp:77] Creating layer res4c_branch2b_relu
I0526 18:18:36.775786  1208 net.cpp:84] Creating Layer res4c_branch2b_relu
I0526 18:18:36.775789  1208 net.cpp:406] res4c_branch2b_relu <- res4c_branch2b
I0526 18:18:36.775794  1208 net.cpp:367] res4c_branch2b_relu -> res4c_branch2b (in-place)
I0526 18:18:36.776253  1208 net.cpp:122] Setting up res4c_branch2b_relu
I0526 18:18:36.776263  1208 net.cpp:129] Top shape: 16 256 14 14 (802816)
I0526 18:18:36.776266  1208 net.cpp:137] Memory required for data: 3092447296
I0526 18:18:36.776269  1208 layer_factory.hpp:77] Creating layer res4c_branch2c
I0526 18:18:36.776278  1208 net.cpp:84] Creating Layer res4c_branch2c
I0526 18:18:36.776283  1208 net.cpp:406] res4c_branch2c <- res4c_branch2b
I0526 18:18:36.776288  1208 net.cpp:380] res4c_branch2c -> res4c_branch2c
I0526 18:18:36.778332  1208 net.cpp:122] Setting up res4c_branch2c
I0526 18:18:36.778343  1208 net.cpp:129] Top shape: 16 1024 14 14 (3211264)
I0526 18:18:36.778347  1208 net.cpp:137] Memory required for data: 3105292352
I0526 18:18:36.778352  1208 layer_factory.hpp:77] Creating layer bn4c_branch2c
I0526 18:18:36.778357  1208 net.cpp:84] Creating Layer bn4c_branch2c
I0526 18:18:36.778360  1208 net.cpp:406] bn4c_branch2c <- res4c_branch2c
I0526 18:18:36.778365  1208 net.cpp:367] bn4c_branch2c -> res4c_branch2c (in-place)
I0526 18:18:36.778604  1208 net.cpp:122] Setting up bn4c_branch2c
I0526 18:18:36.778609  1208 net.cpp:129] Top shape: 16 1024 14 14 (3211264)
I0526 18:18:36.778612  1208 net.cpp:137] Memory required for data: 3118137408
I0526 18:18:36.778618  1208 layer_factory.hpp:77] Creating layer scale4c_branch2c
I0526 18:18:36.778623  1208 net.cpp:84] Creating Layer scale4c_branch2c
I0526 18:18:36.778626  1208 net.cpp:406] scale4c_branch2c <- res4c_branch2c
I0526 18:18:36.778631  1208 net.cpp:367] scale4c_branch2c -> res4c_branch2c (in-place)
I0526 18:18:36.778705  1208 layer_factory.hpp:77] Creating layer scale4c_branch2c
I0526 18:18:36.778904  1208 net.cpp:122] Setting up scale4c_branch2c
I0526 18:18:36.778925  1208 net.cpp:129] Top shape: 16 1024 14 14 (3211264)
I0526 18:18:36.778928  1208 net.cpp:137] Memory required for data: 3130982464
I0526 18:18:36.778934  1208 layer_factory.hpp:77] Creating layer res4c
I0526 18:18:36.778954  1208 net.cpp:84] Creating Layer res4c
I0526 18:18:36.778956  1208 net.cpp:406] res4c <- res4b_res4b_relu_0_split_1
I0526 18:18:36.778960  1208 net.cpp:406] res4c <- res4c_branch2c
I0526 18:18:36.778964  1208 net.cpp:380] res4c -> res4c
I0526 18:18:36.779002  1208 net.cpp:122] Setting up res4c
I0526 18:18:36.779008  1208 net.cpp:129] Top shape: 16 1024 14 14 (3211264)
I0526 18:18:36.779011  1208 net.cpp:137] Memory required for data: 3143827520
I0526 18:18:36.779034  1208 layer_factory.hpp:77] Creating layer res4c_relu
I0526 18:18:36.779039  1208 net.cpp:84] Creating Layer res4c_relu
I0526 18:18:36.779057  1208 net.cpp:406] res4c_relu <- res4c
I0526 18:18:36.779060  1208 net.cpp:367] res4c_relu -> res4c (in-place)
I0526 18:18:36.779256  1208 net.cpp:122] Setting up res4c_relu
I0526 18:18:36.779264  1208 net.cpp:129] Top shape: 16 1024 14 14 (3211264)
I0526 18:18:36.779281  1208 net.cpp:137] Memory required for data: 3156672576
I0526 18:18:36.779284  1208 layer_factory.hpp:77] Creating layer res4c_res4c_relu_0_split
I0526 18:18:36.779289  1208 net.cpp:84] Creating Layer res4c_res4c_relu_0_split
I0526 18:18:36.779306  1208 net.cpp:406] res4c_res4c_relu_0_split <- res4c
I0526 18:18:36.779310  1208 net.cpp:380] res4c_res4c_relu_0_split -> res4c_res4c_relu_0_split_0
I0526 18:18:36.779319  1208 net.cpp:380] res4c_res4c_relu_0_split -> res4c_res4c_relu_0_split_1
I0526 18:18:36.779393  1208 net.cpp:122] Setting up res4c_res4c_relu_0_split
I0526 18:18:36.779400  1208 net.cpp:129] Top shape: 16 1024 14 14 (3211264)
I0526 18:18:36.779418  1208 net.cpp:129] Top shape: 16 1024 14 14 (3211264)
I0526 18:18:36.779429  1208 net.cpp:137] Memory required for data: 3182362688
I0526 18:18:36.779433  1208 layer_factory.hpp:77] Creating layer res4d_branch2a
I0526 18:18:36.779443  1208 net.cpp:84] Creating Layer res4d_branch2a
I0526 18:18:36.779446  1208 net.cpp:406] res4d_branch2a <- res4c_res4c_relu_0_split_0
I0526 18:18:36.779453  1208 net.cpp:380] res4d_branch2a -> res4d_branch2a
I0526 18:18:36.782495  1208 net.cpp:122] Setting up res4d_branch2a
I0526 18:18:36.782531  1208 net.cpp:129] Top shape: 16 256 14 14 (802816)
I0526 18:18:36.782534  1208 net.cpp:137] Memory required for data: 3185573952
I0526 18:18:36.782557  1208 layer_factory.hpp:77] Creating layer bn4d_branch2a
I0526 18:18:36.782564  1208 net.cpp:84] Creating Layer bn4d_branch2a
I0526 18:18:36.782568  1208 net.cpp:406] bn4d_branch2a <- res4d_branch2a
I0526 18:18:36.782575  1208 net.cpp:367] bn4d_branch2a -> res4d_branch2a (in-place)
I0526 18:18:36.782795  1208 net.cpp:122] Setting up bn4d_branch2a
I0526 18:18:36.782802  1208 net.cpp:129] Top shape: 16 256 14 14 (802816)
I0526 18:18:36.782819  1208 net.cpp:137] Memory required for data: 3188785216
I0526 18:18:36.782825  1208 layer_factory.hpp:77] Creating layer scale4d_branch2a
I0526 18:18:36.782831  1208 net.cpp:84] Creating Layer scale4d_branch2a
I0526 18:18:36.782835  1208 net.cpp:406] scale4d_branch2a <- res4d_branch2a
I0526 18:18:36.782840  1208 net.cpp:367] scale4d_branch2a -> res4d_branch2a (in-place)
I0526 18:18:36.782913  1208 layer_factory.hpp:77] Creating layer scale4d_branch2a
I0526 18:18:36.783023  1208 net.cpp:122] Setting up scale4d_branch2a
I0526 18:18:36.783030  1208 net.cpp:129] Top shape: 16 256 14 14 (802816)
I0526 18:18:36.783035  1208 net.cpp:137] Memory required for data: 3191996480
I0526 18:18:36.783041  1208 layer_factory.hpp:77] Creating layer res4d_branch2a_relu
I0526 18:18:36.783046  1208 net.cpp:84] Creating Layer res4d_branch2a_relu
I0526 18:18:36.783048  1208 net.cpp:406] res4d_branch2a_relu <- res4d_branch2a
I0526 18:18:36.783052  1208 net.cpp:367] res4d_branch2a_relu -> res4d_branch2a (in-place)
I0526 18:18:36.783267  1208 net.cpp:122] Setting up res4d_branch2a_relu
I0526 18:18:36.783275  1208 net.cpp:129] Top shape: 16 256 14 14 (802816)
I0526 18:18:36.783278  1208 net.cpp:137] Memory required for data: 3195207744
I0526 18:18:36.783296  1208 layer_factory.hpp:77] Creating layer res4d_branch2b
I0526 18:18:36.783306  1208 net.cpp:84] Creating Layer res4d_branch2b
I0526 18:18:36.783309  1208 net.cpp:406] res4d_branch2b <- res4d_branch2a
I0526 18:18:36.783315  1208 net.cpp:380] res4d_branch2b -> res4d_branch2b
I0526 18:18:36.788005  1208 net.cpp:122] Setting up res4d_branch2b
I0526 18:18:36.788027  1208 net.cpp:129] Top shape: 16 256 14 14 (802816)
I0526 18:18:36.788029  1208 net.cpp:137] Memory required for data: 3198419008
I0526 18:18:36.788038  1208 layer_factory.hpp:77] Creating layer bn4d_branch2b
I0526 18:18:36.788045  1208 net.cpp:84] Creating Layer bn4d_branch2b
I0526 18:18:36.788049  1208 net.cpp:406] bn4d_branch2b <- res4d_branch2b
I0526 18:18:36.788056  1208 net.cpp:367] bn4d_branch2b -> res4d_branch2b (in-place)
I0526 18:18:36.788295  1208 net.cpp:122] Setting up bn4d_branch2b
I0526 18:18:36.788301  1208 net.cpp:129] Top shape: 16 256 14 14 (802816)
I0526 18:18:36.788305  1208 net.cpp:137] Memory required for data: 3201630272
I0526 18:18:36.788311  1208 layer_factory.hpp:77] Creating layer scale4d_branch2b
I0526 18:18:36.788316  1208 net.cpp:84] Creating Layer scale4d_branch2b
I0526 18:18:36.788319  1208 net.cpp:406] scale4d_branch2b <- res4d_branch2b
I0526 18:18:36.788324  1208 net.cpp:367] scale4d_branch2b -> res4d_branch2b (in-place)
I0526 18:18:36.788364  1208 layer_factory.hpp:77] Creating layer scale4d_branch2b
I0526 18:18:36.788508  1208 net.cpp:122] Setting up scale4d_branch2b
I0526 18:18:36.788516  1208 net.cpp:129] Top shape: 16 256 14 14 (802816)
I0526 18:18:36.788517  1208 net.cpp:137] Memory required for data: 3204841536
I0526 18:18:36.788522  1208 layer_factory.hpp:77] Creating layer res4d_branch2b_relu
I0526 18:18:36.788527  1208 net.cpp:84] Creating Layer res4d_branch2b_relu
I0526 18:18:36.788542  1208 net.cpp:406] res4d_branch2b_relu <- res4d_branch2b
I0526 18:18:36.788547  1208 net.cpp:367] res4d_branch2b_relu -> res4d_branch2b (in-place)
I0526 18:18:36.788967  1208 net.cpp:122] Setting up res4d_branch2b_relu
I0526 18:18:36.788978  1208 net.cpp:129] Top shape: 16 256 14 14 (802816)
I0526 18:18:36.788981  1208 net.cpp:137] Memory required for data: 3208052800
I0526 18:18:36.788985  1208 layer_factory.hpp:77] Creating layer res4d_branch2c
I0526 18:18:36.788995  1208 net.cpp:84] Creating Layer res4d_branch2c
I0526 18:18:36.788998  1208 net.cpp:406] res4d_branch2c <- res4d_branch2b
I0526 18:18:36.789005  1208 net.cpp:380] res4d_branch2c -> res4d_branch2c
I0526 18:18:36.791064  1208 net.cpp:122] Setting up res4d_branch2c
I0526 18:18:36.791075  1208 net.cpp:129] Top shape: 16 1024 14 14 (3211264)
I0526 18:18:36.791080  1208 net.cpp:137] Memory required for data: 3220897856
I0526 18:18:36.791085  1208 layer_factory.hpp:77] Creating layer bn4d_branch2c
I0526 18:18:36.791091  1208 net.cpp:84] Creating Layer bn4d_branch2c
I0526 18:18:36.791095  1208 net.cpp:406] bn4d_branch2c <- res4d_branch2c
I0526 18:18:36.791098  1208 net.cpp:367] bn4d_branch2c -> res4d_branch2c (in-place)
I0526 18:18:36.791293  1208 net.cpp:122] Setting up bn4d_branch2c
I0526 18:18:36.791301  1208 net.cpp:129] Top shape: 16 1024 14 14 (3211264)
I0526 18:18:36.791303  1208 net.cpp:137] Memory required for data: 3233742912
I0526 18:18:36.791309  1208 layer_factory.hpp:77] Creating layer scale4d_branch2c
I0526 18:18:36.791314  1208 net.cpp:84] Creating Layer scale4d_branch2c
I0526 18:18:36.791317  1208 net.cpp:406] scale4d_branch2c <- res4d_branch2c
I0526 18:18:36.791321  1208 net.cpp:367] scale4d_branch2c -> res4d_branch2c (in-place)
I0526 18:18:36.791359  1208 layer_factory.hpp:77] Creating layer scale4d_branch2c
I0526 18:18:36.791527  1208 net.cpp:122] Setting up scale4d_branch2c
I0526 18:18:36.791533  1208 net.cpp:129] Top shape: 16 1024 14 14 (3211264)
I0526 18:18:36.791535  1208 net.cpp:137] Memory required for data: 3246587968
I0526 18:18:36.791540  1208 layer_factory.hpp:77] Creating layer res4d
I0526 18:18:36.791546  1208 net.cpp:84] Creating Layer res4d
I0526 18:18:36.791549  1208 net.cpp:406] res4d <- res4c_res4c_relu_0_split_1
I0526 18:18:36.791553  1208 net.cpp:406] res4d <- res4d_branch2c
I0526 18:18:36.791558  1208 net.cpp:380] res4d -> res4d
I0526 18:18:36.791580  1208 net.cpp:122] Setting up res4d
I0526 18:18:36.791586  1208 net.cpp:129] Top shape: 16 1024 14 14 (3211264)
I0526 18:18:36.791589  1208 net.cpp:137] Memory required for data: 3259433024
I0526 18:18:36.791592  1208 layer_factory.hpp:77] Creating layer res4d_relu
I0526 18:18:36.791596  1208 net.cpp:84] Creating Layer res4d_relu
I0526 18:18:36.791599  1208 net.cpp:406] res4d_relu <- res4d
I0526 18:18:36.791604  1208 net.cpp:367] res4d_relu -> res4d (in-place)
I0526 18:18:36.791796  1208 net.cpp:122] Setting up res4d_relu
I0526 18:18:36.791805  1208 net.cpp:129] Top shape: 16 1024 14 14 (3211264)
I0526 18:18:36.791807  1208 net.cpp:137] Memory required for data: 3272278080
I0526 18:18:36.791810  1208 layer_factory.hpp:77] Creating layer res4d_res4d_relu_0_split
I0526 18:18:36.791815  1208 net.cpp:84] Creating Layer res4d_res4d_relu_0_split
I0526 18:18:36.791818  1208 net.cpp:406] res4d_res4d_relu_0_split <- res4d
I0526 18:18:36.791824  1208 net.cpp:380] res4d_res4d_relu_0_split -> res4d_res4d_relu_0_split_0
I0526 18:18:36.791849  1208 net.cpp:380] res4d_res4d_relu_0_split -> res4d_res4d_relu_0_split_1
I0526 18:18:36.791900  1208 net.cpp:122] Setting up res4d_res4d_relu_0_split
I0526 18:18:36.791906  1208 net.cpp:129] Top shape: 16 1024 14 14 (3211264)
I0526 18:18:36.791925  1208 net.cpp:129] Top shape: 16 1024 14 14 (3211264)
I0526 18:18:36.791927  1208 net.cpp:137] Memory required for data: 3297968192
I0526 18:18:36.791930  1208 layer_factory.hpp:77] Creating layer res4e_branch2a
I0526 18:18:36.791939  1208 net.cpp:84] Creating Layer res4e_branch2a
I0526 18:18:36.791945  1208 net.cpp:406] res4e_branch2a <- res4d_res4d_relu_0_split_0
I0526 18:18:36.791960  1208 net.cpp:380] res4e_branch2a -> res4e_branch2a
I0526 18:18:36.795426  1208 net.cpp:122] Setting up res4e_branch2a
I0526 18:18:36.795464  1208 net.cpp:129] Top shape: 16 256 14 14 (802816)
I0526 18:18:36.795467  1208 net.cpp:137] Memory required for data: 3301179456
I0526 18:18:36.795475  1208 layer_factory.hpp:77] Creating layer bn4e_branch2a
I0526 18:18:36.795500  1208 net.cpp:84] Creating Layer bn4e_branch2a
I0526 18:18:36.795503  1208 net.cpp:406] bn4e_branch2a <- res4e_branch2a
I0526 18:18:36.795509  1208 net.cpp:367] bn4e_branch2a -> res4e_branch2a (in-place)
I0526 18:18:36.795806  1208 net.cpp:122] Setting up bn4e_branch2a
I0526 18:18:36.795814  1208 net.cpp:129] Top shape: 16 256 14 14 (802816)
I0526 18:18:36.795817  1208 net.cpp:137] Memory required for data: 3304390720
I0526 18:18:36.795825  1208 layer_factory.hpp:77] Creating layer scale4e_branch2a
I0526 18:18:36.795831  1208 net.cpp:84] Creating Layer scale4e_branch2a
I0526 18:18:36.795835  1208 net.cpp:406] scale4e_branch2a <- res4e_branch2a
I0526 18:18:36.795838  1208 net.cpp:367] scale4e_branch2a -> res4e_branch2a (in-place)
I0526 18:18:36.795922  1208 layer_factory.hpp:77] Creating layer scale4e_branch2a
I0526 18:18:36.796097  1208 net.cpp:122] Setting up scale4e_branch2a
I0526 18:18:36.796103  1208 net.cpp:129] Top shape: 16 256 14 14 (802816)
I0526 18:18:36.796120  1208 net.cpp:137] Memory required for data: 3307601984
I0526 18:18:36.796125  1208 layer_factory.hpp:77] Creating layer res4e_branch2a_relu
I0526 18:18:36.796130  1208 net.cpp:84] Creating Layer res4e_branch2a_relu
I0526 18:18:36.796146  1208 net.cpp:406] res4e_branch2a_relu <- res4e_branch2a
I0526 18:18:36.796154  1208 net.cpp:367] res4e_branch2a_relu -> res4e_branch2a (in-place)
I0526 18:18:36.796371  1208 net.cpp:122] Setting up res4e_branch2a_relu
I0526 18:18:36.796380  1208 net.cpp:129] Top shape: 16 256 14 14 (802816)
I0526 18:18:36.796396  1208 net.cpp:137] Memory required for data: 3310813248
I0526 18:18:36.796399  1208 layer_factory.hpp:77] Creating layer res4e_branch2b
I0526 18:18:36.796409  1208 net.cpp:84] Creating Layer res4e_branch2b
I0526 18:18:36.796413  1208 net.cpp:406] res4e_branch2b <- res4e_branch2a
I0526 18:18:36.796419  1208 net.cpp:380] res4e_branch2b -> res4e_branch2b
I0526 18:18:36.801651  1208 net.cpp:122] Setting up res4e_branch2b
I0526 18:18:36.801688  1208 net.cpp:129] Top shape: 16 256 14 14 (802816)
I0526 18:18:36.801707  1208 net.cpp:137] Memory required for data: 3314024512
I0526 18:18:36.801728  1208 layer_factory.hpp:77] Creating layer bn4e_branch2b
I0526 18:18:36.801751  1208 net.cpp:84] Creating Layer bn4e_branch2b
I0526 18:18:36.801759  1208 net.cpp:406] bn4e_branch2b <- res4e_branch2b
I0526 18:18:36.801766  1208 net.cpp:367] bn4e_branch2b -> res4e_branch2b (in-place)
I0526 18:18:36.802003  1208 net.cpp:122] Setting up bn4e_branch2b
I0526 18:18:36.802011  1208 net.cpp:129] Top shape: 16 256 14 14 (802816)
I0526 18:18:36.802026  1208 net.cpp:137] Memory required for data: 3317235776
I0526 18:18:36.802033  1208 layer_factory.hpp:77] Creating layer scale4e_branch2b
I0526 18:18:36.802054  1208 net.cpp:84] Creating Layer scale4e_branch2b
I0526 18:18:36.802058  1208 net.cpp:406] scale4e_branch2b <- res4e_branch2b
I0526 18:18:36.802063  1208 net.cpp:367] scale4e_branch2b -> res4e_branch2b (in-place)
I0526 18:18:36.802124  1208 layer_factory.hpp:77] Creating layer scale4e_branch2b
I0526 18:18:36.802309  1208 net.cpp:122] Setting up scale4e_branch2b
I0526 18:18:36.802316  1208 net.cpp:129] Top shape: 16 256 14 14 (802816)
I0526 18:18:36.802320  1208 net.cpp:137] Memory required for data: 3320447040
I0526 18:18:36.802340  1208 layer_factory.hpp:77] Creating layer res4e_branch2b_relu
I0526 18:18:36.802366  1208 net.cpp:84] Creating Layer res4e_branch2b_relu
I0526 18:18:36.802386  1208 net.cpp:406] res4e_branch2b_relu <- res4e_branch2b
I0526 18:18:36.802389  1208 net.cpp:367] res4e_branch2b_relu -> res4e_branch2b (in-place)
I0526 18:18:36.803081  1208 net.cpp:122] Setting up res4e_branch2b_relu
I0526 18:18:36.803110  1208 net.cpp:129] Top shape: 16 256 14 14 (802816)
I0526 18:18:36.803143  1208 net.cpp:137] Memory required for data: 3323658304
I0526 18:18:36.803146  1208 layer_factory.hpp:77] Creating layer res4e_branch2c
I0526 18:18:36.803158  1208 net.cpp:84] Creating Layer res4e_branch2c
I0526 18:18:36.803162  1208 net.cpp:406] res4e_branch2c <- res4e_branch2b
I0526 18:18:36.803170  1208 net.cpp:380] res4e_branch2c -> res4e_branch2c
I0526 18:18:36.805559  1208 net.cpp:122] Setting up res4e_branch2c
I0526 18:18:36.805575  1208 net.cpp:129] Top shape: 16 1024 14 14 (3211264)
I0526 18:18:36.805578  1208 net.cpp:137] Memory required for data: 3336503360
I0526 18:18:36.805585  1208 layer_factory.hpp:77] Creating layer bn4e_branch2c
I0526 18:18:36.805593  1208 net.cpp:84] Creating Layer bn4e_branch2c
I0526 18:18:36.805598  1208 net.cpp:406] bn4e_branch2c <- res4e_branch2c
I0526 18:18:36.805603  1208 net.cpp:367] bn4e_branch2c -> res4e_branch2c (in-place)
I0526 18:18:36.805829  1208 net.cpp:122] Setting up bn4e_branch2c
I0526 18:18:36.805835  1208 net.cpp:129] Top shape: 16 1024 14 14 (3211264)
I0526 18:18:36.805838  1208 net.cpp:137] Memory required for data: 3349348416
I0526 18:18:36.805845  1208 layer_factory.hpp:77] Creating layer scale4e_branch2c
I0526 18:18:36.805850  1208 net.cpp:84] Creating Layer scale4e_branch2c
I0526 18:18:36.805853  1208 net.cpp:406] scale4e_branch2c <- res4e_branch2c
I0526 18:18:36.805857  1208 net.cpp:367] scale4e_branch2c -> res4e_branch2c (in-place)
I0526 18:18:36.805896  1208 layer_factory.hpp:77] Creating layer scale4e_branch2c
I0526 18:18:36.806043  1208 net.cpp:122] Setting up scale4e_branch2c
I0526 18:18:36.806051  1208 net.cpp:129] Top shape: 16 1024 14 14 (3211264)
I0526 18:18:36.806053  1208 net.cpp:137] Memory required for data: 3362193472
I0526 18:18:36.806058  1208 layer_factory.hpp:77] Creating layer res4e
I0526 18:18:36.806064  1208 net.cpp:84] Creating Layer res4e
I0526 18:18:36.806067  1208 net.cpp:406] res4e <- res4d_res4d_relu_0_split_1
I0526 18:18:36.806072  1208 net.cpp:406] res4e <- res4e_branch2c
I0526 18:18:36.806077  1208 net.cpp:380] res4e -> res4e
I0526 18:18:36.806114  1208 net.cpp:122] Setting up res4e
I0526 18:18:36.806120  1208 net.cpp:129] Top shape: 16 1024 14 14 (3211264)
I0526 18:18:36.806125  1208 net.cpp:137] Memory required for data: 3375038528
I0526 18:18:36.806128  1208 layer_factory.hpp:77] Creating layer res4e_relu
I0526 18:18:36.806134  1208 net.cpp:84] Creating Layer res4e_relu
I0526 18:18:36.806138  1208 net.cpp:406] res4e_relu <- res4e
I0526 18:18:36.806143  1208 net.cpp:367] res4e_relu -> res4e (in-place)
I0526 18:18:36.806327  1208 net.cpp:122] Setting up res4e_relu
I0526 18:18:36.806336  1208 net.cpp:129] Top shape: 16 1024 14 14 (3211264)
I0526 18:18:36.806339  1208 net.cpp:137] Memory required for data: 3387883584
I0526 18:18:36.806342  1208 layer_factory.hpp:77] Creating layer res4e_res4e_relu_0_split
I0526 18:18:36.806349  1208 net.cpp:84] Creating Layer res4e_res4e_relu_0_split
I0526 18:18:36.806351  1208 net.cpp:406] res4e_res4e_relu_0_split <- res4e
I0526 18:18:36.806356  1208 net.cpp:380] res4e_res4e_relu_0_split -> res4e_res4e_relu_0_split_0
I0526 18:18:36.806363  1208 net.cpp:380] res4e_res4e_relu_0_split -> res4e_res4e_relu_0_split_1
I0526 18:18:36.806434  1208 net.cpp:122] Setting up res4e_res4e_relu_0_split
I0526 18:18:36.806442  1208 net.cpp:129] Top shape: 16 1024 14 14 (3211264)
I0526 18:18:36.806447  1208 net.cpp:129] Top shape: 16 1024 14 14 (3211264)
I0526 18:18:36.806449  1208 net.cpp:137] Memory required for data: 3413573696
I0526 18:18:36.806452  1208 layer_factory.hpp:77] Creating layer res4f_branch2a
I0526 18:18:36.806459  1208 net.cpp:84] Creating Layer res4f_branch2a
I0526 18:18:36.806463  1208 net.cpp:406] res4f_branch2a <- res4e_res4e_relu_0_split_0
I0526 18:18:36.806469  1208 net.cpp:380] res4f_branch2a -> res4f_branch2a
I0526 18:18:36.809836  1208 net.cpp:122] Setting up res4f_branch2a
I0526 18:18:36.809856  1208 net.cpp:129] Top shape: 16 256 14 14 (802816)
I0526 18:18:36.809878  1208 net.cpp:137] Memory required for data: 3416784960
I0526 18:18:36.809898  1208 layer_factory.hpp:77] Creating layer bn4f_branch2a
I0526 18:18:36.809908  1208 net.cpp:84] Creating Layer bn4f_branch2a
I0526 18:18:36.809913  1208 net.cpp:406] bn4f_branch2a <- res4f_branch2a
I0526 18:18:36.809921  1208 net.cpp:367] bn4f_branch2a -> res4f_branch2a (in-place)
I0526 18:18:36.810137  1208 net.cpp:122] Setting up bn4f_branch2a
I0526 18:18:36.810180  1208 net.cpp:129] Top shape: 16 256 14 14 (802816)
I0526 18:18:36.810216  1208 net.cpp:137] Memory required for data: 3419996224
I0526 18:18:36.810238  1208 layer_factory.hpp:77] Creating layer scale4f_branch2a
I0526 18:18:36.810245  1208 net.cpp:84] Creating Layer scale4f_branch2a
I0526 18:18:36.810247  1208 net.cpp:406] scale4f_branch2a <- res4f_branch2a
I0526 18:18:36.810254  1208 net.cpp:367] scale4f_branch2a -> res4f_branch2a (in-place)
I0526 18:18:36.810304  1208 layer_factory.hpp:77] Creating layer scale4f_branch2a
I0526 18:18:36.810446  1208 net.cpp:122] Setting up scale4f_branch2a
I0526 18:18:36.810453  1208 net.cpp:129] Top shape: 16 256 14 14 (802816)
I0526 18:18:36.810456  1208 net.cpp:137] Memory required for data: 3423207488
I0526 18:18:36.810461  1208 layer_factory.hpp:77] Creating layer res4f_branch2a_relu
I0526 18:18:36.810467  1208 net.cpp:84] Creating Layer res4f_branch2a_relu
I0526 18:18:36.810469  1208 net.cpp:406] res4f_branch2a_relu <- res4f_branch2a
I0526 18:18:36.810473  1208 net.cpp:367] res4f_branch2a_relu -> res4f_branch2a (in-place)
I0526 18:18:36.810676  1208 net.cpp:122] Setting up res4f_branch2a_relu
I0526 18:18:36.810684  1208 net.cpp:129] Top shape: 16 256 14 14 (802816)
I0526 18:18:36.810688  1208 net.cpp:137] Memory required for data: 3426418752
I0526 18:18:36.810690  1208 layer_factory.hpp:77] Creating layer res4f_branch2b
I0526 18:18:36.810699  1208 net.cpp:84] Creating Layer res4f_branch2b
I0526 18:18:36.810703  1208 net.cpp:406] res4f_branch2b <- res4f_branch2a
I0526 18:18:36.810708  1208 net.cpp:380] res4f_branch2b -> res4f_branch2b
I0526 18:18:36.815829  1208 net.cpp:122] Setting up res4f_branch2b
I0526 18:18:36.815919  1208 net.cpp:129] Top shape: 16 256 14 14 (802816)
I0526 18:18:36.815927  1208 net.cpp:137] Memory required for data: 3429630016
I0526 18:18:36.815934  1208 layer_factory.hpp:77] Creating layer bn4f_branch2b
I0526 18:18:36.815945  1208 net.cpp:84] Creating Layer bn4f_branch2b
I0526 18:18:36.815950  1208 net.cpp:406] bn4f_branch2b <- res4f_branch2b
I0526 18:18:36.815968  1208 net.cpp:367] bn4f_branch2b -> res4f_branch2b (in-place)
I0526 18:18:36.816207  1208 net.cpp:122] Setting up bn4f_branch2b
I0526 18:18:36.816227  1208 net.cpp:129] Top shape: 16 256 14 14 (802816)
I0526 18:18:36.816231  1208 net.cpp:137] Memory required for data: 3432841280
I0526 18:18:36.816251  1208 layer_factory.hpp:77] Creating layer scale4f_branch2b
I0526 18:18:36.816256  1208 net.cpp:84] Creating Layer scale4f_branch2b
I0526 18:18:36.816259  1208 net.cpp:406] scale4f_branch2b <- res4f_branch2b
I0526 18:18:36.816275  1208 net.cpp:367] scale4f_branch2b -> res4f_branch2b (in-place)
I0526 18:18:36.816331  1208 layer_factory.hpp:77] Creating layer scale4f_branch2b
I0526 18:18:36.816452  1208 net.cpp:122] Setting up scale4f_branch2b
I0526 18:18:36.816458  1208 net.cpp:129] Top shape: 16 256 14 14 (802816)
I0526 18:18:36.816462  1208 net.cpp:137] Memory required for data: 3436052544
I0526 18:18:36.816468  1208 layer_factory.hpp:77] Creating layer res4f_branch2b_relu
I0526 18:18:36.816485  1208 net.cpp:84] Creating Layer res4f_branch2b_relu
I0526 18:18:36.816490  1208 net.cpp:406] res4f_branch2b_relu <- res4f_branch2b
I0526 18:18:36.816496  1208 net.cpp:367] res4f_branch2b_relu -> res4f_branch2b (in-place)
I0526 18:18:36.816710  1208 net.cpp:122] Setting up res4f_branch2b_relu
I0526 18:18:36.816732  1208 net.cpp:129] Top shape: 16 256 14 14 (802816)
I0526 18:18:36.816745  1208 net.cpp:137] Memory required for data: 3439263808
I0526 18:18:36.816762  1208 layer_factory.hpp:77] Creating layer res4f_branch2c
I0526 18:18:36.816776  1208 net.cpp:84] Creating Layer res4f_branch2c
I0526 18:18:36.816778  1208 net.cpp:406] res4f_branch2c <- res4f_branch2b
I0526 18:18:36.816792  1208 net.cpp:380] res4f_branch2c -> res4f_branch2c
I0526 18:18:36.819109  1208 net.cpp:122] Setting up res4f_branch2c
I0526 18:18:36.819125  1208 net.cpp:129] Top shape: 16 1024 14 14 (3211264)
I0526 18:18:36.819144  1208 net.cpp:137] Memory required for data: 3452108864
I0526 18:18:36.819149  1208 layer_factory.hpp:77] Creating layer bn4f_branch2c
I0526 18:18:36.819156  1208 net.cpp:84] Creating Layer bn4f_branch2c
I0526 18:18:36.819161  1208 net.cpp:406] bn4f_branch2c <- res4f_branch2c
I0526 18:18:36.819172  1208 net.cpp:367] bn4f_branch2c -> res4f_branch2c (in-place)
I0526 18:18:36.819423  1208 net.cpp:122] Setting up bn4f_branch2c
I0526 18:18:36.819432  1208 net.cpp:129] Top shape: 16 1024 14 14 (3211264)
I0526 18:18:36.819449  1208 net.cpp:137] Memory required for data: 3464953920
I0526 18:18:36.819488  1208 layer_factory.hpp:77] Creating layer scale4f_branch2c
I0526 18:18:36.819495  1208 net.cpp:84] Creating Layer scale4f_branch2c
I0526 18:18:36.819499  1208 net.cpp:406] scale4f_branch2c <- res4f_branch2c
I0526 18:18:36.819525  1208 net.cpp:367] scale4f_branch2c -> res4f_branch2c (in-place)
I0526 18:18:36.819603  1208 layer_factory.hpp:77] Creating layer scale4f_branch2c
I0526 18:18:36.819733  1208 net.cpp:122] Setting up scale4f_branch2c
I0526 18:18:36.819741  1208 net.cpp:129] Top shape: 16 1024 14 14 (3211264)
I0526 18:18:36.819743  1208 net.cpp:137] Memory required for data: 3477798976
I0526 18:18:36.819749  1208 layer_factory.hpp:77] Creating layer res4f
I0526 18:18:36.819756  1208 net.cpp:84] Creating Layer res4f
I0526 18:18:36.819758  1208 net.cpp:406] res4f <- res4e_res4e_relu_0_split_1
I0526 18:18:36.819762  1208 net.cpp:406] res4f <- res4f_branch2c
I0526 18:18:36.819767  1208 net.cpp:380] res4f -> res4f
I0526 18:18:36.819790  1208 net.cpp:122] Setting up res4f
I0526 18:18:36.819797  1208 net.cpp:129] Top shape: 16 1024 14 14 (3211264)
I0526 18:18:36.819799  1208 net.cpp:137] Memory required for data: 3490644032
I0526 18:18:36.819802  1208 layer_factory.hpp:77] Creating layer res4f_relu
I0526 18:18:36.819806  1208 net.cpp:84] Creating Layer res4f_relu
I0526 18:18:36.819809  1208 net.cpp:406] res4f_relu <- res4f
I0526 18:18:36.819814  1208 net.cpp:367] res4f_relu -> res4f (in-place)
I0526 18:18:36.820310  1208 net.cpp:122] Setting up res4f_relu
I0526 18:18:36.820322  1208 net.cpp:129] Top shape: 16 1024 14 14 (3211264)
I0526 18:18:36.820324  1208 net.cpp:137] Memory required for data: 3503489088
I0526 18:18:36.820327  1208 layer_factory.hpp:77] Creating layer res4f_res4f_relu_0_split
I0526 18:18:36.820333  1208 net.cpp:84] Creating Layer res4f_res4f_relu_0_split
I0526 18:18:36.820336  1208 net.cpp:406] res4f_res4f_relu_0_split <- res4f
I0526 18:18:36.820343  1208 net.cpp:380] res4f_res4f_relu_0_split -> res4f_res4f_relu_0_split_0
I0526 18:18:36.820348  1208 net.cpp:380] res4f_res4f_relu_0_split -> res4f_res4f_relu_0_split_1
I0526 18:18:36.820416  1208 net.cpp:122] Setting up res4f_res4f_relu_0_split
I0526 18:18:36.820423  1208 net.cpp:129] Top shape: 16 1024 14 14 (3211264)
I0526 18:18:36.820431  1208 net.cpp:129] Top shape: 16 1024 14 14 (3211264)
I0526 18:18:36.820435  1208 net.cpp:137] Memory required for data: 3529179200
I0526 18:18:36.820437  1208 layer_factory.hpp:77] Creating layer res5a_branch1
I0526 18:18:36.820446  1208 net.cpp:84] Creating Layer res5a_branch1
I0526 18:18:36.820449  1208 net.cpp:406] res5a_branch1 <- res4f_res4f_relu_0_split_0
I0526 18:18:36.820456  1208 net.cpp:380] res5a_branch1 -> res5a_branch1
I0526 18:18:36.832310  1208 net.cpp:122] Setting up res5a_branch1
I0526 18:18:36.832346  1208 net.cpp:129] Top shape: 16 2048 7 7 (1605632)
I0526 18:18:36.832350  1208 net.cpp:137] Memory required for data: 3535601728
I0526 18:18:36.832357  1208 layer_factory.hpp:77] Creating layer bn5a_branch1
I0526 18:18:36.832382  1208 net.cpp:84] Creating Layer bn5a_branch1
I0526 18:18:36.832387  1208 net.cpp:406] bn5a_branch1 <- res5a_branch1
I0526 18:18:36.832394  1208 net.cpp:367] bn5a_branch1 -> res5a_branch1 (in-place)
I0526 18:18:36.832633  1208 net.cpp:122] Setting up bn5a_branch1
I0526 18:18:36.832649  1208 net.cpp:129] Top shape: 16 2048 7 7 (1605632)
I0526 18:18:36.832653  1208 net.cpp:137] Memory required for data: 3542024256
I0526 18:18:36.832660  1208 layer_factory.hpp:77] Creating layer scale5a_branch1
I0526 18:18:36.832666  1208 net.cpp:84] Creating Layer scale5a_branch1
I0526 18:18:36.832669  1208 net.cpp:406] scale5a_branch1 <- res5a_branch1
I0526 18:18:36.832674  1208 net.cpp:367] scale5a_branch1 -> res5a_branch1 (in-place)
I0526 18:18:36.832752  1208 layer_factory.hpp:77] Creating layer scale5a_branch1
I0526 18:18:36.832906  1208 net.cpp:122] Setting up scale5a_branch1
I0526 18:18:36.832913  1208 net.cpp:129] Top shape: 16 2048 7 7 (1605632)
I0526 18:18:36.832916  1208 net.cpp:137] Memory required for data: 3548446784
I0526 18:18:36.832921  1208 layer_factory.hpp:77] Creating layer res5a_branch2a
I0526 18:18:36.832929  1208 net.cpp:84] Creating Layer res5a_branch2a
I0526 18:18:36.832932  1208 net.cpp:406] res5a_branch2a <- res4f_res4f_relu_0_split_1
I0526 18:18:36.832939  1208 net.cpp:380] res5a_branch2a -> res5a_branch2a
I0526 18:18:36.837016  1208 net.cpp:122] Setting up res5a_branch2a
I0526 18:18:36.837033  1208 net.cpp:129] Top shape: 16 512 7 7 (401408)
I0526 18:18:36.837036  1208 net.cpp:137] Memory required for data: 3550052416
I0526 18:18:36.837044  1208 layer_factory.hpp:77] Creating layer bn5a_branch2a
I0526 18:18:36.837051  1208 net.cpp:84] Creating Layer bn5a_branch2a
I0526 18:18:36.837055  1208 net.cpp:406] bn5a_branch2a <- res5a_branch2a
I0526 18:18:36.837059  1208 net.cpp:367] bn5a_branch2a -> res5a_branch2a (in-place)
I0526 18:18:36.837312  1208 net.cpp:122] Setting up bn5a_branch2a
I0526 18:18:36.837319  1208 net.cpp:129] Top shape: 16 512 7 7 (401408)
I0526 18:18:36.837322  1208 net.cpp:137] Memory required for data: 3551658048
I0526 18:18:36.837328  1208 layer_factory.hpp:77] Creating layer scale5a_branch2a
I0526 18:18:36.837333  1208 net.cpp:84] Creating Layer scale5a_branch2a
I0526 18:18:36.837337  1208 net.cpp:406] scale5a_branch2a <- res5a_branch2a
I0526 18:18:36.837342  1208 net.cpp:367] scale5a_branch2a -> res5a_branch2a (in-place)
I0526 18:18:36.837419  1208 layer_factory.hpp:77] Creating layer scale5a_branch2a
I0526 18:18:36.837623  1208 net.cpp:122] Setting up scale5a_branch2a
I0526 18:18:36.837630  1208 net.cpp:129] Top shape: 16 512 7 7 (401408)
I0526 18:18:36.837632  1208 net.cpp:137] Memory required for data: 3553263680
I0526 18:18:36.837637  1208 layer_factory.hpp:77] Creating layer res5a_branch2a_relu
I0526 18:18:36.837642  1208 net.cpp:84] Creating Layer res5a_branch2a_relu
I0526 18:18:36.837646  1208 net.cpp:406] res5a_branch2a_relu <- res5a_branch2a
I0526 18:18:36.837651  1208 net.cpp:367] res5a_branch2a_relu -> res5a_branch2a (in-place)
I0526 18:18:36.837867  1208 net.cpp:122] Setting up res5a_branch2a_relu
I0526 18:18:36.837875  1208 net.cpp:129] Top shape: 16 512 7 7 (401408)
I0526 18:18:36.837878  1208 net.cpp:137] Memory required for data: 3554869312
I0526 18:18:36.837882  1208 layer_factory.hpp:77] Creating layer res5a_branch2b
I0526 18:18:36.837889  1208 net.cpp:84] Creating Layer res5a_branch2b
I0526 18:18:36.837893  1208 net.cpp:406] res5a_branch2b <- res5a_branch2a
I0526 18:18:36.837898  1208 net.cpp:380] res5a_branch2b -> res5a_branch2b
I0526 18:18:36.851186  1208 net.cpp:122] Setting up res5a_branch2b
I0526 18:18:36.851207  1208 net.cpp:129] Top shape: 16 512 7 7 (401408)
I0526 18:18:36.851210  1208 net.cpp:137] Memory required for data: 3556474944
I0526 18:18:36.851218  1208 layer_factory.hpp:77] Creating layer bn5a_branch2b
I0526 18:18:36.851228  1208 net.cpp:84] Creating Layer bn5a_branch2b
I0526 18:18:36.851233  1208 net.cpp:406] bn5a_branch2b <- res5a_branch2b
I0526 18:18:36.851238  1208 net.cpp:367] bn5a_branch2b -> res5a_branch2b (in-place)
I0526 18:18:36.851541  1208 net.cpp:122] Setting up bn5a_branch2b
I0526 18:18:36.851547  1208 net.cpp:129] Top shape: 16 512 7 7 (401408)
I0526 18:18:36.851550  1208 net.cpp:137] Memory required for data: 3558080576
I0526 18:18:36.851572  1208 layer_factory.hpp:77] Creating layer scale5a_branch2b
I0526 18:18:36.851593  1208 net.cpp:84] Creating Layer scale5a_branch2b
I0526 18:18:36.851598  1208 net.cpp:406] scale5a_branch2b <- res5a_branch2b
I0526 18:18:36.851603  1208 net.cpp:367] scale5a_branch2b -> res5a_branch2b (in-place)
I0526 18:18:36.851649  1208 layer_factory.hpp:77] Creating layer scale5a_branch2b
I0526 18:18:36.851824  1208 net.cpp:122] Setting up scale5a_branch2b
I0526 18:18:36.851832  1208 net.cpp:129] Top shape: 16 512 7 7 (401408)
I0526 18:18:36.851848  1208 net.cpp:137] Memory required for data: 3559686208
I0526 18:18:36.851855  1208 layer_factory.hpp:77] Creating layer res5a_branch2b_relu
I0526 18:18:36.851873  1208 net.cpp:84] Creating Layer res5a_branch2b_relu
I0526 18:18:36.851876  1208 net.cpp:406] res5a_branch2b_relu <- res5a_branch2b
I0526 18:18:36.851882  1208 net.cpp:367] res5a_branch2b_relu -> res5a_branch2b (in-place)
I0526 18:18:36.852118  1208 net.cpp:122] Setting up res5a_branch2b_relu
I0526 18:18:36.852140  1208 net.cpp:129] Top shape: 16 512 7 7 (401408)
I0526 18:18:36.852144  1208 net.cpp:137] Memory required for data: 3561291840
I0526 18:18:36.852146  1208 layer_factory.hpp:77] Creating layer res5a_branch2c
I0526 18:18:36.852170  1208 net.cpp:84] Creating Layer res5a_branch2c
I0526 18:18:36.852175  1208 net.cpp:406] res5a_branch2c <- res5a_branch2b
I0526 18:18:36.852181  1208 net.cpp:380] res5a_branch2c -> res5a_branch2c
I0526 18:18:36.859495  1208 net.cpp:122] Setting up res5a_branch2c
I0526 18:18:36.859517  1208 net.cpp:129] Top shape: 16 2048 7 7 (1605632)
I0526 18:18:36.859520  1208 net.cpp:137] Memory required for data: 3567714368
I0526 18:18:36.859542  1208 layer_factory.hpp:77] Creating layer bn5a_branch2c
I0526 18:18:36.859566  1208 net.cpp:84] Creating Layer bn5a_branch2c
I0526 18:18:36.859572  1208 net.cpp:406] bn5a_branch2c <- res5a_branch2c
I0526 18:18:36.859580  1208 net.cpp:367] bn5a_branch2c -> res5a_branch2c (in-place)
I0526 18:18:36.859849  1208 net.cpp:122] Setting up bn5a_branch2c
I0526 18:18:36.859856  1208 net.cpp:129] Top shape: 16 2048 7 7 (1605632)
I0526 18:18:36.859859  1208 net.cpp:137] Memory required for data: 3574136896
I0526 18:18:36.859880  1208 layer_factory.hpp:77] Creating layer scale5a_branch2c
I0526 18:18:36.859901  1208 net.cpp:84] Creating Layer scale5a_branch2c
I0526 18:18:36.859905  1208 net.cpp:406] scale5a_branch2c <- res5a_branch2c
I0526 18:18:36.859922  1208 net.cpp:367] scale5a_branch2c -> res5a_branch2c (in-place)
I0526 18:18:36.859999  1208 layer_factory.hpp:77] Creating layer scale5a_branch2c
I0526 18:18:36.860182  1208 net.cpp:122] Setting up scale5a_branch2c
I0526 18:18:36.860188  1208 net.cpp:129] Top shape: 16 2048 7 7 (1605632)
I0526 18:18:36.860190  1208 net.cpp:137] Memory required for data: 3580559424
I0526 18:18:36.860195  1208 layer_factory.hpp:77] Creating layer res5a
I0526 18:18:36.860199  1208 net.cpp:84] Creating Layer res5a
I0526 18:18:36.860203  1208 net.cpp:406] res5a <- res5a_branch1
I0526 18:18:36.860208  1208 net.cpp:406] res5a <- res5a_branch2c
I0526 18:18:36.860216  1208 net.cpp:380] res5a -> res5a
I0526 18:18:36.860270  1208 net.cpp:122] Setting up res5a
I0526 18:18:36.860275  1208 net.cpp:129] Top shape: 16 2048 7 7 (1605632)
I0526 18:18:36.860291  1208 net.cpp:137] Memory required for data: 3586981952
I0526 18:18:36.860293  1208 layer_factory.hpp:77] Creating layer res5a_relu
I0526 18:18:36.860298  1208 net.cpp:84] Creating Layer res5a_relu
I0526 18:18:36.860301  1208 net.cpp:406] res5a_relu <- res5a
…
I0526 18:18:37.107214  1208 net.cpp:380] res4c_res4c_relu_0_split -> res4c_res4c_relu_0_split_0
I0526 18:18:37.107219  1208 net.cpp:380] res4c_res4c_relu_0_split -> res4c_res4c_relu_0_split_1
I0526 18:18:37.107319  1208 net.cpp:122] Setting up res4c_res4c_relu_0_split
I0526 18:18:37.107324  1208 net.cpp:129] Top shape: 4 1024 14 14 (802816)
I0526 18:18:37.107345  1208 net.cpp:129] Top shape: 4 1024 14 14 (802816)
I0526 18:18:37.107348  1208 net.cpp:137] Memory required for data: 795590672
I0526 18:18:37.107352  1208 layer_factory.hpp:77] Creating layer res4d_branch2a
I0526 18:18:37.107370  1208 net.cpp:84] Creating Layer res4d_branch2a
I0526 18:18:37.107388  1208 net.cpp:406] res4d_branch2a <- res4c_res4c_relu_0_split_0
I0526 18:18:37.107394  1208 net.cpp:380] res4d_branch2a -> res4d_branch2a
I0526 18:18:37.109922  1208 net.cpp:122] Setting up res4d_branch2a
I0526 18:18:37.109933  1208 net.cpp:129] Top shape: 4 256 14 14 (200704)
I0526 18:18:37.109937  1208 net.cpp:137] Memory required for data: 796393488
I0526 18:18:37.109942  1208 layer_factory.hpp:77] Creating layer bn4d_branch2a
I0526 18:18:37.109947  1208 net.cpp:84] Creating Layer bn4d_branch2a
I0526 18:18:37.109951  1208 net.cpp:406] bn4d_branch2a <- res4d_branch2a
I0526 18:18:37.109956  1208 net.cpp:367] bn4d_branch2a -> res4d_branch2a (in-place)
I0526 18:18:37.110249  1208 net.cpp:122] Setting up bn4d_branch2a
I0526 18:18:37.110267  1208 net.cpp:129] Top shape: 4 256 14 14 (200704)
I0526 18:18:37.110270  1208 net.cpp:137] Memory required for data: 797196304
I0526 18:18:37.110277  1208 layer_factory.hpp:77] Creating layer scale4d_branch2a
I0526 18:18:37.110281  1208 net.cpp:84] Creating Layer scale4d_branch2a
I0526 18:18:37.110285  1208 net.cpp:406] scale4d_branch2a <- res4d_branch2a
I0526 18:18:37.110288  1208 net.cpp:367] scale4d_branch2a -> res4d_branch2a (in-place)
I0526 18:18:37.110389  1208 layer_factory.hpp:77] Creating layer scale4d_branch2a
I0526 18:18:37.110599  1208 net.cpp:122] Setting up scale4d_branch2a
I0526 18:18:37.110605  1208 net.cpp:129] Top shape: 4 256 14 14 (200704)
I0526 18:18:37.110608  1208 net.cpp:137] Memory required for data: 797999120
I0526 18:18:37.110613  1208 layer_factory.hpp:77] Creating layer res4d_branch2a_relu
I0526 18:18:37.110618  1208 net.cpp:84] Creating Layer res4d_branch2a_relu
I0526 18:18:37.110621  1208 net.cpp:406] res4d_branch2a_relu <- res4d_branch2a
I0526 18:18:37.110625  1208 net.cpp:367] res4d_branch2a_relu -> res4d_branch2a (in-place)
I0526 18:18:37.111147  1208 net.cpp:122] Setting up res4d_branch2a_relu
I0526 18:18:37.111158  1208 net.cpp:129] Top shape: 4 256 14 14 (200704)
I0526 18:18:37.111161  1208 net.cpp:137] Memory required for data: 798801936
I0526 18:18:37.111165  1208 layer_factory.hpp:77] Creating layer res4d_branch2b
I0526 18:18:37.111172  1208 net.cpp:84] Creating Layer res4d_branch2b
I0526 18:18:37.111176  1208 net.cpp:406] res4d_branch2b <- res4d_branch2a
I0526 18:18:37.111181  1208 net.cpp:380] res4d_branch2b -> res4d_branch2b
I0526 18:18:37.116065  1208 net.cpp:122] Setting up res4d_branch2b
I0526 18:18:37.116086  1208 net.cpp:129] Top shape: 4 256 14 14 (200704)
I0526 18:18:37.116089  1208 net.cpp:137] Memory required for data: 799604752
I0526 18:18:37.116114  1208 layer_factory.hpp:77] Creating layer bn4d_branch2b
I0526 18:18:37.116137  1208 net.cpp:84] Creating Layer bn4d_branch2b
I0526 18:18:37.116156  1208 net.cpp:406] bn4d_branch2b <- res4d_branch2b
I0526 18:18:37.116163  1208 net.cpp:367] bn4d_branch2b -> res4d_branch2b (in-place)
I0526 18:18:37.116469  1208 net.cpp:122] Setting up bn4d_branch2b
I0526 18:18:37.116477  1208 net.cpp:129] Top shape: 4 256 14 14 (200704)
I0526 18:18:37.116478  1208 net.cpp:137] Memory required for data: 800407568
I0526 18:18:37.116485  1208 layer_factory.hpp:77] Creating layer scale4d_branch2b
I0526 18:18:37.116492  1208 net.cpp:84] Creating Layer scale4d_branch2b
I0526 18:18:37.116493  1208 net.cpp:406] scale4d_branch2b <- res4d_branch2b
I0526 18:18:37.116497  1208 net.cpp:367] scale4d_branch2b -> res4d_branch2b (in-place)
I0526 18:18:37.116585  1208 layer_factory.hpp:77] Creating layer scale4d_branch2b
I0526 18:18:37.116765  1208 net.cpp:122] Setting up scale4d_branch2b
I0526 18:18:37.116771  1208 net.cpp:129] Top shape: 4 256 14 14 (200704)
I0526 18:18:37.116789  1208 net.cpp:137] Memory required for data: 801210384
I0526 18:18:37.116796  1208 layer_factory.hpp:77] Creating layer res4d_branch2b_relu
I0526 18:18:37.116813  1208 net.cpp:84] Creating Layer res4d_branch2b_relu
I0526 18:18:37.116817  1208 net.cpp:406] res4d_branch2b_relu <- res4d_branch2b
I0526 18:18:37.116822  1208 net.cpp:367] res4d_branch2b_relu -> res4d_branch2b (in-place)
I0526 18:18:37.117031  1208 net.cpp:122] Setting up res4d_branch2b_relu
I0526 18:18:37.117039  1208 net.cpp:129] Top shape: 4 256 14 14 (200704)
I0526 18:18:37.117058  1208 net.cpp:137] Memory required for data: 802013200
I0526 18:18:37.117060  1208 layer_factory.hpp:77] Creating layer res4d_branch2c
I0526 18:18:37.117084  1208 net.cpp:84] Creating Layer res4d_branch2c
I0526 18:18:37.117087  1208 net.cpp:406] res4d_branch2c <- res4d_branch2b
I0526 18:18:37.117092  1208 net.cpp:380] res4d_branch2c -> res4d_branch2c
I0526 18:18:37.120277  1208 net.cpp:122] Setting up res4d_branch2c
I0526 18:18:37.120298  1208 net.cpp:129] Top shape: 4 1024 14 14 (802816)
I0526 18:18:37.120301  1208 net.cpp:137] Memory required for data: 805224464
I0526 18:18:37.120323  1208 layer_factory.hpp:77] Creating layer bn4d_branch2c
I0526 18:18:37.120357  1208 net.cpp:84] Creating Layer bn4d_branch2c
I0526 18:18:37.120363  1208 net.cpp:406] bn4d_branch2c <- res4d_branch2c
I0526 18:18:37.120383  1208 net.cpp:367] bn4d_branch2c -> res4d_branch2c (in-place)
I0526 18:18:37.120668  1208 net.cpp:122] Setting up bn4d_branch2c
I0526 18:18:37.120676  1208 net.cpp:129] Top shape: 4 1024 14 14 (802816)
I0526 18:18:37.120692  1208 net.cpp:137] Memory required for data: 808435728
I0526 18:18:37.120699  1208 layer_factory.hpp:77] Creating layer scale4d_branch2c
I0526 18:18:37.120719  1208 net.cpp:84] Creating Layer scale4d_branch2c
I0526 18:18:37.120723  1208 net.cpp:406] scale4d_branch2c <- res4d_branch2c
I0526 18:18:37.120728  1208 net.cpp:367] scale4d_branch2c -> res4d_branch2c (in-place)
I0526 18:18:37.120785  1208 layer_factory.hpp:77] Creating layer scale4d_branch2c
I0526 18:18:37.120950  1208 net.cpp:122] Setting up scale4d_branch2c
I0526 18:18:37.120956  1208 net.cpp:129] Top shape: 4 1024 14 14 (802816)
I0526 18:18:37.120960  1208 net.cpp:137] Memory required for data: 811646992
I0526 18:18:37.120980  1208 layer_factory.hpp:77] Creating layer res4d
I0526 18:18:37.120986  1208 net.cpp:84] Creating Layer res4d
I0526 18:18:37.120990  1208 net.cpp:406] res4d <- res4c_res4c_relu_0_split_1
I0526 18:18:37.120995  1208 net.cpp:406] res4d <- res4d_branch2c
I0526 18:18:37.121001  1208 net.cpp:380] res4d -> res4d
I0526 18:18:37.121027  1208 net.cpp:122] Setting up res4d
I0526 18:18:37.121034  1208 net.cpp:129] Top shape: 4 1024 14 14 (802816)
I0526 18:18:37.121038  1208 net.cpp:137] Memory required for data: 814858256
I0526 18:18:37.121040  1208 layer_factory.hpp:77] Creating layer res4d_relu
I0526 18:18:37.121045  1208 net.cpp:84] Creating Layer res4d_relu
I0526 18:18:37.121048  1208 net.cpp:406] res4d_relu <- res4d
I0526 18:18:37.121054  1208 net.cpp:367] res4d_relu -> res4d (in-place)
I0526 18:18:37.121238  1208 net.cpp:122] Setting up res4d_relu
I0526 18:18:37.121246  1208 net.cpp:129] Top shape: 4 1024 14 14 (802816)
I0526 18:18:37.121250  1208 net.cpp:137] Memory required for data: 818069520
I0526 18:18:37.121266  1208 layer_factory.hpp:77] Creating layer res4d_res4d_relu_0_split
I0526 18:18:37.121271  1208 net.cpp:84] Creating Layer res4d_res4d_relu_0_split
I0526 18:18:37.121275  1208 net.cpp:406] res4d_res4d_relu_0_split <- res4d
I0526 18:18:37.121279  1208 net.cpp:380] res4d_res4d_relu_0_split -> res4d_res4d_relu_0_split_0
I0526 18:18:37.121287  1208 net.cpp:380] res4d_res4d_relu_0_split -> res4d_res4d_relu_0_split_1
I0526 18:18:37.121336  1208 net.cpp:122] Setting up res4d_res4d_relu_0_split
I0526 18:18:37.121354  1208 net.cpp:129] Top shape: 4 1024 14 14 (802816)
I0526 18:18:37.121358  1208 net.cpp:129] Top shape: 4 1024 14 14 (802816)
I0526 18:18:37.121376  1208 net.cpp:137] Memory required for data: 824492048
I0526 18:18:37.121379  1208 layer_factory.hpp:77] Creating layer res4e_branch2a
I0526 18:18:37.121387  1208 net.cpp:84] Creating Layer res4e_branch2a
I0526 18:18:37.121389  1208 net.cpp:406] res4e_branch2a <- res4d_res4d_relu_0_split_0
I0526 18:18:37.121395  1208 net.cpp:380] res4e_branch2a -> res4e_branch2a
I0526 18:18:37.123646  1208 net.cpp:122] Setting up res4e_branch2a
I0526 18:18:37.123673  1208 net.cpp:129] Top shape: 4 256 14 14 (200704)
I0526 18:18:37.123677  1208 net.cpp:137] Memory required for data: 825294864
I0526 18:18:37.123682  1208 layer_factory.hpp:77] Creating layer bn4e_branch2a
I0526 18:18:37.123688  1208 net.cpp:84] Creating Layer bn4e_branch2a
I0526 18:18:37.123692  1208 net.cpp:406] bn4e_branch2a <- res4e_branch2a
I0526 18:18:37.123698  1208 net.cpp:367] bn4e_branch2a -> res4e_branch2a (in-place)
I0526 18:18:37.123957  1208 net.cpp:122] Setting up bn4e_branch2a
I0526 18:18:37.123965  1208 net.cpp:129] Top shape: 4 256 14 14 (200704)
I0526 18:18:37.123981  1208 net.cpp:137] Memory required for data: 826097680
I0526 18:18:37.123988  1208 layer_factory.hpp:77] Creating layer scale4e_branch2a
I0526 18:18:37.123993  1208 net.cpp:84] Creating Layer scale4e_branch2a
I0526 18:18:37.124006  1208 net.cpp:406] scale4e_branch2a <- res4e_branch2a
I0526 18:18:37.124012  1208 net.cpp:367] scale4e_branch2a -> res4e_branch2a (in-place)
I0526 18:18:37.124070  1208 layer_factory.hpp:77] Creating layer scale4e_branch2a
I0526 18:18:37.124243  1208 net.cpp:122] Setting up scale4e_branch2a
I0526 18:18:37.124265  1208 net.cpp:129] Top shape: 4 256 14 14 (200704)
I0526 18:18:37.124269  1208 net.cpp:137] Memory required for data: 826900496
I0526 18:18:37.124274  1208 layer_factory.hpp:77] Creating layer res4e_branch2a_relu
I0526 18:18:37.124279  1208 net.cpp:84] Creating Layer res4e_branch2a_relu
I0526 18:18:37.124296  1208 net.cpp:406] res4e_branch2a_relu <- res4e_branch2a
I0526 18:18:37.124301  1208 net.cpp:367] res4e_branch2a_relu -> res4e_branch2a (in-place)
I0526 18:18:37.124914  1208 net.cpp:122] Setting up res4e_branch2a_relu
I0526 18:18:37.124927  1208 net.cpp:129] Top shape: 4 256 14 14 (200704)
I0526 18:18:37.124929  1208 net.cpp:137] Memory required for data: 827703312
I0526 18:18:37.124933  1208 layer_factory.hpp:77] Creating layer res4e_branch2b
I0526 18:18:37.124943  1208 net.cpp:84] Creating Layer res4e_branch2b
I0526 18:18:37.124945  1208 net.cpp:406] res4e_branch2b <- res4e_branch2a
I0526 18:18:37.124950  1208 net.cpp:380] res4e_branch2b -> res4e_branch2b
I0526 18:18:37.129606  1208 net.cpp:122] Setting up res4e_branch2b
I0526 18:18:37.129623  1208 net.cpp:129] Top shape: 4 256 14 14 (200704)
I0526 18:18:37.129626  1208 net.cpp:137] Memory required for data: 828506128
I0526 18:18:37.129633  1208 layer_factory.hpp:77] Creating layer bn4e_branch2b
I0526 18:18:37.129640  1208 net.cpp:84] Creating Layer bn4e_branch2b
I0526 18:18:37.129644  1208 net.cpp:406] bn4e_branch2b <- res4e_branch2b
I0526 18:18:37.129649  1208 net.cpp:367] bn4e_branch2b -> res4e_branch2b (in-place)
I0526 18:18:37.129961  1208 net.cpp:122] Setting up bn4e_branch2b
I0526 18:18:37.129968  1208 net.cpp:129] Top shape: 4 256 14 14 (200704)
I0526 18:18:37.129971  1208 net.cpp:137] Memory required for data: 829308944
I0526 18:18:37.129978  1208 layer_factory.hpp:77] Creating layer scale4e_branch2b
I0526 18:18:37.129983  1208 net.cpp:84] Creating Layer scale4e_branch2b
I0526 18:18:37.129987  1208 net.cpp:406] scale4e_branch2b <- res4e_branch2b
I0526 18:18:37.129990  1208 net.cpp:367] scale4e_branch2b -> res4e_branch2b (in-place)
I0526 18:18:37.130050  1208 layer_factory.hpp:77] Creating layer scale4e_branch2b
I0526 18:18:37.130233  1208 net.cpp:122] Setting up scale4e_branch2b
I0526 18:18:37.130240  1208 net.cpp:129] Top shape: 4 256 14 14 (200704)
I0526 18:18:37.130244  1208 net.cpp:137] Memory required for data: 830111760
I0526 18:18:37.130249  1208 layer_factory.hpp:77] Creating layer res4e_branch2b_relu
I0526 18:18:37.130252  1208 net.cpp:84] Creating Layer res4e_branch2b_relu
I0526 18:18:37.130256  1208 net.cpp:406] res4e_branch2b_relu <- res4e_branch2b
I0526 18:18:37.130260  1208 net.cpp:367] res4e_branch2b_relu -> res4e_branch2b (in-place)
I0526 18:18:37.130442  1208 net.cpp:122] Setting up res4e_branch2b_relu
I0526 18:18:37.130450  1208 net.cpp:129] Top shape: 4 256 14 14 (200704)
I0526 18:18:37.130453  1208 net.cpp:137] Memory required for data: 830914576
I0526 18:18:37.130456  1208 layer_factory.hpp:77] Creating layer res4e_branch2c
I0526 18:18:37.130465  1208 net.cpp:84] Creating Layer res4e_branch2c
I0526 18:18:37.130467  1208 net.cpp:406] res4e_branch2c <- res4e_branch2b
I0526 18:18:37.130472  1208 net.cpp:380] res4e_branch2c -> res4e_branch2c
I0526 18:18:37.133378  1208 net.cpp:122] Setting up res4e_branch2c
I0526 18:18:37.133394  1208 net.cpp:129] Top shape: 4 1024 14 14 (802816)
I0526 18:18:37.133396  1208 net.cpp:137] Memory required for data: 834125840
I0526 18:18:37.133402  1208 layer_factory.hpp:77] Creating layer bn4e_branch2c
I0526 18:18:37.133409  1208 net.cpp:84] Creating Layer bn4e_branch2c
I0526 18:18:37.133412  1208 net.cpp:406] bn4e_branch2c <- res4e_branch2c
I0526 18:18:37.133416  1208 net.cpp:367] bn4e_branch2c -> res4e_branch2c (in-place)
I0526 18:18:37.133661  1208 net.cpp:122] Setting up bn4e_branch2c
I0526 18:18:37.133679  1208 net.cpp:129] Top shape: 4 1024 14 14 (802816)
I0526 18:18:37.133682  1208 net.cpp:137] Memory required for data: 837337104
I0526 18:18:37.133688  1208 layer_factory.hpp:77] Creating layer scale4e_branch2c
I0526 18:18:37.133693  1208 net.cpp:84] Creating Layer scale4e_branch2c
I0526 18:18:37.133697  1208 net.cpp:406] scale4e_branch2c <- res4e_branch2c
I0526 18:18:37.133702  1208 net.cpp:367] scale4e_branch2c -> res4e_branch2c (in-place)
I0526 18:18:37.133745  1208 layer_factory.hpp:77] Creating layer scale4e_branch2c
I0526 18:18:37.133911  1208 net.cpp:122] Setting up scale4e_branch2c
I0526 18:18:37.133919  1208 net.cpp:129] Top shape: 4 1024 14 14 (802816)
I0526 18:18:37.133921  1208 net.cpp:137] Memory required for data: 840548368
I0526 18:18:37.133926  1208 layer_factory.hpp:77] Creating layer res4e
I0526 18:18:37.133930  1208 net.cpp:84] Creating Layer res4e
I0526 18:18:37.133934  1208 net.cpp:406] res4e <- res4d_res4d_relu_0_split_1
I0526 18:18:37.133939  1208 net.cpp:406] res4e <- res4e_branch2c
I0526 18:18:37.133944  1208 net.cpp:380] res4e -> res4e
I0526 18:18:37.133970  1208 net.cpp:122] Setting up res4e
I0526 18:18:37.133976  1208 net.cpp:129] Top shape: 4 1024 14 14 (802816)
I0526 18:18:37.133994  1208 net.cpp:137] Memory required for data: 843759632
I0526 18:18:37.133997  1208 layer_factory.hpp:77] Creating layer res4e_relu
I0526 18:18:37.134001  1208 net.cpp:84] Creating Layer res4e_relu
I0526 18:18:37.134004  1208 net.cpp:406] res4e_relu <- res4e
I0526 18:18:37.134011  1208 net.cpp:367] res4e_relu -> res4e (in-place)
I0526 18:18:37.134199  1208 net.cpp:122] Setting up res4e_relu
I0526 18:18:37.134208  1208 net.cpp:129] Top shape: 4 1024 14 14 (802816)
I0526 18:18:37.134212  1208 net.cpp:137] Memory required for data: 846970896
I0526 18:18:37.134214  1208 layer_factory.hpp:77] Creating layer res4e_res4e_relu_0_split
I0526 18:18:37.134219  1208 net.cpp:84] Creating Layer res4e_res4e_relu_0_split
I0526 18:18:37.134222  1208 net.cpp:406] res4e_res4e_relu_0_split <- res4e
I0526 18:18:37.134227  1208 net.cpp:380] res4e_res4e_relu_0_split -> res4e_res4e_relu_0_split_0
I0526 18:18:37.134233  1208 net.cpp:380] res4e_res4e_relu_0_split -> res4e_res4e_relu_0_split_1
I0526 18:18:37.134279  1208 net.cpp:122] Setting up res4e_res4e_relu_0_split
I0526 18:18:37.134285  1208 net.cpp:129] Top shape: 4 1024 14 14 (802816)
I0526 18:18:37.134289  1208 net.cpp:129] Top shape: 4 1024 14 14 (802816)
I0526 18:18:37.134292  1208 net.cpp:137] Memory required for data: 853393424
I0526 18:18:37.134295  1208 layer_factory.hpp:77] Creating layer res4f_branch2a
I0526 18:18:37.134302  1208 net.cpp:84] Creating Layer res4f_branch2a
I0526 18:18:37.134305  1208 net.cpp:406] res4f_branch2a <- res4e_res4e_relu_0_split_0
I0526 18:18:37.134311  1208 net.cpp:380] res4f_branch2a -> res4f_branch2a
I0526 18:18:37.136474  1208 net.cpp:122] Setting up res4f_branch2a
I0526 18:18:37.136487  1208 net.cpp:129] Top shape: 4 256 14 14 (200704)
I0526 18:18:37.136489  1208 net.cpp:137] Memory required for data: 854196240
I0526 18:18:37.136494  1208 layer_factory.hpp:77] Creating layer bn4f_branch2a
I0526 18:18:37.136500  1208 net.cpp:84] Creating Layer bn4f_branch2a
I0526 18:18:37.136503  1208 net.cpp:406] bn4f_branch2a <- res4f_branch2a
I0526 18:18:37.136507  1208 net.cpp:367] bn4f_branch2a -> res4f_branch2a (in-place)
I0526 18:18:37.136795  1208 net.cpp:122] Setting up bn4f_branch2a
I0526 18:18:37.136802  1208 net.cpp:129] Top shape: 4 256 14 14 (200704)
I0526 18:18:37.136819  1208 net.cpp:137] Memory required for data: 854999056
I0526 18:18:37.136826  1208 layer_factory.hpp:77] Creating layer scale4f_branch2a
I0526 18:18:37.136845  1208 net.cpp:84] Creating Layer scale4f_branch2a
I0526 18:18:37.136848  1208 net.cpp:406] scale4f_branch2a <- res4f_branch2a
I0526 18:18:37.136852  1208 net.cpp:367] scale4f_branch2a -> res4f_branch2a (in-place)
I0526 18:18:37.136898  1208 layer_factory.hpp:77] Creating layer scale4f_branch2a
I0526 18:18:37.137068  1208 net.cpp:122] Setting up scale4f_branch2a
I0526 18:18:37.137075  1208 net.cpp:129] Top shape: 4 256 14 14 (200704)
I0526 18:18:37.137085  1208 net.cpp:137] Memory required for data: 855801872
I0526 18:18:37.137091  1208 layer_factory.hpp:77] Creating layer res4f_branch2a_relu
I0526 18:18:37.137095  1208 net.cpp:84] Creating Layer res4f_branch2a_relu
I0526 18:18:37.137099  1208 net.cpp:406] res4f_branch2a_relu <- res4f_branch2a
I0526 18:18:37.137104  1208 net.cpp:367] res4f_branch2a_relu -> res4f_branch2a (in-place)
I0526 18:18:37.137321  1208 net.cpp:122] Setting up res4f_branch2a_relu
I0526 18:18:37.137329  1208 net.cpp:129] Top shape: 4 256 14 14 (200704)
I0526 18:18:37.137332  1208 net.cpp:137] Memory required for data: 856604688
I0526 18:18:37.137336  1208 layer_factory.hpp:77] Creating layer res4f_branch2b
I0526 18:18:37.137342  1208 net.cpp:84] Creating Layer res4f_branch2b
I0526 18:18:37.137346  1208 net.cpp:406] res4f_branch2b <- res4f_branch2a
I0526 18:18:37.137351  1208 net.cpp:380] res4f_branch2b -> res4f_branch2b
I0526 18:18:37.142675  1208 net.cpp:122] Setting up res4f_branch2b
I0526 18:18:37.142695  1208 net.cpp:129] Top shape: 4 256 14 14 (200704)
I0526 18:18:37.142699  1208 net.cpp:137] Memory required for data: 857407504
I0526 18:18:37.142722  1208 layer_factory.hpp:77] Creating layer bn4f_branch2b
I0526 18:18:37.142746  1208 net.cpp:84] Creating Layer bn4f_branch2b
I0526 18:18:37.142751  1208 net.cpp:406] bn4f_branch2b <- res4f_branch2b
I0526 18:18:37.142756  1208 net.cpp:367] bn4f_branch2b -> res4f_branch2b (in-place)
I0526 18:18:37.143038  1208 net.cpp:122] Setting up bn4f_branch2b
I0526 18:18:37.143049  1208 net.cpp:129] Top shape: 4 256 14 14 (200704)
I0526 18:18:37.143052  1208 net.cpp:137] Memory required for data: 858210320
I0526 18:18:37.143059  1208 layer_factory.hpp:77] Creating layer scale4f_branch2b
I0526 18:18:37.143064  1208 net.cpp:84] Creating Layer scale4f_branch2b
I0526 18:18:37.143067  1208 net.cpp:406] scale4f_branch2b <- res4f_branch2b
I0526 18:18:37.143071  1208 net.cpp:367] scale4f_branch2b -> res4f_branch2b (in-place)
I0526 18:18:37.143173  1208 layer_factory.hpp:77] Creating layer scale4f_branch2b
I0526 18:18:37.143368  1208 net.cpp:122] Setting up scale4f_branch2b
I0526 18:18:37.143374  1208 net.cpp:129] Top shape: 4 256 14 14 (200704)
I0526 18:18:37.143378  1208 net.cpp:137] Memory required for data: 859013136
I0526 18:18:37.143383  1208 layer_factory.hpp:77] Creating layer res4f_branch2b_relu
I0526 18:18:37.143388  1208 net.cpp:84] Creating Layer res4f_branch2b_relu
I0526 18:18:37.143389  1208 net.cpp:406] res4f_branch2b_relu <- res4f_branch2b
I0526 18:18:37.143393  1208 net.cpp:367] res4f_branch2b_relu -> res4f_branch2b (in-place)
I0526 18:18:37.143919  1208 net.cpp:122] Setting up res4f_branch2b_relu
I0526 18:18:37.143930  1208 net.cpp:129] Top shape: 4 256 14 14 (200704)
I0526 18:18:37.143934  1208 net.cpp:137] Memory required for data: 859815952
I0526 18:18:37.143936  1208 layer_factory.hpp:77] Creating layer res4f_branch2c
I0526 18:18:37.143944  1208 net.cpp:84] Creating Layer res4f_branch2c
I0526 18:18:37.143949  1208 net.cpp:406] res4f_branch2c <- res4f_branch2b
I0526 18:18:37.143954  1208 net.cpp:380] res4f_branch2c -> res4f_branch2c
I0526 18:18:37.147652  1208 net.cpp:122] Setting up res4f_branch2c
I0526 18:18:37.147691  1208 net.cpp:129] Top shape: 4 1024 14 14 (802816)
I0526 18:18:37.147694  1208 net.cpp:137] Memory required for data: 863027216
I0526 18:18:37.147703  1208 layer_factory.hpp:77] Creating layer bn4f_branch2c
I0526 18:18:37.147712  1208 net.cpp:84] Creating Layer bn4f_branch2c
I0526 18:18:37.147717  1208 net.cpp:406] bn4f_branch2c <- res4f_branch2c
I0526 18:18:37.147723  1208 net.cpp:367] bn4f_branch2c -> res4f_branch2c (in-place)
I0526 18:18:37.148075  1208 net.cpp:122] Setting up bn4f_branch2c
I0526 18:18:37.148085  1208 net.cpp:129] Top shape: 4 1024 14 14 (802816)
I0526 18:18:37.148102  1208 net.cpp:137] Memory required for data: 866238480
I0526 18:18:37.148128  1208 layer_factory.hpp:77] Creating layer scale4f_branch2c
I0526 18:18:37.148136  1208 net.cpp:84] Creating Layer scale4f_branch2c
I0526 18:18:37.148152  1208 net.cpp:406] scale4f_branch2c <- res4f_branch2c
I0526 18:18:37.148183  1208 net.cpp:367] scale4f_branch2c -> res4f_branch2c (in-place)
I0526 18:18:37.148253  1208 layer_factory.hpp:77] Creating layer scale4f_branch2c
I0526 18:18:37.148398  1208 net.cpp:122] Setting up scale4f_branch2c
I0526 18:18:37.148406  1208 net.cpp:129] Top shape: 4 1024 14 14 (802816)
I0526 18:18:37.148408  1208 net.cpp:137] Memory required for data: 869449744
I0526 18:18:37.148414  1208 layer_factory.hpp:77] Creating layer res4f
I0526 18:18:37.148419  1208 net.cpp:84] Creating Layer res4f
I0526 18:18:37.148423  1208 net.cpp:406] res4f <- res4e_res4e_relu_0_split_1
I0526 18:18:37.148428  1208 net.cpp:406] res4f <- res4f_branch2c
I0526 18:18:37.148434  1208 net.cpp:380] res4f -> res4f
I0526 18:18:37.148475  1208 net.cpp:122] Setting up res4f
I0526 18:18:37.148528  1208 net.cpp:129] Top shape: 4 1024 14 14 (802816)
I0526 18:18:37.148533  1208 net.cpp:137] Memory required for data: 872661008
I0526 18:18:37.148537  1208 layer_factory.hpp:77] Creating layer res4f_relu
I0526 18:18:37.148542  1208 net.cpp:84] Creating Layer res4f_relu
I0526 18:18:37.148546  1208 net.cpp:406] res4f_relu <- res4f
I0526 18:18:37.148551  1208 net.cpp:367] res4f_relu -> res4f (in-place)
I0526 18:18:37.148815  1208 net.cpp:122] Setting up res4f_relu
I0526 18:18:37.148823  1208 net.cpp:129] Top shape: 4 1024 14 14 (802816)
I0526 18:18:37.148825  1208 net.cpp:137] Memory required for data: 875872272
I0526 18:18:37.148843  1208 layer_factory.hpp:77] Creating layer res4f_res4f_relu_0_split
I0526 18:18:37.148847  1208 net.cpp:84] Creating Layer res4f_res4f_relu_0_split
I0526 18:18:37.148866  1208 net.cpp:406] res4f_res4f_relu_0_split <- res4f
I0526 18:18:37.148871  1208 net.cpp:380] res4f_res4f_relu_0_split -> res4f_res4f_relu_0_split_0
I0526 18:18:37.148878  1208 net.cpp:380] res4f_res4f_relu_0_split -> res4f_res4f_relu_0_split_1
I0526 18:18:37.148957  1208 net.cpp:122] Setting up res4f_res4f_relu_0_split
I0526 18:18:37.148975  1208 net.cpp:129] Top shape: 4 1024 14 14 (802816)
I0526 18:18:37.148994  1208 net.cpp:129] Top shape: 4 1024 14 14 (802816)
I0526 18:18:37.148998  1208 net.cpp:137] Memory required for data: 882294800
I0526 18:18:37.149001  1208 layer_factory.hpp:77] Creating layer res5a_branch1
I0526 18:18:37.149010  1208 net.cpp:84] Creating Layer res5a_branch1
I0526 18:18:37.149014  1208 net.cpp:406] res5a_branch1 <- res4f_res4f_relu_0_split_0
I0526 18:18:37.149019  1208 net.cpp:380] res5a_branch1 -> res5a_branch1
I0526 18:18:37.162243  1208 net.cpp:122] Setting up res5a_branch1
I0526 18:18:37.162281  1208 net.cpp:129] Top shape: 4 2048 7 7 (401408)
I0526 18:18:37.162284  1208 net.cpp:137] Memory required for data: 883900432
I0526 18:18:37.162292  1208 layer_factory.hpp:77] Creating layer bn5a_branch1
I0526 18:18:37.162302  1208 net.cpp:84] Creating Layer bn5a_branch1
I0526 18:18:37.162307  1208 net.cpp:406] bn5a_branch1 <- res5a_branch1
I0526 18:18:37.162312  1208 net.cpp:367] bn5a_branch1 -> res5a_branch1 (in-place)
I0526 18:18:37.162621  1208 net.cpp:122] Setting up bn5a_branch1
I0526 18:18:37.162628  1208 net.cpp:129] Top shape: 4 2048 7 7 (401408)
I0526 18:18:37.162631  1208 net.cpp:137] Memory required for data: 885506064
I0526 18:18:37.162638  1208 layer_factory.hpp:77] Creating layer scale5a_branch1
I0526 18:18:37.162644  1208 net.cpp:84] Creating Layer scale5a_branch1
I0526 18:18:37.162647  1208 net.cpp:406] scale5a_branch1 <- res5a_branch1
I0526 18:18:37.162652  1208 net.cpp:367] scale5a_branch1 -> res5a_branch1 (in-place)
I0526 18:18:37.162696  1208 layer_factory.hpp:77] Creating layer scale5a_branch1
I0526 18:18:37.162873  1208 net.cpp:122] Setting up scale5a_branch1
I0526 18:18:37.162880  1208 net.cpp:129] Top shape: 4 2048 7 7 (401408)
I0526 18:18:37.162883  1208 net.cpp:137] Memory required for data: 887111696
I0526 18:18:37.162889  1208 layer_factory.hpp:77] Creating layer res5a_branch2a
I0526 18:18:37.162896  1208 net.cpp:84] Creating Layer res5a_branch2a
I0526 18:18:37.162899  1208 net.cpp:406] res5a_branch2a <- res4f_res4f_relu_0_split_1
I0526 18:18:37.162904  1208 net.cpp:380] res5a_branch2a -> res5a_branch2a
I0526 18:18:37.166935  1208 net.cpp:122] Setting up res5a_branch2a
I0526 18:18:37.166951  1208 net.cpp:129] Top shape: 4 512 7 7 (100352)
I0526 18:18:37.166954  1208 net.cpp:137] Memory required for data: 887513104
I0526 18:18:37.166960  1208 layer_factory.hpp:77] Creating layer bn5a_branch2a
I0526 18:18:37.166967  1208 net.cpp:84] Creating Layer bn5a_branch2a
I0526 18:18:37.166971  1208 net.cpp:406] bn5a_branch2a <- res5a_branch2a
I0526 18:18:37.166976  1208 net.cpp:367] bn5a_branch2a -> res5a_branch2a (in-place)
I0526 18:18:37.167284  1208 net.cpp:122] Setting up bn5a_branch2a
I0526 18:18:37.167290  1208 net.cpp:129] Top shape: 4 512 7 7 (100352)
I0526 18:18:37.167294  1208 net.cpp:137] Memory required for data: 887914512
I0526 18:18:37.167299  1208 layer_factory.hpp:77] Creating layer scale5a_branch2a
I0526 18:18:37.167304  1208 net.cpp:84] Creating Layer scale5a_branch2a
I0526 18:18:37.167309  1208 net.cpp:406] scale5a_branch2a <- res5a_branch2a
I0526 18:18:37.167311  1208 net.cpp:367] scale5a_branch2a -> res5a_branch2a (in-place)
I0526 18:18:37.167381  1208 layer_factory.hpp:77] Creating layer scale5a_branch2a
I0526 18:18:37.167572  1208 net.cpp:122] Setting up scale5a_branch2a
I0526 18:18:37.167577  1208 net.cpp:129] Top shape: 4 512 7 7 (100352)
I0526 18:18:37.167580  1208 net.cpp:137] Memory required for data: 888315920
I0526 18:18:37.167587  1208 layer_factory.hpp:77] Creating layer res5a_branch2a_relu
I0526 18:18:37.167590  1208 net.cpp:84] Creating Layer res5a_branch2a_relu
I0526 18:18:37.167593  1208 net.cpp:406] res5a_branch2a_relu <- res5a_branch2a
I0526 18:18:37.167598  1208 net.cpp:367] res5a_branch2a_relu -> res5a_branch2a (in-place)
I0526 18:18:37.167819  1208 net.cpp:122] Setting up res5a_branch2a_relu
I0526 18:18:37.167826  1208 net.cpp:129] Top shape: 4 512 7 7 (100352)
I0526 18:18:37.167829  1208 net.cpp:137] Memory required for data: 888717328
I0526 18:18:37.167831  1208 layer_factory.hpp:77] Creating layer res5a_branch2b
I0526 18:18:37.167840  1208 net.cpp:84] Creating Layer res5a_branch2b
I0526 18:18:37.167842  1208 net.cpp:406] res5a_branch2b <- res5a_branch2a
I0526 18:18:37.167846  1208 net.cpp:380] res5a_branch2b -> res5a_branch2b
I0526 18:18:37.181762  1208 net.cpp:122] Setting up res5a_branch2b
I0526 18:18:37.181788  1208 net.cpp:129] Top shape: 4 512 7 7 (100352)
I0526 18:18:37.181792  1208 net.cpp:137] Memory required for data: 889118736
I0526 18:18:37.181800  1208 layer_factory.hpp:77] Creating layer bn5a_branch2b
I0526 18:18:37.181808  1208 net.cpp:84] Creating Layer bn5a_branch2b
I0526 18:18:37.181813  1208 net.cpp:406] bn5a_branch2b <- res5a_branch2b
I0526 18:18:37.181819  1208 net.cpp:367] bn5a_branch2b -> res5a_branch2b (in-place)
I0526 18:18:37.182160  1208 net.cpp:122] Setting up bn5a_branch2b
I0526 18:18:37.182209  1208 net.cpp:129] Top shape: 4 512 7 7 (100352)
I0526 18:18:37.182235  1208 net.cpp:137] Memory required for data: 889520144
I0526 18:18:37.182271  1208 layer_factory.hpp:77] Creating layer scale5a_branch2b
I0526 18:18:37.182277  1208 net.cpp:84] Creating Layer scale5a_branch2b
I0526 18:18:37.182314  1208 net.cpp:406] scale5a_branch2b <- res5a_branch2b
I0526 18:18:37.182332  1208 net.cpp:367] scale5a_branch2b -> res5a_branch2b (in-place)
I0526 18:18:37.182405  1208 layer_factory.hpp:77] Creating layer scale5a_branch2b
I0526 18:18:37.182590  1208 net.cpp:122] Setting up scale5a_branch2b
I0526 18:18:37.182596  1208 net.cpp:129] Top shape: 4 512 7 7 (100352)
I0526 18:18:37.182600  1208 net.cpp:137] Memory required for data: 889921552
I0526 18:18:37.182605  1208 layer_factory.hpp:77] Creating layer res5a_branch2b_relu
I0526 18:18:37.182610  1208 net.cpp:84] Creating Layer res5a_branch2b_relu
I0526 18:18:37.182612  1208 net.cpp:406] res5a_branch2b_relu <- res5a_branch2b
I0526 18:18:37.182616  1208 net.cpp:367] res5a_branch2b_relu -> res5a_branch2b (in-place)
I0526 18:18:37.183260  1208 net.cpp:122] Setting up res5a_branch2b_relu
I0526 18:18:37.183286  1208 net.cpp:129] Top shape: 4 512 7 7 (100352)
I0526 18:18:37.183290  1208 net.cpp:137] Memory required for data: 890322960
I0526 18:18:37.183320  1208 layer_factory.hpp:77] Creating layer res5a_branch2c
I0526 18:18:37.183329  1208 net.cpp:84] Creating Layer res5a_branch2c
I0526 18:18:37.183333  1208 net.cpp:406] res5a_branch2c <- res5a_branch2b
I0526 18:18:37.183339  1208 net.cpp:380] res5a_branch2c -> res5a_branch2c
I0526 18:18:37.190088  1208 net.cpp:122] Setting up res5a_branch2c
I0526 18:18:37.190125  1208 net.cpp:129] Top shape: 4 2048 7 7 (401408)
I0526 18:18:37.190129  1208 net.cpp:137] Memory required for data: 891928592
I0526 18:18:37.190138  1208 layer_factory.hpp:77] Creating layer bn5a_branch2c
I0526 18:18:37.190167  1208 net.cpp:84] Creating Layer bn5a_branch2c
I0526 18:18:37.190174  1208 net.cpp:406] bn5a_branch2c <- res5a_branch2c
I0526 18:18:37.190179  1208 net.cpp:367] bn5a_branch2c -> res5a_branch2c (in-place)
I0526 18:18:37.190475  1208 net.cpp:122] Setting up bn5a_branch2c
I0526 18:18:37.190482  1208 net.cpp:129] Top shape: 4 2048 7 7 (401408)
I0526 18:18:37.190500  1208 net.cpp:137] Memory required for data: 893534224
I0526 18:18:37.190506  1208 layer_factory.hpp:77] Creating layer scale5a_branch2c
I0526 18:18:37.190526  1208 net.cpp:84] Creating Layer scale5a_branch2c
I0526 18:18:37.190529  1208 net.cpp:406] scale5a_branch2c <- res5a_branch2c
I0526 18:18:37.190534  1208 net.cpp:367] scale5a_branch2c -> res5a_branch2c (in-place)
I0526 18:18:37.190582  1208 layer_factory.hpp:77] Creating layer scale5a_branch2c
I0526 18:18:37.190768  1208 net.cpp:122] Setting up scale5a_branch2c
I0526 18:18:37.190788  1208 net.cpp:129] Top shape: 4 2048 7 7 (401408)
I0526 18:18:37.190790  1208 net.cpp:137] Memory required for data: 895139856
I0526 18:18:37.190810  1208 layer_factory.hpp:77] Creating layer res5a
I0526 18:18:37.190814  1208 net.cpp:84] Creating Layer res5a
I0526 18:18:37.190819  1208 net.cpp:406] res5a <- res5a_branch1
I0526 18:18:37.190835  1208 net.cpp:406] res5a <- res5a_branch2c
I0526 18:18:37.190841  1208 net.cpp:380] res5a -> res5a
I0526 18:18:37.190881  1208 net.cpp:122] Setting up res5a
I0526 18:18:37.190901  1208 net.cpp:129] Top shape: 4 2048 7 7 (401408)
I0526 18:18:37.190906  1208 net.cpp:137] Memory required for data: 896745488
I0526 18:18:37.190908  1208 layer_factory.hpp:77] Creating layer res5a_relu
I0526 18:18:37.190913  1208 net.cpp:84] Creating Layer res5a_relu
I0526 18:18:37.190917  1208 net.cpp:406] res5a_relu <- res5a
I0526 18:18:37.190920  1208 net.cpp:367] res5a_relu -> res5a (in-place)
I0526 18:18:37.191179  1208 net.cpp:122] Setting up res5a_relu
I0526 18:18:37.191187  1208 net.cpp:129] Top shape: 4 2048 7 7 (401408)
I0526 18:18:37.191205  1208 net.cpp:137] Memory required for data: 898351120
I0526 18:18:37.191207  1208 layer_factory.hpp:77] Creating layer res5a_res5a_relu_0_split
I0526 18:18:37.191212  1208 net.cpp:84] Creating Layer res5a_res5a_relu_0_split
I0526 18:18:37.191215  1208 net.cpp:406] res5a_res5a_relu_0_split <- res5a
I0526 18:18:37.191236  1208 net.cpp:380] res5a_res5a_relu_0_split -> res5a_res5a_relu_0_split_0
I0526 18:18:37.191242  1208 net.cpp:380] res5a_res5a_relu_0_split -> res5a_res5a_relu_0_split_1
I0526 18:18:37.191295  1208 net.cpp:122] Setting up res5a_res5a_relu_0_split
I0526 18:18:37.191301  1208 net.cpp:129] Top shape: 4 2048 7 7 (401408)
I0526 18:18:37.191306  1208 net.cpp:129] Top shape: 4 2048 7 7 (401408)
I0526 18:18:37.191309  1208 net.cpp:137] Memory required for data: 901562384
I0526 18:18:37.191313  1208 layer_factory.hpp:77] Creating layer res5b_branch2a
I0526 18:18:37.191323  1208 net.cpp:84] Creating Layer res5b_branch2a
I0526 18:18:37.191326  1208 net.cpp:406] res5b_branch2a <- res5a_res5a_relu_0_split_0
I0526 18:18:37.191347  1208 net.cpp:380] res5b_branch2a -> res5b_branch2a
I0526 18:18:37.198539  1208 net.cpp:122] Setting up res5b_branch2a
I0526 18:18:37.198575  1208 net.cpp:129] Top shape: 4 512 7 7 (100352)
I0526 18:18:37.198580  1208 net.cpp:137] Memory required for data: 901963792
I0526 18:18:37.198587  1208 layer_factory.hpp:77] Creating layer bn5b_branch2a
I0526 18:18:37.198616  1208 net.cpp:84] Creating Layer bn5b_branch2a
I0526 18:18:37.198632  1208 net.cpp:406] bn5b_branch2a <- res5b_branch2a
I0526 18:18:37.198652  1208 net.cpp:367] bn5b_branch2a -> res5b_branch2a (in-place)
I0526 18:18:37.198966  1208 net.cpp:122] Setting up bn5b_branch2a
I0526 18:18:37.198972  1208 net.cpp:129] Top shape: 4 512 7 7 (100352)
I0526 18:18:37.198976  1208 net.cpp:137] Memory required for data: 902365200
I0526 18:18:37.198982  1208 layer_factory.hpp:77] Creating layer scale5b_branch2a
I0526 18:18:37.198987  1208 net.cpp:84] Creating Layer scale5b_branch2a
I0526 18:18:37.198992  1208 net.cpp:406] scale5b_branch2a <- res5b_branch2a
I0526 18:18:37.198994  1208 net.cpp:367] scale5b_branch2a -> res5b_branch2a (in-place)
I0526 18:18:37.199080  1208 layer_factory.hpp:77] Creating layer scale5b_branch2a
I0526 18:18:37.199283  1208 net.cpp:122] Setting up scale5b_branch2a
I0526 18:18:37.199290  1208 net.cpp:129] Top shape: 4 512 7 7 (100352)
I0526 18:18:37.199293  1208 net.cpp:137] Memory required for data: 902766608
I0526 18:18:37.199298  1208 layer_factory.hpp:77] Creating layer res5b_branch2a_relu
I0526 18:18:37.199303  1208 net.cpp:84] Creating Layer res5b_branch2a_relu
I0526 18:18:37.199307  1208 net.cpp:406] res5b_branch2a_relu <- res5b_branch2a
I0526 18:18:37.199311  1208 net.cpp:367] res5b_branch2a_relu -> res5b_branch2a (in-place)
I0526 18:18:37.199522  1208 net.cpp:122] Setting up res5b_branch2a_relu
I0526 18:18:37.199529  1208 net.cpp:129] Top shape: 4 512 7 7 (100352)
I0526 18:18:37.199533  1208 net.cpp:137] Memory required for data: 903168016
I0526 18:18:37.199537  1208 layer_factory.hpp:77] Creating layer res5b_branch2b
I0526 18:18:37.199543  1208 net.cpp:84] Creating Layer res5b_branch2b
I0526 18:18:37.199546  1208 net.cpp:406] res5b_branch2b <- res5b_branch2a
I0526 18:18:37.199551  1208 net.cpp:380] res5b_branch2b -> res5b_branch2b
I0526 18:18:37.214967  1208 net.cpp:122] Setting up res5b_branch2b
I0526 18:18:37.215014  1208 net.cpp:129] Top shape: 4 512 7 7 (100352)
I0526 18:18:37.215018  1208 net.cpp:137] Memory required for data: 903569424
I0526 18:18:37.215029  1208 layer_factory.hpp:77] Creating layer bn5b_branch2b
I0526 18:18:37.215037  1208 net.cpp:84] Creating Layer bn5b_branch2b
I0526 18:18:37.215041  1208 net.cpp:406] bn5b_branch2b <- res5b_branch2b
I0526 18:18:37.215047  1208 net.cpp:367] bn5b_branch2b -> res5b_branch2b (in-place)
I0526 18:18:37.215421  1208 net.cpp:122] Setting up bn5b_branch2b
I0526 18:18:37.215435  1208 net.cpp:129] Top shape: 4 512 7 7 (100352)
I0526 18:18:37.215438  1208 net.cpp:137] Memory required for data: 903970832
I0526 18:18:37.215459  1208 layer_factory.hpp:77] Creating layer scale5b_branch2b
I0526 18:18:37.215479  1208 net.cpp:84] Creating Layer scale5b_branch2b
I0526 18:18:37.215483  1208 net.cpp:406] scale5b_branch2b <- res5b_branch2b
I0526 18:18:37.215488  1208 net.cpp:367] scale5b_branch2b -> res5b_branch2b (in-place)
I0526 18:18:37.215548  1208 layer_factory.hpp:77] Creating layer scale5b_branch2b
I0526 18:18:37.215767  1208 net.cpp:122] Setting up scale5b_branch2b
I0526 18:18:37.215775  1208 net.cpp:129] Top shape: 4 512 7 7 (100352)
I0526 18:18:37.215790  1208 net.cpp:137] Memory required for data: 904372240
I0526 18:18:37.215795  1208 layer_factory.hpp:77] Creating layer res5b_branch2b_relu
I0526 18:18:37.215816  1208 net.cpp:84] Creating Layer res5b_branch2b_relu
I0526 18:18:37.215837  1208 net.cpp:406] res5b_branch2b_relu <- res5b_branch2b
I0526 18:18:37.215857  1208 net.cpp:367] res5b_branch2b_relu -> res5b_branch2b (in-place)
I0526 18:18:37.216773  1208 net.cpp:122] Setting up res5b_branch2b_relu
I0526 18:18:37.216807  1208 net.cpp:129] Top shape: 4 512 7 7 (100352)
I0526 18:18:37.216810  1208 net.cpp:137] Memory required for data: 904773648
I0526 18:18:37.216815  1208 layer_factory.hpp:77] Creating layer res5b_branch2c
I0526 18:18:37.216827  1208 net.cpp:84] Creating Layer res5b_branch2c
I0526 18:18:37.216832  1208 net.cpp:406] res5b_branch2c <- res5b_branch2b
I0526 18:18:37.216840  1208 net.cpp:380] res5b_branch2c -> res5b_branch2c
I0526 18:18:37.224071  1208 net.cpp:122] Setting up res5b_branch2c
I0526 18:18:37.224120  1208 net.cpp:129] Top shape: 4 2048 7 7 (401408)
I0526 18:18:37.224125  1208 net.cpp:137] Memory required for data: 906379280
I0526 18:18:37.224133  1208 layer_factory.hpp:77] Creating layer bn5b_branch2c
I0526 18:18:37.224155  1208 net.cpp:84] Creating Layer bn5b_branch2c
I0526 18:18:37.224159  1208 net.cpp:406] bn5b_branch2c <- res5b_branch2c
I0526 18:18:37.224165  1208 net.cpp:367] bn5b_branch2c -> res5b_branch2c (in-place)
I0526 18:18:37.224476  1208 net.cpp:122] Setting up bn5b_branch2c
I0526 18:18:37.224483  1208 net.cpp:129] Top shape: 4 2048 7 7 (401408)
I0526 18:18:37.224486  1208 net.cpp:137] Memory required for data: 907984912
I0526 18:18:37.224493  1208 layer_factory.hpp:77] Creating layer scale5b_branch2c
I0526 18:18:37.224499  1208 net.cpp:84] Creating Layer scale5b_branch2c
I0526 18:18:37.224503  1208 net.cpp:406] scale5b_branch2c <- res5b_branch2c
I0526 18:18:37.224505  1208 net.cpp:367] scale5b_branch2c -> res5b_branch2c (in-place)
I0526 18:18:37.224598  1208 layer_factory.hpp:77] Creating layer scale5b_branch2c
I0526 18:18:37.224783  1208 net.cpp:122] Setting up scale5b_branch2c
I0526 18:18:37.224791  1208 net.cpp:129] Top shape: 4 2048 7 7 (401408)
I0526 18:18:37.224793  1208 net.cpp:137] Memory required for data: 909590544
I0526 18:18:37.224799  1208 layer_factory.hpp:77] Creating layer res5b
I0526 18:18:37.224804  1208 net.cpp:84] Creating Layer res5b
I0526 18:18:37.224807  1208 net.cpp:406] res5b <- res5a_res5a_relu_0_split_1
I0526 18:18:37.224812  1208 net.cpp:406] res5b <- res5b_branch2c
I0526 18:18:37.224815  1208 net.cpp:380] res5b -> res5b
I0526 18:18:37.224844  1208 net.cpp:122] Setting up res5b
I0526 18:18:37.224849  1208 net.cpp:129] Top shape: 4 2048 7 7 (401408)
I0526 18:18:37.224853  1208 net.cpp:137] Memory required for data: 911196176
I0526 18:18:37.224855  1208 layer_factory.hpp:77] Creating layer res5b_relu
I0526 18:18:37.224860  1208 net.cpp:84] Creating Layer res5b_relu
I0526 18:18:37.224864  1208 net.cpp:406] res5b_relu <- res5b
I0526 18:18:37.224867  1208 net.cpp:367] res5b_relu -> res5b (in-place)
I0526 18:18:37.225075  1208 net.cpp:122] Setting up res5b_relu
I0526 18:18:37.225085  1208 net.cpp:129] Top shape: 4 2048 7 7 (401408)
I0526 18:18:37.225087  1208 net.cpp:137] Memory required for data: 912801808
I0526 18:18:37.225090  1208 layer_factory.hpp:77] Creating layer res5b_res5b_relu_0_split
I0526 18:18:37.225095  1208 net.cpp:84] Creating Layer res5b_res5b_relu_0_split
I0526 18:18:37.225098  1208 net.cpp:406] res5b_res5b_relu_0_split <- res5b
I0526 18:18:37.225103  1208 net.cpp:380] res5b_res5b_relu_0_split -> res5b_res5b_relu_0_split_0
I0526 18:18:37.225108  1208 net.cpp:380] res5b_res5b_relu_0_split -> res5b_res5b_relu_0_split_1
I0526 18:18:37.225157  1208 net.cpp:122] Setting up res5b_res5b_relu_0_split
I0526 18:18:37.225163  1208 net.cpp:129] Top shape: 4 2048 7 7 (401408)
I0526 18:18:37.225167  1208 net.cpp:129] Top shape: 4 2048 7 7 (401408)
I0526 18:18:37.225170  1208 net.cpp:137] Memory required for data: 916013072
I0526 18:18:37.225173  1208 layer_factory.hpp:77] Creating layer res5c_branch2a
I0526 18:18:37.225183  1208 net.cpp:84] Creating Layer res5c_branch2a
I0526 18:18:37.225185  1208 net.cpp:406] res5c_branch2a <- res5b_res5b_relu_0_split_0
I0526 18:18:37.225189  1208 net.cpp:380] res5c_branch2a -> res5c_branch2a
I0526 18:18:37.232306  1208 net.cpp:122] Setting up res5c_branch2a
I0526 18:18:37.232328  1208 net.cpp:129] Top shape: 4 512 7 7 (100352)
I0526 18:18:37.232332  1208 net.cpp:137] Memory required for data: 916414480
I0526 18:18:37.232339  1208 layer_factory.hpp:77] Creating layer bn5c_branch2a
I0526 18:18:37.232347  1208 net.cpp:84] Creating Layer bn5c_branch2a
I0526 18:18:37.232352  1208 net.cpp:406] bn5c_branch2a <- res5c_branch2a
I0526 18:18:37.232358  1208 net.cpp:367] bn5c_branch2a -> res5c_branch2a (in-place)
I0526 18:18:37.232628  1208 net.cpp:122] Setting up bn5c_branch2a
I0526 18:18:37.232636  1208 net.cpp:129] Top shape: 4 512 7 7 (100352)
I0526 18:18:37.232640  1208 net.cpp:137] Memory required for data: 916815888
I0526 18:18:37.232658  1208 layer_factory.hpp:77] Creating layer scale5c_branch2a
I0526 18:18:37.232664  1208 net.cpp:84] Creating Layer scale5c_branch2a
I0526 18:18:37.232667  1208 net.cpp:406] scale5c_branch2a <- res5c_branch2a
I0526 18:18:37.232672  1208 net.cpp:367] scale5c_branch2a -> res5c_branch2a (in-place)
I0526 18:18:37.232717  1208 layer_factory.hpp:77] Creating layer scale5c_branch2a
I0526 18:18:37.232894  1208 net.cpp:122] Setting up scale5c_branch2a
I0526 18:18:37.232900  1208 net.cpp:129] Top shape: 4 512 7 7 (100352)
I0526 18:18:37.232903  1208 net.cpp:137] Memory required for data: 917217296
I0526 18:18:37.232909  1208 layer_factory.hpp:77] Creating layer res5c_branch2a_relu
I0526 18:18:37.232913  1208 net.cpp:84] Creating Layer res5c_branch2a_relu
I0526 18:18:37.232916  1208 net.cpp:406] res5c_branch2a_relu <- res5c_branch2a
I0526 18:18:37.232920  1208 net.cpp:367] res5c_branch2a_relu -> res5c_branch2a (in-place)
I0526 18:18:37.233100  1208 net.cpp:122] Setting up res5c_branch2a_relu
I0526 18:18:37.233108  1208 net.cpp:129] Top shape: 4 512 7 7 (100352)
I0526 18:18:37.233111  1208 net.cpp:137] Memory required for data: 917618704
I0526 18:18:37.233114  1208 layer_factory.hpp:77] Creating layer res5c_branch2b
I0526 18:18:37.233124  1208 net.cpp:84] Creating Layer res5c_branch2b
I0526 18:18:37.233126  1208 net.cpp:406] res5c_branch2b <- res5c_branch2a
I0526 18:18:37.233131  1208 net.cpp:380] res5c_branch2b -> res5c_branch2b
I0526 18:18:37.246632  1208 net.cpp:122] Setting up res5c_branch2b
I0526 18:18:37.246655  1208 net.cpp:129] Top shape: 4 512 7 7 (100352)
I0526 18:18:37.246659  1208 net.cpp:137] Memory required for data: 918020112
I0526 18:18:37.246680  1208 layer_factory.hpp:77] Creating layer bn5c_branch2b
I0526 18:18:37.246701  1208 net.cpp:84] Creating Layer bn5c_branch2b
I0526 18:18:37.246707  1208 net.cpp:406] bn5c_branch2b <- res5c_branch2b
I0526 18:18:37.246716  1208 net.cpp:367] bn5c_branch2b -> res5c_branch2b (in-place)
I0526 18:18:37.247045  1208 net.cpp:122] Setting up bn5c_branch2b
I0526 18:18:37.247052  1208 net.cpp:129] Top shape: 4 512 7 7 (100352)
I0526 18:18:37.247056  1208 net.cpp:137] Memory required for data: 918421520
I0526 18:18:37.247062  1208 layer_factory.hpp:77] Creating layer scale5c_branch2b
I0526 18:18:37.247082  1208 net.cpp:84] Creating Layer scale5c_branch2b
I0526 18:18:37.247087  1208 net.cpp:406] scale5c_branch2b <- res5c_branch2b
I0526 18:18:37.247092  1208 net.cpp:367] scale5c_branch2b -> res5c_branch2b (in-place)
I0526 18:18:37.247153  1208 layer_factory.hpp:77] Creating layer scale5c_branch2b
I0526 18:18:37.247360  1208 net.cpp:122] Setting up scale5c_branch2b
I0526 18:18:37.247382  1208 net.cpp:129] Top shape: 4 512 7 7 (100352)
I0526 18:18:37.247385  1208 net.cpp:137] Memory required for data: 918822928
I0526 18:18:37.247390  1208 layer_factory.hpp:77] Creating layer res5c_branch2b_relu
I0526 18:18:37.247411  1208 net.cpp:84] Creating Layer res5c_branch2b_relu
I0526 18:18:37.247413  1208 net.cpp:406] res5c_branch2b_relu <- res5c_branch2b
I0526 18:18:37.247417  1208 net.cpp:367] res5c_branch2b_relu -> res5c_branch2b (in-place)
I0526 18:18:37.247647  1208 net.cpp:122] Setting up res5c_branch2b_relu
I0526 18:18:37.247670  1208 net.cpp:129] Top shape: 4 512 7 7 (100352)
I0526 18:18:37.247674  1208 net.cpp:137] Memory required for data: 919224336
I0526 18:18:37.247678  1208 layer_factory.hpp:77] Creating layer res5c_branch2c
I0526 18:18:37.247700  1208 net.cpp:84] Creating Layer res5c_branch2c
I0526 18:18:37.247721  1208 net.cpp:406] res5c_branch2c <- res5c_branch2b
I0526 18:18:37.247730  1208 net.cpp:380] res5c_branch2c -> res5c_branch2c
I0526 18:18:37.254689  1208 net.cpp:122] Setting up res5c_branch2c
I0526 18:18:37.254730  1208 net.cpp:129] Top shape: 4 2048 7 7 (401408)
I0526 18:18:37.254734  1208 net.cpp:137] Memory required for data: 920829968
I0526 18:18:37.254760  1208 layer_factory.hpp:77] Creating layer bn5c_branch2c
I0526 18:18:37.254770  1208 net.cpp:84] Creating Layer bn5c_branch2c
I0526 18:18:37.254776  1208 net.cpp:406] bn5c_branch2c <- res5c_branch2c
I0526 18:18:37.254813  1208 net.cpp:367] bn5c_branch2c -> res5c_branch2c (in-place)
I0526 18:18:37.255141  1208 net.cpp:122] Setting up bn5c_branch2c
I0526 18:18:37.255164  1208 net.cpp:129] Top shape: 4 2048 7 7 (401408)
I0526 18:18:37.255167  1208 net.cpp:137] Memory required for data: 922435600
I0526 18:18:37.255175  1208 layer_factory.hpp:77] Creating layer scale5c_branch2c
I0526 18:18:37.255197  1208 net.cpp:84] Creating Layer scale5c_branch2c
I0526 18:18:37.255205  1208 net.cpp:406] scale5c_branch2c <- res5c_branch2c
I0526 18:18:37.255210  1208 net.cpp:367] scale5c_branch2c -> res5c_branch2c (in-place)
I0526 18:18:37.255280  1208 layer_factory.hpp:77] Creating layer scale5c_branch2c
I0526 18:18:37.256501  1208 net.cpp:122] Setting up scale5c_branch2c
I0526 18:18:37.256538  1208 net.cpp:129] Top shape: 4 2048 7 7 (401408)
I0526 18:18:37.256541  1208 net.cpp:137] Memory required for data: 924041232
I0526 18:18:37.256567  1208 layer_factory.hpp:77] Creating layer res5c
I0526 18:18:37.256577  1208 net.cpp:84] Creating Layer res5c
I0526 18:18:37.256582  1208 net.cpp:406] res5c <- res5b_res5b_relu_0_split_1
I0526 18:18:37.256587  1208 net.cpp:406] res5c <- res5c_branch2c
I0526 18:18:37.256593  1208 net.cpp:380] res5c -> res5c
I0526 18:18:37.256654  1208 net.cpp:122] Setting up res5c
I0526 18:18:37.256661  1208 net.cpp:129] Top shape: 4 2048 7 7 (401408)
I0526 18:18:37.256665  1208 net.cpp:137] Memory required for data: 925646864
I0526 18:18:37.256669  1208 layer_factory.hpp:77] Creating layer res5c_relu
I0526 18:18:37.256675  1208 net.cpp:84] Creating Layer res5c_relu
I0526 18:18:37.256677  1208 net.cpp:406] res5c_relu <- res5c
I0526 18:18:37.256681  1208 net.cpp:367] res5c_relu -> res5c (in-place)
I0526 18:18:37.257452  1208 net.cpp:122] Setting up res5c_relu
I0526 18:18:37.257463  1208 net.cpp:129] Top shape: 4 2048 7 7 (401408)
I0526 18:18:37.257467  1208 net.cpp:137] Memory required for data: 927252496
I0526 18:18:37.257484  1208 layer_factory.hpp:77] Creating layer pool5
I0526 18:18:37.257490  1208 net.cpp:84] Creating Layer pool5
I0526 18:18:37.257509  1208 net.cpp:406] pool5 <- res5c
I0526 18:18:37.257515  1208 net.cpp:380] pool5 -> pool5
I0526 18:18:37.257782  1208 net.cpp:122] Setting up pool5
I0526 18:18:37.257791  1208 net.cpp:129] Top shape: 4 2048 1 1 (8192)
I0526 18:18:37.257793  1208 net.cpp:137] Memory required for data: 927285264
I0526 18:18:37.257797  1208 layer_factory.hpp:77] Creating layer fc1000
I0526 18:18:37.257802  1208 net.cpp:84] Creating Layer fc1000
I0526 18:18:37.257807  1208 net.cpp:406] fc1000 <- pool5
I0526 18:18:37.257810  1208 net.cpp:380] fc1000 -> fc1000
I0526 18:18:37.257975  1208 net.cpp:122] Setting up fc1000
I0526 18:18:37.257982  1208 net.cpp:129] Top shape: 4 4 (16)
I0526 18:18:37.257985  1208 net.cpp:137] Memory required for data: 927285328
I0526 18:18:37.258003  1208 layer_factory.hpp:77] Creating layer probt
I0526 18:18:37.258023  1208 net.cpp:84] Creating Layer probt
I0526 18:18:37.258026  1208 net.cpp:406] probt <- fc1000
I0526 18:18:37.258031  1208 net.cpp:380] probt -> probt
I0526 18:18:37.258314  1208 net.cpp:122] Setting up probt
I0526 18:18:37.258323  1208 net.cpp:129] Top shape: 4 4 (16)
I0526 18:18:37.258327  1208 net.cpp:137] Memory required for data: 927285392
I0526 18:18:37.258330  1208 net.cpp:200] probt does not need backward computation.
I0526 18:18:37.258334  1208 net.cpp:200] fc1000 does not need backward computation.
I0526 18:18:37.258337  1208 net.cpp:200] pool5 does not need backward computation.
I0526 18:18:37.258340  1208 net.cpp:200] res5c_relu does not need backward computation.
…
